Data/TFIM1D/Energy/Q40/Trial23.pt (torch_old, 8144 bytes, 3 tensors)

weights f8 [22, 40]
0.27490285922037283 -0.3395576645174427 0.2218348359256023 -0.3003210243504739 0.2018682215881342 0.24606412652385465 -0.1772627158816113 0.17029887464898286
0.0026740350653627443 -0.13652990637760984 -0.28885152094063626 0.12120070203893425 0.09342030489846469 -0.24233885376624822 -0.4059027791854463 -0.1835900276826564
0.14928700130279499 -0.5095814392277778 -0.4933333093757605 -0.1434159111519281 -0.19752379655853736 -0.0592073141286746 0.05238509554305672 0.01730863977296016
-0.8598672905636873 0.2963525019752315 -0.2341467209752441 -2.495771229120809 -1.5861701468177456 -1.1764177960902753 0.126774888956488 -0.18074794618397003
-0.2378845407250821 -0.036912892224114376 -0.9893412931113911 0.16538095221259871 0.4366774839008793 -0.25014515592050235 0.23164916695670248 -0.22390417394511214
-0.014299309344613745 -0.0851719191053343 0.11798188545111377 0.1396970447705782 0.329358138293591 0.22590453824189832 -0.03433208496460641 0.0624383725416444
-0.24858471787238642 0.15486590304382397 0.2984629014011415 0.18590338180775864 0.05211129186849434 2.2327553968814566 5.441600135763437 2.2512312402676016
0.282415920268149 0.2226258868771662 0.19843117176046324 0.04821746024913297 -0.046064196706109145 -0.03937957084772655 -0.13163337131903957 0.009366680515874502
-0.03620135164940829 0.14310416276922489 0.19121920610936166 0.23635518511028403 0.00036863953720381787 0.02987871351238776 0.12698797663267017 0.02995906119978289
0.11764332548831927 -0.03932787705444196 -0.11094463870366363 -0.005169709423661343 -0.021483943370449225 0.00799667488317229 0.05750189614406526 -0.17927095612825644
0.18738477812453497 0.26284086877196966 -0.29696932080479904 0.033608907582795944 0.07592894521774246 -0.2123945885637257 -0.3427331596797356 0.009939573481922086
0.5175394343087328 -0.07672003822800387 0.01485134199955029 0.010855107562671147 -0.1771980833188134 0.08180974188609987 0.009925665266705219 0.1149336027546545
0.06193332224885202 0.01899380423223381 -0.6143283411818283 -0.08689684106466407 0.3441194821183323 0.04156628011477216 0.02805748129520897 0.0937796169726218
0.17285682879086747 0.1091432951801632 0.1757894971000501 0.4649011310815973 -0.09953359496641642 -0.18795068110670407 0.2164876898539416 0.5181401576671385
0.29921405114274724 1.5208296907469037 3.8226008867810988 2.744778499568246 0.6263872185182869 0.02533728176950911 0.12484532893687543 0.06158944238581052
-0.03952737476261089 0.22300546480326006 0.1455067472911772 -0.11523167048512499 -0.001472269942925459 -0.1663689921912942 -0.1290745580361562 -0.00546511351850815
0.1531398249428838 0.1262153481053218 0.44156406977404244 0.014259555103240385 -0.08058436917590464 -0.07034877549952308 -0.12598088142628858 -0.02018977193830245
0.07502533501649021 -0.1513577244628393 -0.24772557607987108 -0.19860855748752174 0.03679293310655407 -2.1388081927971245 -5.284498191002601 -2.157246820232505
-0.13059261316829385 0.2725108456206625 0.0418627302522602 -0.06171848175353028 0.0022480538031277772 0.17295409092781386 0.028715256445005874 0.002246352785224712
-0.09758296923297784 0.01467413884480567 -0.0414378283648849 -0.07897656306161209 -0.02771836019738361 -0.05384621319239709 -0.07248212221542366 -0.05572464293409453
0.11056578251798015 -0.05834981092155086 0.2872980051520779 0.33487084624709884 0.13786335008653727 2.281874762169609 5.410937003187614 2.3092309238210467
0.4642049807540272 0.3419183794750961 0.256865007324779 0.12351711322979728 0.08616997016127456 0.044978986888207964 0.054943167643339355 0.034781382219834484
-0.4328504988217597 -0.08587940150260086 -0.03420636944844318 0.1710013449394587 0.04390119219431263 -0.05381985778290577 -0.21332905817159656 0.086569201985523
0.17682929696409413 -0.20526600201845824 -0.12548988935834898 0.2235723227967316 -0.05916810877324744 -0.026397895049455705 0.1576079979808659 0.144838884443535
-0.09621704133793152 -0.05290294065524035 0.19472037549673815 0.1168308270700149 -0.07263047376588114 0.05121602059402106 -0.07295512656494527 -0.005570873262000757
0.042239259183517765 0.12575354158683116 -0.05812086670893191 -0.1406936846829071 0.19008071451799402 -0.0448878445336223 0.07988518682875284 0.03251844198635276
0.04777711312482541 0.10720356905225038 -0.12048902108687286 0.22163103793384573 0.2574815705577243 -0.08628369561991445 -0.007756992732457313 0.2602785269761835
0.5013098191675018 2.335208828620677 5.308216325606935 2.381016259612292 0.6178092876566695 0.12946311930852653 -0.00031671877483746926 0.1626016676696146
0.14171361987516368 -0.045558151741086066 0.0902971128713872 -0.07293257281539284 -0.15599284012956133 0.12188711912652041 0.27292068056955565 0.16186771671093333
-0.12092295506577741 -0.18840002594658048 0.16328036795743572 0.1806410271819943 -0.0849845795359584 -0.17948435534455046 0.22810165593310872 -0.16498846846048695
-0.04193523265636242 -0.12063298137465867 0.03339332754999165 -0.12503882798108248 -0.023225221637975378 -0.1780445743516656 -0.33466014655885445 -2.3204358789819963
-5.521284725965687 -2.2658404774707512 -0.6541546945897807 -0.4045559497889551 0.041482542039207364 -0.23146425012917698 -0.20443492431010943 -0.10432591721499787
00000000: cc6a 7b29 0298 d13f fb58 0d12 50bb d5bf
00000010: 8dfd b47a 1565 cc3f 80bc 78ac 7538 d3bf
00000020: cf4e e960 d1d6 c93f f3c2 1180 077f cf3f
00000030: 167e c16f 8bb0 c6bf b0dc 9480 5acc c53f
00000040: 974e eea4 dbe7 653f e3ac 68dd cf79 c1bf
00000050: cac0 f516 8b7c d2bf 2d6c 825b 0207 bf3f
00000060: bb3d 52a2 64ea b73f e5f2 bca5 f504 cfbf
00000070: 833f 7da6 4ffa d9bf 3366 62c6 e07f c7bf
00000080: f21d 2822 d61b c33f aa38 04bc 7d4e e0bf
00000090: 42f7 72df c592 dfbf 3cd1 0fdc 735b c2bf
000000a0: 5449 33b3 7548 c9bf 5bba bbcb 6b50 aebf
000000b0: c27e 4f20 38d2 aa3f 616c 0d27 5bb9 913f
000000c0: 98e0 7b68 0884 ebbf bb91 047c 70f7 d23f
000000d0: a7f3 860e 85f8 cdbf 08f9 fae7 56f7 03c0
000000e0: 6c94 a7f2 f360 f9bf f83d 8a77 9bd2 f2bf
000000f0: bbd5 02d9 283a c03f eff3 d6aa bf22 c7bf
00000100: cbb0 5129 0073 cebf 1983 ce21 3fe6 a2bf
00000110: 63dd 4f12 afa8 efbf ab35 91fa 332b c53f
00000120: f73e 101e 86f2 db3f b49b fbd3 6002 d0bf
00000130: 59c2 1c0e aea6 cd3f 8e1d 4458 e4a8 ccbf
00000140: f58c eccf f448 8dbf d94f 18af d3cd b5bf
00000150: 886f 8893 0f34 be3f fc98 51bf 97e1 c13f
00000160: 631d 2928 3414 d53f ea2a e29d 70ea cc3f
00000170: b4c1 409c f993 a1bf 3ee5 2920 ecf7 af3f
00000180: 7b0d c6c0 9fd1 cfbf 885b 6b5a a5d2 c33f
00000190: 4894 2524 041a d33f 8741 8a98 aecb c73f
000001a0: 49ad a7cc 54ae aa3f 3c96 8cdc aedc 0140
000001b0: 700d 74d3 32c4 1540 8376 4586 8502 0240
000001c0: eef8 5a39 1a13 d23f bfb1 b04b 017f cc3f
000001d0: 49ec 9b50 3166 c93f 5e7f bb7d f5af a83f
000001e0: 4c0e bdf4 b995 a7bf ebce d721 8f29 a4bf
000001f0: e651 70c0 5cd9 c0bf 72ef e693 d62e 833f
00000200: ef76 cfca fb88 a2bf c0f4 81b9 3c51 c23f
00000210: 5aab 4df6 de79 c83f fef3 24ff e240 ce3f
00000220: 5712 9dc1 be28 383f d46e 8785 8698 9e3f
00000230: 15af 4f5b 2441 c03f 07a8 4990 96ad 9e3f
00000240: caa4 907b df1d be3f 3035 8a93 c822 a4bf
00000250: dd15 e62a de66 bcbf f79e 784e d52c 75bf
00000260: fe28 a908 e3ff 95bf ddbc cc88 8f60 803f
00000270: a922 cb76 e370 ad3f 02c5 d8c6 59f2 c6bf
00000280: 7613 e872 39fc c73f b061 db81 62d2 d03f
00000290: 8967 319c 8b01 d3bf 2844 d8cd 2f35 a13f
000002a0: bcac 8750 1470 b33f 0742 ddf1 be2f cbbf
000002b0: c811 0510 57ef d5bf fc0e 54f8 325b 843f
000002c0: 15e2 17dc ae8f e03f 071c 23a7 eca3 b3bf
000002d0: 3eab 8461 616a 8e3f 3754 cfdf 333b 863f
000002e0: f153 6242 6dae c6bf bd1e e5b5 7bf1 b43f
000002f0: f33c b13d e853 843f 2aee 0ae1 496c bd3f
00000300: 5ad2 2e73 b9b5 af3f 162b 04a0 1c73 933f
00000310: 6238 cce8 93a8 e3bf e599 7f12 df3e b6bf
00000320: 2657 67b8 0d06 d63f 322c 6beb 2c48 a53f
00000330: 72c2 48b2 19bb 9c3f f6c6 ede3 f001 b83f
00000340: a305 462d 2c20 c63f b160 60a3 d0f0 bb3f
00000350: 4433 832e 4580 c63f 8f9b 77ac f0c0 dd3f
00000360: eeeb 3b9f 087b b9bf bb9e 4e96 c40e c8bf
00000370: f762 f45d deb5 cb3f ae96 fdaa 9a94 e03f
00000380: 745a 0ab1 5226 d33f 2eb3 8883 5155 f83f
00000390: 5615 13c6 af94 0e40 cb46 136e 4ef5 0540
000003a0: ed63 4535 5d0b e43f 9f3f 4732 04f2 993f
000003b0: 339d d70c ddf5 bf3f 9ce0 a6c1 a688 af3f
000003c0: 8be6 cd9b ee3c a4bf 5263 146d 718b cc3f
000003d0: b541 7b10 f79f c23f 8b72 32a0 d27f bdbf
000003e0: 842f 5ed0 251f 58bf ecd9 4342 944b c5bf
000003f0: a466 c1de 8385 c0bf c472 4b3d 9662 76bf
00000400: 1424 ecf5 159a c33f 66cc 2e14 d327 c03f
00000410: c529 b1f1 9542 dc3f 3a67 9716 1d34 8d3f
00000420: aae6 2d5e 2da1 b4bf 6d87 159a 6002 b2bf
00000430: 3fd6 d23a 2420 c0bf 8d3c c1a8 a0ac 94bf
00000440: bf6b 4440 dc34 b33f ca4d 489e b05f c3bf
00000450: c7a9 d2bf 78b5 cfbf 95ac 8e55 016c c9bf
00000460: 1048 d5f8 85d6 a23f 17d8 4378 471c 01c0
00000470: 6482 687e 5323 15c0 8863 f29e 0a42 01c0
00000480: 9c18 543d 42b7 c0bf 4abf 6f54 d170 d13f
00000490: d49e b522 086f a53f f75f 6199 9099 afbf
000004a0: 2bf6 0cb2 826a 623f 8b47 1f12 5c23 c63f
000004b0: 2c6a 4f3d 8867 9d3f 6121 ee77 f166 623f
000004c0: 1991 808d 32fb b8bf deb4 7b93 790d 8e3f
000004d0: 47f4 49cb 5637 a5bf eb06 80db ce37 b4bf
000004e0: 81a0 2faa 3362 9cbf fa7d 5919 bb91 abbf
000004f0: 4cbd 7538 308e b2bf c267 f7bd f087 acbf
00000500: ebab f803 0a4e bc3f 6b8d 45c3 06e0 adbf
00000510: c363 152c 1763 d23f f4f7 4021 866e d53f
00000520: 8c26 f899 81a5 c13f a3b0 288e 4741 0240
00000530: d2a0 75ab cca4 1540 3ec9 0510 4e79 0240
00000540: 95a5 bece 88b5 dd3f 7bcc 6fa0 fde1 d53f
00000550: 2a97 7ced 7970 d03f a67c d149 d19e bf3f
00000560: ae6e bd33 3c0f b63f 7a56 625b 7c07 a73f
00000570: 3a65 55c8 8221 ac3f aca8 4986 ddce a13f
00000580: a9ca 1f94 d2b3 dbbf a78d da44 31fc b5bf
00000590: 4721 314c 7f83 a1bf 7f22 0b40 5fe3 c53f
000005a0: 5cc0 7591 377a a63f 701c 1bc2 468e abbf
000005b0: 2916 11d8 5d4e cbbf 295f 5e33 6629 b63f
000005c0: 09bd b7a7 57a2 c63f 8031 d306 2846 cabf
000005d0: 0aea 627d 0d10 c0bf a5f2 5993 049e cc3f
000005e0: c566 4b48 484b aebf 8bbf aebf 0c08 9bbf
000005f0: ac3a 75b6 7f2c c43f b4e2 ef9f 148a c23f
00000600: 8042 dd15 aea1 b8bf fdf5 f31f 1816 abbf
00000610: 48c9 4fe6 98ec c83f 1f2b 6e05 a0e8 bd3f
00000620: 4e77 8425 e997 b2bf 1d15 f77a fc38 aa3f
00000630: ee06 acea 2fad b2bf defa 86e7 7bd1 76bf
00000640: 0dd8 9959 62a0 a53f e85d 3c2a b118 c03f
00000650: 81c7 75ab 04c2 adbf d4c0 3b2b 4002 c2bf
00000660: 9c40 3a9a 9054 c83f c509 8520 8afb a6bf
00000670: 9c45 dd08 5b73 b43f ec4e b2d9 41a6 a03f
00000680: 38a1 bce4 3d76 a83f 6109 186f b171 bb3f
00000690: 475d 1855 5ed8 bebf df29 dae5 675e cc3f
000006a0: a58f 37fb 937a d03f c094 dd32 b016 b6bf
000006b0: 6792 9ee1 cbc5 7fbf 46ae 4d44 67a8 d03f
000006c0: 789e cfe3 ba0a e03f db0c 62f7 81ae 0240
000006d0: e04c 7a0f 9d3b 1540 793b b240 520c 0340
000006e0: 81d0 b4fb 17c5 e33f 31f0 bb5b 3f92 c03f
000006f0: 4434 abc7 a8c1 34bf 4c41 75a6 21d0 c43f
00000700: 3a7c 6101 ac23 c23f 779d 96e7 6553 a7bf
00000710: 30b1 b42a b61d b73f ec24 0e87 b5ab b2bf
00000720: ae20 62c9 92f7 c3bf 49ba 7386 fe33 bf3f
00000730: 04b1 5c4d 8877 d13f 839c c6d2 14b8 c43f
00000740: 66db 5789 cef4 bebf 5dc8 00f7 7d1d c8bf
00000750: 485f 3a00 5fe6 c43f 6900 08c4 3e1f c73f
00000760: c870 c5a5 8cc1 b5bf 399b 2ce6 57f9 c6bf
00000770: ecb4 3260 6f32 cd3f 2fa1 2096 571e c5bf
00000780: 1b53 9ee9 8878 a5bf 0cb9 d295 cde1 bebf
00000790: 6ab2 7623 ee18 a13f 7557 74b6 4501 c0bf
000007a0: c683 823d 5ac8 97bf de0a 0924 2aca c6bf
000007b0: 92ab 2f64 126b d5bf a08a a5af 4090 02c0
000007c0: 32b5 c7a9 cb15 16c0 eb84 e5f8 7020 02c0
000007d0: 1a37 79d3 d5ee e4bf ddba 6fa3 3ee4 d9bf
000007e0: 67a1 d322 333d a53f c6bd 3fdc 9ea0 cdbf
000007f0: 633c 0971 ec2a cabf 5a49 9072 1ab5 babf

visible_bias f8 [40]
-1.5584000000000038 -2.6452999999998426 0.7030999999999783 2.8227999999998157 2.1676999999998805 0.1907000000000074 -1.636899999999933 0.22890000000000746
2.339200000000022 2.3766999999999046 2.563400000000005 2.1966999999998538 2.754900000000035 0.7451000000000154 -2.2343999999999906 -0.11149999999999563
2.928999999999994 0.5898999999999538 -1.132199999999948 0.07479999999998255 1.892899999999904 2.6151999999999673 2.871199999999897 -0.17320000000000396
-1.391399999999931 1.2835999999999517 1.7356999999999407 1.989499999999902 0.8088000000000128 -1.7191999999999454 -0.589400000000003 1.8444999999999374
2.8814999999999906 2.1284000000000214 -0.5358999999999907 -0.26779999999999504 2.4953999999999454 2.6541999999997916 2.437899999999955 1.6676000000000368
00000000: f661 a1d6 34ef f8bf 70dd e00b 9329 05c0
00000010: 0429 3a92 cb7f e63f 1f2f 992a 1895 0640
00000020: 3b4f fc18 7357 0140 1772 ac8b db68 c83f
00000030: 5f27 ed0d be30 fabf a1f7 065f 984c cd3f
00000040: 266d 567d aeb6 0240 ea38 234a 7b03 0340
00000050: 0888 f4db d781 0440 07fb 1873 d792 0140
00000060: 2101 de02 090a 0640 44fd 87f4 dbd7 e73f
00000070: 7975 711b 0de0 01c0 ea04 8195 438b bcbf
00000080: 2edf 4f8d 976e 0740 5f20 fdf6 75e0 e23f
00000090: e17e 48bf 7d1d f2bf 28a0 bdc1 1726 b33f
000000a0: 5c91 a982 5149 fe3f 13fe 43fa edeb 0440
000000b0: b432 a2b4 37f8 0640 5e67 d5e7 6a2b c6bf
000000c0: 3577 7aa5 2c43 f6bf 8753 5227 a089 f43f
000000d0: cfab fa5c 6dc5 fb3f e843 b6f3 fdd4 ff3f
000000e0: c627 a089 b0e1 e93f 0787 f4db d781 fbbf
000000f0: b065 8863 5ddc e2bf 368c 976e 1283 fd3f
00000100: 4564 3bdf 4f0d 0740 b273 4694 f606 0140
00000110: bea4 bdc1 1726 e1bf 129a 779c a223 d1bf
00000120: 5d81 7346 94f6 0340 a456 a835 cd3b 0540
00000130: 7d58 17b7 d180 0340 c5f4 6c56 7dae fa3f

hidden_bias f8 [22]
4.794917463391569 -6.05655647843828 -5.395205197068888 4.794990932263616 -6.082605833034695 -6.357494723957964 6.333932191091864 3.845290133723491
5.843738603425145 6.431039722041378 5.027605153578973 6.370978974509994 4.190435092469459 2.4832557560055335 -5.583882140064072 -5.6863996860488335
-5.931559158595205 6.299501832288877 6.708334148056167 5.483021798678065 5.5479225158196 3.8681045590538656
00000000: ef24 f1d7 fe2d 1340 ce13 05f1 e939 18c0
00000010: fe7a d2ab b094 15c0 50c1 5a1a 122e 1340
00000020: 145f 9d9f 9654 18c0 6991 cf18 136e 19c0
00000030: e348 ff51 f255 1940 77ca 3f79 27c3 0e40
00000040: b855 3003 fd5f 1740 52c7 157a 62b9 1940
00000050: 7e4a 7f86 441c 1440 9e18 8ce9 e17b 1940
00000060: 12ab b86a 01c3 1040 202e 9d31 b5dd 0340
00000070: bb2c 2133 e555 16c0 f441 2e8f dfbe 16c0
00000080: 9fd2 e1a4 eab9 17c0 5a17 bb9b b032 1940
00000090: 402a 028c 55d5 1a40 3e4f 3244 9dee 1540
000000a0: b8bf 9899 1231 1640 a928 95cd e0f1 0e40
