Data/TFIM1D/Energy/Q40/Trial21.pt (torch_old, 8144 bytes, 3 tensors)

weights f8 [22, 40]
0	0xbfc91dd62d47119c	-0.19622304163762017
1	0xbfe45f80dbd32a9f	-0.6366581242994761
2	0xc002d2c84e675594	-2.3529211163792727
3	0xc0170a11da9d7197	-5.759833732471086
4	0xc0026caab437eafb	-2.3030599669995104
5	0xbfd806c8d0aedfa1	-0.3754140890046021
6	0xbfcbe9aac9682ad6	-0.21806845506974665
7	0xbfb9e11199493155	-0.10109052650768054
8	0xbfd3395a0aa1862b	-0.3003754714792161
9	0xbfcaa0672edc6a52	-0.20802011287817607
10	0xbfa2ecf8468b5004	-0.036964186297751694
11	0xbfb1f174382c72a3	-0.07009054538179753
12	0xbfb892f5799abc37	-0.09599241465433371
13	0x3fa7c54145c909e2	0.04642681099769043
14	0x3fb5cc957c7b64b0	0.08515295304404691
15	0xbfc897070056271d	-0.19210898891861286
16	0xbfb06bde559b02c5	-0.06414594259241387
17	0xbfbd1d29f8d99f55	-0.11372625661317433
18	0xbfc1d5417a28682a	-0.13932054962862256
19	0xbfc1bd22c647cf37	-0.1385844677130252
20	0x3fcb0e249d3a10d2	0.21136911084261684
21	0x3f87922bd9c156a7	0.011509268362867543
22	0xbfa54e66b4f64632	-0.041613778677071514
23	0x3fbef18bf1f48d02	0.12087320954428907
24	0x3fae9b2ecd83587e	0.059777700984043655
25	0x3f8d2a0207ab394c	0.014240280016932026
26	0xbf95f396d7ef7f4a	-0.021437031678828412
27	0x3f9e638586507b6a	0.029676519701861727
28	0xbfae39c02f59f2b5	-0.05903435304660346
29	0xbfbd8d6509106d45	-0.11543876143735073
30	0x3f7ccd9d24d5dedc	0.007032026141466221
31	0xbfa24e5308e24412	-0.03575381740041207
32	0xbfafac7e93792a92	-0.06186290312014821
33	0x3fca0a4ae08b4f8a	0.2034391018302098
34	0xbfa7167299d939d6	-0.04509313705476685
35	0x3fa614ef2d40b7a6	0.0431284659137952
36	0x3fc83c53619efa1c	0.18934099451685504
37	0x3fa51b821a2080d6	0.04122549599583329
38	0xbfba80920c54992b	-0.10352433014904665
39	0x3fa7ac100f7c5203	0.046234609499297384
40	0x3fb54b2c2f078250	0.0831782927339273
41	0xbfc78ec765fc7294	-0.18404476623336008
42	0x3fc0fca575d49888	0.13271015408935605
43	0x3fd1c95fe263b138	0.27791592701284484
44	0x3fd61463e881df31	0.34499452310363937
45	0x3fe6891961ae2964	0.7042357356852276
46	0x4005c20bd669c2a9	2.719749140837241
47	0x400ffa34fa0c13fa	3.9971713576255725
48	0x3ff65b3a2ff5aa88	1.3972722886489084
49	0x3fcc17fc56daf6d7	0.2194819854830061
50	0x3fb3d93fa4666cc0	0.07753370059656373
51	0x3fc0a41a34fedd84	0.13000800693201253
52	0x3fc7797f61e87e9f	0.18339531212494806
53	0x3f8ccf85f9cdf15a	0.014067694364478345
54	0xbf95271666fad7de	-0.0206569195131222
55	0x3fbb26375c45e05c	0.10605188372380908
56	0x3f850ec432f0cb43	0.010282070927223002
57	0xbfb6640c96fc6f43	-0.0874641293161718
58	0x3f96c825534ae81b	0.02224787064435683
59	0x3f9adf8f261acb0e	0.026243435574268274
60	0x3fd22f037ddc7672	0.2841194848168477
61	0x3fa87e959f9e67f8	0.047840762839044204
62	0xbfd0867dc0955627	-0.25820869261710516
63	0xbfbd793eaec59ec4	-0.11513129965680508
64	0x3fb666a881c4c62e	0.08750394027881533
65	0xbfb8c44297d5e61a	-0.09674469191477222
66	0xbfc0213ae10793f8	-0.1260140990044929
67	0xbfc7742c290d2791	-0.183232803387281
68	0xbfb466849ac0b5aa	-0.07968930032867286
69	0x3faf3f534d257528	0.06103000942924047
70	0x3fc5bcfb076550f1	0.1698297296630993
71	0x3fd38f666897a170	0.3056274434479951
72	0xbf75f988b2e24fe8	-0.005364927272371013
73	0xbfb205c77ae30df4	-0.0704006838814662
74	0xbfb742dfc1dc0d19	-0.0908641670503595
75	0x3fca7a0a5c226819	0.20684937952756924
76	0x3f7cde8812a942cd	0.007048160109278623
77	0xbfb79c59259b3022	-0.0922294346630115
78	0x3fcc2318094f6e2a	0.21982098059275873
79	0x3fa544b8559006ad	0.04153991741624217
80	0xbf90eb9e0f745062	-0.016523809140452157
81	0xbfc31599a328f86c	-0.14909668413924082
82	0x3fbfab1fdc16b86e	0.12370490191708125
83	0x3fd33e6816712e87	0.300683996120576
84	0x3fc82b203be48d5a	0.18881609844639052
85	0x3fbe0988f431ab41	0.11733299218910266
86	0xbfd1b7d7d5610a80	-0.2768458923129984
87	0xbfbc58f2685edfad	-0.11073222206220974
88	0x3fd4572af8160362	0.3178203032221544
89	0x3f54258a5bf70d13	0.001229653469508933
90	0xbfc1ef2ae07e7442	-0.14011131250018322
91	0xbfad932cae78a4b1	-0.05776347760940704
92	0x3fb288aa0809ef53	0.07239782997379267
93	0x3fc63ffee093ec13	0.1738279911586181
94	0x3fba05afa71334f7	0.10164926365833425
95	0x3fb8912ea279f955	0.0959653040572211
96	0x3fd34a0363cdb634	0.3013924097675471
97	0xbfc0014b875a0689	-0.12503952130287058
98	0x3f647e8eb1426d1c	0.0025017535172772287
99	0x3ff3cdc10d347e27	1.2377329364607108
100	0x400a569a6c2db867	3.292286725182794
101	0x4006ee2ab91d0756	2.8662924253448336
102	0x3fd1d21b9043b09e	0.27844895447084095
103	0xbfcf60bff86a5f07	-0.24514007215179154
104	0x3fcc0db6c5491a44	0.2191685164745697
105	0x3fc32b10af57eabb	0.14975174485865303
106	0x3fab83d11f296df8	0.05374005799668774
107	0x3f7d6bf1485a3c2f	0.007183020124684566
108	0x3fc390eee650bdfa	0.15286051030987818
109	0xbfbf34b926ba3ae0	-0.12189824290747309
110	0xbfaa4f8b5ebc3d1d	-0.05138812571942195
111	0x3fc65404dafd9ea3	0.17443905537515034
112	0x3fae694d754e1a27	0.059397144860714506
113	0x3f9f061060b75315	0.030296569731791474
114	0x3fcbdc037d8e0c82	0.21765178328141493
115	0x3fc501dfcafd2f63	0.16411969577381588
116	0x3fa63ba19217aa3b	0.043423699458646735
117	0x3fa66a4d6411ff84	0.04377977224885313
118	0xbfa1f1d938c0b2c9	-0.03504828279287648
119	0x3fc1444c245a8ecd	0.1348967721470359
120	0x3fb30d73b1a21f43	0.0744240101504348
121	0xbfbddea1bc0d7d06	-0.11667834130411245
122	0x3fca16353de649ba	0.20380273363532614
123	0xbfbb673c4685056c	-0.10704399797125114
124	0x3fc071dba2ac2838	0.1284746689128171
125	0xbfb523bf0e2146b7	-0.08257669539423317
126	0x3fab8150d15b8504	0.05372097545274282
127	0x3fc7b9992e6de02a	0.1853515125947081
128	0x3fc49222d35c7fbc	0.16070971794488098
129	0x4000f1a4a486c10e	2.11798981224286
130	0x4016acd6efbef02d	5.668788667706434
131	0x400157598390fbcc	2.167651203023956
132	0x3fdadd68ddfc044f	0.41976377180259744
133	0xbf841c46388ea7bf	-0.009819553948393065
134	0xbfc40fbad51c7fd7	-0.1567300358374257
135	0x3f99016cffd54f17	0.024419501414128932
136	0x3fc02f9c2ead29e9	0.1264529445564471
137	0x3fc3c3f4951c95a2	0.1544175842365521
138	0xbf7a6ceeb7d82fc7	-0.006451542370552183
139	0xbf978f87b0893c04	-0.023008461141497363
140	0x3fa169910299bcc5	0.034008533065269776
141	0x3fbc4d3c33ba7dfe	0.11055351508047548
142	0x3fc91d1b56df2d78	0.1962007688692713
143	0x3fb68776f6428018	0.08800452720834107
144	0x3fc351a8ec933049	0.15092956115256786
145	0x3fc8172d719d9331	0.18820732162125745
146	0xbf90a71b8ddba44f	-0.016262465031932568
147	0xbfc1a2f7b659791a	-0.13778587726387387
148	0xbfc1b09ff8421029	-0.13820266363120595
149	0xbfad6594ff5f1bbc	-0.05741563432052696
150	0x3f8832be3f676fec	0.011815534887254807
151	0xbfbadd11238afbd1	-0.10493571393725111
152	0xbf9baffdc1df5e03	-0.027038540800132804
153	0x3fd03101cd84b974	0.25299115247880555
154	0x3f20d268494329fd	0.0001283409407107499
155	0xbfc8f11c8e1e122f	-0.1948581403668341
156	0x3fc881e7d12718ed	0.19146440231833797
157	0x3fc2ca10df0859ad	0.14679156198753898
158	0x3fbc22634385b2c9	0.10989971540920886
159	0x3f937f38c7bda232	0.019040000144203435
160	0x4004506ddbc92840	2.539272038532573
161	0x40151194738a3704	5.267167859374016
162	0x400248dedbe0640b	2.2855813196042667
163	0x3fba5e66f0acc7db	0.10300296188213968
164	0x3fc3e2c97364aa83	0.15535848745760825
165	0xbfc939e6aa0f9884	-0.19707949928050905
166	0x3fc07b4ec19c8111	0.12876305059126783
167	0x3fb35b38e610ea76	0.07561069123122785
168	0xbfbaa75fe77f3801	-0.10411643411427464
169	0xbfa74612961e004d	-0.04545648653493171
170	0x3f9babf4e7e34222	0.027023150113395407
171	0x3fa93003c33f4b52	0.0491944480742378
172	0xbfb0dfa8270c10d1	-0.06591273263262855
173	0xbfae9feaff16cc88	-0.0598138271701823
174	0xbfa118b59444dba8	-0.03339164194988281
175	0x3fd006d6dd94075e	0.2504174388742423
176	0x3fb5eb3895d5e748	0.08562043817610487
177	0x3fa5d9dad52d3bcd	0.042677725336595175
178	0xbfb78966945cd25b	-0.0919403183186857
179	0xbfcc79da427debfc	-0.22246864554094248
180	0x3f9ba7c9cf2d0d7c	0.02700724913598894
181	0x3fb91fffc8c78158	0.09814451839293292
182	0x3fb883d3b7b4df14	0.09576152071974448
183	0xbfb39d095b0c7da1	-0.07661493752356431
184	0x3fafba42c4f9b7cd	0.06196793226705175
185	0x3fb7d9185ee44af0	0.09315635983174864
186	0x3f9a7bb2c0823492	0.025862496375840545
187	0x3fc56093109e450b	0.16700971900403547
188	0x3fa5b82217be4e00	0.042420449636804136
189	0x3fa2ce7843fec6b4	0.03673148946780938
190	0x3fa822a64f79aac4	0.04713935585171705
191	0x3f3dce8401fc1ccd	0.000454814175086371
192	0xbf9dea7f8ff4929b	-0.029214852486932768
193	0xbfc05aaef9ad6196	-0.12776744071267093
194	0xbfc19e9b2177a10c	-0.1376527703680569
195	0xbfce4911976f07ad	-0.2366048802778641
196	0x3fa401a892e61480	0.039075153285957676
197	0x3fa26f50a25963d1	0.036005515878691725
198	0xbfc9dc4d2a5863fe	-0.20203556602135103
199	0x3fa81625098f8977	0.0470439504786268
200	0xbfad48edd8e3257b	-0.057197029805659626
201	0xbf9f9179a5091ef7	-0.030828381250357997
202	0x3fa82a3beb672bfd	0.04719722031185112
203	0x3fa6faa9cab691df	0.044881158824214167
204	0xbfa9fe85f4b2fdcd	-0.05076998340654946
205	0xbfc42a2dc852143f	-0.15753719598083823
206	0x3f85a69a9be86782	0.010571678049973835
207	0x3fb183569370ffc2	0.06841031169551484
208	0xbfb9b27847d813cc	-0.10037948373799493
209	0x3fa970180bda5c72	0.04968333382310498
210	0x3fa35044bbafa342	0.037721774969958335
211	0x3fa18215a4decfa6	0.03419559133126819
212	0x3faa57fb589254a2	0.051452498018229834
213	0xbfbd0b1e5672bd07	-0.11345090494682007
214	0x3fa7742b99e46bf7	0.04580818418090609
215	0x3fa1bd9e0136fb9f	0.034649789474762153
216	0x3fc4eeba21846f84	0.1635353721293279
217	0xbfac763aede43109	-0.05558952478358676
218	0x3faba17366e4bbfd	0.05396614676498499
219	0xbfb5a9337eb99062	-0.08461305469387662
220	0x3f81772a56a02352	0.008528071182824757
221	0x3fa3d2c8d59c2458	0.038717533183508734
222	0xbfb69ffb74260817	-0.08837863526972033
223	0x3f9ef9f49be1c676	0.03025037957599471
224	0x3fc238804684084e	0.14234927600051822
225	0x3fac56bcff0b6eaa	0.05534926045740225
226	0xbfac78d3567c5efa	-0.055609325702048865
227	0xbfa0bdede69b293d	-0.03269904556289525
228	0xbf9a6a38cc75ae71	-0.025795829276303587
229	0xbfbd19835de30679	-0.11367054979475623
230	0xbfb038c2dc927cba	-0.06336610684455737
231	0xbfc4b7cbe07837eb	-0.16185902080945822
232	0xbfc1f4eacd9400f1	-0.1402867797660359
233	0x3fa0abc8163cf39a	0.032560589518175934
234	0xbfc35eaef0fbfbdf	-0.15132700697719678
235	0xbfb49e20163233d9	-0.08053780118844091
236	0xbfc2796e128dc27e	-0.1443307486147382
237	0xc000e6e04d28ec28	-2.112732508479457
238	0xc015299bc88e00c0	-5.290633329074069
239	0xc00308e00afc19a1	-2.379333577936635
240	0x3fb1cf33fb821a3c	0.06956791773164012
241	0x3fc37c91595c8457	0.1522390066466268
242	0x3fc11de3a6ce673a	0.133724647949572
243	0x3fc137a14ed98864	0.1345101962097629
244	0x3fad8ecd8ce6ae52	0.05773012490257358
245	0xbfc9376028426b99	-0.1970024296359412
246	0xbfc1fea867539433	-0.14058404011953626
247	0x3fbcd14939454271	0.11256845138746897
248	0xbf8bb81af6b9c335	-0.013534746794194067
249	0xbfc0cd49383e80f0	-0.1312648319844878
250	0xbfd28902825f8e82	-0.28961241466297605
251	0x3fb0dcba7c95825a	0.06586804906465585
252	0x3fca07f36b757504	0.2033676409436468
253	0xbf8f705afbf065c4	-0.015351019681520202
254	0xbfb1f177e76b2842	-0.07009076499812841
255	0x3fac992b80abf8e5	0.05585609384250904

visible_bias f8 [40]
0	0xbfeff141205bbecf	-0.9981999999999632
1	0xbffad42c3c9eeb7d	-1.6767999999999283
2	0xbfcbda5119ce07e8	-0.2176000000000038
3	0x40032786c226817d	2.3943000000000993
4	0x3ffba4a8c154c7f7	1.7276999999999114
5	0x4002b50b0f27bb01	2.338399999999979
6	0x3fd53dd97f62b64c	0.33189999999999453
7	0xbff3b020c49ba57d	-1.2304999999999773
8	0x3ffd63886594ae0e	1.8367999999999287
9	0x3fe1573eab367c26	0.5419000000000593
10	0xbffb504816f004fe	-1.7070999999999112
11	0x3fd8e3bcd35a8745	0.3889000000000247
12	0x40008d844d0139c4	2.0690999999999082
13	0x4007b020c49ba6ef	2.961000000000119
14	0x400877318fc50568	3.0582000000001024
15	0x40044e703afb7e6f	2.538299999999985
16	0xbfc4bc6a7ef9dbfe	-0.16200000000000608
17	0xc00129c779a6b44f	-2.1453999999999165
18	0x3fe106f6944673cb	0.5321000000000081
19	0x3ffaf837b4a231bc	1.6855999999998934
20	0xbff24c985f06f539	-1.143699999999923
21	0x3fd705532617c166	0.35969999999999513
22	0x3ff983e425aee52e	1.5946999999999423
23	0xbfe8b295e9e1b039	-0.771799999999991
24	0xbfd205bc01a36e9c	-0.28160000000000607
25	0x4005013a92a305ca	2.625600000000053
26	0x40026c226809d52c	2.302800000000067
27	0x400659b3d07c84b9	2.7938000000000014
28	0x3fd95b573eab3755	0.39620000000001215
29	0xbffe8793dd97f437	-1.9080999999998889
30	0x3fd0f5c28f5c2a04	0.265000000000015
31	0x40027559b3d07aaf	2.3072999999997914
32	0x4004a2d0e5604181	2.5794999999999964
33	0x400353f7ced91627	2.4159999999999573
34	0x4001e0aa64c2f7e4	2.234699999999963
35	0x3ff9a7ef9db22bd5	1.6034999999999304
36	0xbfef6c8b4395811a	-0.9820000000000022
37	0xbfe4631f8a090484	-0.6371000000000469
38	0x400129c779a6b2e0	2.1453999999997535
39	0x3febbe76c8b43939	0.8669999999999966

hidden_bias f8 [22]
0	0x401999641c0c48bf	6.399795950174108
1	0xc01549af7280777c	-5.321958340731609
2	0xc013d3d6906e46f4	-4.956873184901031
3	0xc0179f0394af4f21	-5.905287097167986
4	0xc014adf09df8c5b8	-5.169863193806513
5	0x40152d85e0cf5108	5.294456017163846
6	0xc014106ed9bfcb1b	-5.016047861415042
7	0x40156f2c83c0396c	5.358568247420731
8	0x40160aba4bf494c7	5.510476290514993
9	0x401853f3c3ada476	6.081984574769299
10	0xc0189beccbce2d6e	-6.1522704929915175
11	0x401423c1e76d5168	5.034919372603646
12	0xc0182f2fd4cbb311	-6.046080899174528
13	0x401393c250ad6f81	4.894295940957705
14	0x40139a08aaca3e85	4.900423687547691
15	0x401400faef6c9466	5.000957242014101
16	0x40175279d3cd3c64	5.830542859460454
17	0xc014d80244827f4f	-5.210946150269435
18	0x4015af97a67bf204	5.421476937594438
19	0x4013040fb7ad8163	4.753966207470827
20	0x40158fdc7cddde5b	5.390489531556876
21	0x4015ba69c98bb3e2	5.432044171478056
