Data/TFIM1D/Energy/Q100/Trial1.pt (torch_old, 46656 bytes, 3 tensors)

weights f8 [56, 100]
000000 d1 5c 3c 93 9e 00 8c bf 0a 5a 31 1b 20 9e bc 3f
       -0.01367305647685982 0.11178780235182031
000010 c4 bd 6b e6 3e af 9a bf b9 dd 6a 62 d5 d8 b4 bf
       -0.026059134305737933 -0.08143361714143439
000020 5e a0 40 1d 9b 2a b7 bf c0 24 ca 61 cc 40 9e 3f
       -0.09049386467143125 0.029544061153988777
000030 1b 14 dd 99 f3 f9 c2 3f 6d 0e 24 31 7d 4e ba 3f
       0.14825291645880231 0.10276014756896652
000040 81 f4 8c a2 38 f8 b6 3f 40 b7 4f 80 67 7c a2 3f
       0.0897250553943696 0.036105379498492685
000050 41 28 1d bc 38 65 bb 3f 33 2c c5 91 e1 32 a6 bf
       0.10701326935409929 -0.04335694221898514
000060 81 a0 12 0b 68 72 8e 3f ae 73 2e 32 73 d9 b0 bf
       0.014866650426782481 -0.06581802344449159
000070 ca 1e 83 3d b5 80 b1 3f 00 6a 42 d2 b7 ce c6 3f
       0.0683701777626268 0.1781835343034146
000080 db 3e 0c 9a 9c 95 d5 3f c5 a8 86 37 26 6c 00 40
       0.3372565750478153 2.05280726794908
000090 74 74 0f 92 63 0b 14 40 f6 c3 4c ab e3 2d 02 40
       5.0111220189984245 2.2724069006731
0000a0 f9 ff fa 98 d4 e6 d4 3f 92 f2 aa 32 f3 23 c5 3f
       0.32658877315043316 0.16515960668575197
0000b0 c1 e6 d3 75 0b 11 c4 3f 25 42 70 af 52 78 bd 3f
       0.15677016499812704 0.11511723311583262
0000c0 8a 93 8f f2 b4 11 af bf 13 44 f2 a3 22 95 a3 bf
       -0.06068196736285987 -0.03824718714998467
0000d0 25 b2 c6 5a 71 33 a6 3f 5f 0e 4d 9f e4 9a a7 3f
       0.04336122735125895 0.04610361523239414
0000e0 50 3f 6b 6c 6a 68 9a 3f 95 be ee b0 42 d0 89 bf
       0.025788939349524143 -0.01260425665336066
0000f0 85 ec 12 48 c2 2f 84 bf 65 69 ae 2e 00 1a a8 3f
       -0.009856717896005182 0.04707336969223056
000100 ed ac 28 96 8b d9 b7 3f 50 e3 4c 46 04 0f b1 3f
       0.09316322723377697 0.06663538662259083
000110 bd be 20 c1 ce 70 b9 3f 5e b7 ec 73 08 08 a1 3f
       0.09937755789791942 0.03326441207023721
000120 d1 8a 0c 36 c3 e7 93 3f 84 b2 2b 59 c6 10 c4 bf
       0.019438791440857642 -0.1567619262126706
000130 e2 15 73 e5 36 0b 76 3f 5e 47 e9 de f2 2d cc 3f
       0.005381788672087025 0.2201522434648337
000140 13 ba fe ab eb 90 a9 3f 86 ef 85 72 a8 97 b7 3f
       0.0499337813811175 0.0921578673932669
000150 b1 e5 00 09 d6 dd 9c 3f 26 ed 8c f2 c2 e4 c1 bf
       0.028189987468271564 -0.13979374736104794
000160 cd 35 21 be ef 90 c2 bf 26 ce ee 99 c1 c9 b9 bf
       -0.14504811080625615 -0.10073480613828475
000170 52 a8 b8 4a cd 2e b3 bf 10 71 bf bf ef 3d 94 bf
       -0.0749328906464666 -0.01976751907192048
000180 a0 82 c5 15 c1 26 a4 3f 7f 8e 29 93 57 e4 c1 3f
       0.03935817137494735 0.1397809475484912
000190 49 cb 62 a4 d3 07 aa 3f 0f 0a 19 5f c7 8a cd bf
       0.05084096318878168 -0.2307976927132391
0001a0 94 17 4b 45 e8 77 b9 bf 5f f9 da d0 03 9c bc 3f
       -0.09948589030963567 0.111755598535614
0001b0 57 60 b3 dc fe be 80 bf 6c d1 3f a1 e6 24 c6 bf
       -0.008176795110941422 -0.1730011260366483
0001c0 fd d4 90 83 9e ed a9 bf 1f 3a b5 9b 10 50 ad bf
       -0.05064101558711263 -0.0572514715264456
0001d0 ae ed c9 4e 96 bd a6 3f af 58 1d 3e e5 18 bb 3f
       0.04441518508698593 0.10584862486334388
0001e0 c0 28 23 61 08 2f a0 3f 7d cd 19 d1 72 cd cd 3f
       0.03160883126982261 0.23283229074477765
0001f0 07 02 15 ca ec fc 84 bf cc 54 e2 5c cb 8e 96 3f
       -0.0102480410738517 0.02202909235400767
000200 03 85 f4 36 8a 07 84 3f e2 51 15 83 b3 4a ca bf
       0.009780006219957565 -0.20540470028448882
000210 f7 88 41 20 62 fb 93 bf 50 aa c3 ae c4 de a0 bf
       -0.01951363870501496 -0.032949587186369755
000220 79 d7 e0 8b 62 f7 b3 3f 14 1a 98 b0 42 57 b6 3f
       0.07799354472157728 0.0872689896715218
000230 4c dc 1c 9a 42 95 9b bf 01 f0 b5 03 88 61 a5 bf
       -0.026936569839758825 -0.041759729817357545
000240 5a c3 8e 63 71 f5 b0 3f 0e e0 aa d5 13 ea 91 3f
       0.06624516182524812 0.017494497219303233
000250 48 5c f6 d1 de ea bd 3f bc 0c 4a c8 2a 7e 8e 3f
       0.1168650877574332 0.014889082181304018
000260 d0 90 a1 53 69 2c 83 bf ca 57 97 65 dc 5d 93 bf
       -0.009362051834792245 -0.01891273851455092
000270 55 72 af f7 8b b3 b5 bf 2b 32 66 4d 7a 0a 8e 3f
       -0.08477091595654802 0.014668422209774231
000280 f4 3b ac 2d 31 07 98 3f 2c a0 56 54 c3 04 99 3f
       0.023464935696264136 0.024432231924635214
000290 40 01 3a ac 86 a5 b4 bf 98 08 c5 19 28 d4 36 bf
       -0.08065072731733824 -0.00034833888073050037
0002a0 88 be e3 ed 12 70 be 3f e8 07 2b 3c 00 e5 a9 3f
       0.1188976126466007 0.05057526335214374
0002b0 64 94 24 4e 14 61 a9 bf a6 9a bf 0f 6d 5d a1 3f
       -0.049568781413008606 0.03391590897790779
0002c0 5f 2f 3b 5e 38 9c b7 bf ab 45 68 2d 39 a8 8f 3f
       -0.09222748089376641 0.015457579324933265
0002d0 00 63 2c 7c 26 e0 c5 3f c3 7f ef d1 77 03 a6 3f
       0.17090302527574153 0.042995209099671715
0002e0 23 e5 86 ed 98 0c 80 bf d9 82 c7 2c b3 f0 a7 bf
       -0.007836527584788094 -0.04675826951620871
0002f0 8c 85 ba d4 74 61 be bf c0 ef 91 55 c7 13 b1 bf
       -0.11867456620759337 -0.06670804823983101
000300 50 18 38 df 6f ad ba bf e4 d1 f3 10 a6 90 a5 bf
       -0.10420893859563418 -0.042119206971537954
000310 97 71 ac 0e 58 58 b4 3f cf 92 f4 7a c4 e2 86 bf
       0.07947302206270589 -0.011174712183284722
000320 88 90 e5 8e be cb a5 3f 32 06 85 e2 e4 e8 b9 3f
       0.042570071166466994 0.10120993166221906
000330 72 d6 54 f5 22 ca 9f 3f 42 37 d1 ff ec d4 96 bf
       0.03104452726730362 -0.022296622384877958
000340 16 73 3d 12 5f 81 ca bf bd 99 0c 74 b8 9d 66 3f
       -0.20707310095431158 0.0027607538799145613
000350 6a 8c 3b 67 7a cf b2 3f 18 cd 10 e9 b2 53 a3 3f
       0.07347836513831543 0.03774794669188902
000360 71 9a 2d 45 5b fd b8 3f 57 ad b8 89 21 d6 9f bf
       0.09761591376227742 -0.031090282469603405
000370 d0 f5 80 9b 5d 6c ba bf 8a 42 ee 66 a3 9f a4 bf
       -0.1032160286567525 -0.04028044349172884
000380 39 82 bb e5 5d a6 98 bf 6d 31 b5 8f 12 92 c3 bf
       -0.024072138926273665 -0.15289527909261427
000390 bd 1c 6c bd d6 e8 b0 bf 7c f4 88 6a b6 7f c2 3f
       -0.06605283855980111 0.14452247812178942
0003a0 8a ae 20 24 23 60 a0 3f b3 b4 1c ed d2 53 bb bf
       0.031983469162097114 -0.1067478016745607
0003b0 d2 56 4b 2a 39 c9 c0 bf b3 5c a6 a6 aa 07 c0 bf
       -0.13114084782744456 -0.12523396622848323
0003c0 3a 1a d4 b8 ce ba ae 3f 5e 40 83 e0 5a 84 ba bf
       0.06001897817809661 -0.10358207684771645
0003d0 81 bb 84 08 ee d7 bd bf 11 d8 b8 fa 31 95 cd bf
       -0.11657607753725864 -0.2311155771473641
0003e0 19 29 b7 fd 09 02 e3 bf 16 0c 2b 8d f3 65 07 c0
       -0.5939989047413149 -2.9247809437524763
0003f0 31 4c 17 08 9d 1a 0d c0 1d 1b 0a 53 f1 0f f3 bf
       -3.6379948265180464 -1.191392254231409
000400 22 78 32 9e 0f e3 cb bf 32 f8 89 a5 3f 40 d8 bf
       -0.21786685204000472 -0.3789214245406384
000410 1c 76 0f b4 76 d4 c4 bf 11 00 b6 a1 aa 7d c2 bf
       -0.16273387710582277 -0.14446003814737243
000420 57 38 31 0c 77 4f 91 bf 9d 1f 80 e9 65 f7 c2 bf
       -0.016904697531849724 -0.14817499066725484
000430 5e 47 9f 57 7e e3 9b bf 24 fc 47 0a 04 31 af 3f
       -0.0272350064258896 0.06092083573820897
000440 11 1c 3a 4b 30 57 c0 bf 52 b0 30 2c 12 87 a8 bf
       -0.1276607863730708 -0.04790550984793697
000450 48 fb 3d 36 1d 69 b9 3f 9d 54 97 e7 1f 48 be 3f
       0.09926016401548765 0.11828803447800103
000460 c0 a0 fb 7a f1 f3 b0 bf 48 55 93 95 08 c9 b8 3f
       -0.06622227909577116 0.09681752826448531
000470 bf d3 d1 a7 9c 42 b4 3f f8 2d b2 79 14 4a a1 3f
       0.07914141747626412 0.03376831040904088
000480 1c 1f b6 04 6e 31 cb bf 85 c5 01 ec a9 90 b7 bf
       -0.21244597654389785 -0.09205114375961017
000490 3f 17 8e cf 16 06 ab bf e7 b7 07 a1 dd 5a a9 3f
       -0.052780831180867065 0.0495213755674369
0004a0 c9 b8 42 15 ef 6c c1 3f 81 5d 7a 91 0d 6d 92 bf
       0.13613689935795595 -0.017994129184982114
0004b0 da fc 82 a1 b5 89 b9 bf 2a 68 a9 b8 e6 56 aa bf
       -0.0997575301471331 -0.05144425396129322
0004c0 fa f9 f0 39 94 6e 98 bf 31 04 9d dc 51 c3 b6 3f
       -0.023859325443703817 0.08891784320896147
0004d0 c9 6f 38 77 73 f2 a2 bf e6 17 5f 19 e9 56 b6 bf
       -0.037006004622724804 -0.08726364964886066
0004e0 bf 59 af 14 ff 9c c2 bf 1f 6b 28 d0 9c 32 74 bf
       -0.14541615018852203 -0.0049310803902027625
0004f0 d6 77 22 a0 e9 6d ba 3f c0 5d d2 f3 4b 5f 9b 3f
       0.10323963317429671 0.026730715519617254
000500 a9 29 9d 6c 18 b1 b4 bf c3 57 58 6b de 4f b0 3f
       -0.0808272614641853 0.06371870156030383
000510 ab 2d f9 20 3b 11 ae 3f 1d 11 5c a6 59 5a b3 3f
       0.058725211882655635 0.07559738456263117
000520 93 8e 05 23 e6 6b ab 3f e2 56 6a 06 be 49 a9 3f
       0.05355757882605618 0.0493907339888844
000530 f4 30 01 82 ef 00 b8 bf 4f ac c9 b4 50 8f a2 bf
       -0.0937642757791684 -0.036249658650227994
000540 d7 bf a0 3d fc fe 87 bf aa 0f 7c fa 4e 30 35 3f
       -0.011716814642653546 0.0003233139818663531
000550 f8 ee 5b 95 b0 e2 b2 bf 07 e6 ef b2 2f a8 af 3f
       -0.07377151152098438 0.061830034821422734
000560 10 4c c7 bd 14 32 bb bf 73 7b fd ac 88 e0 92 3f
       -0.10623292573227183 0.018434653814775225
000570 87 b3 56 4f 89 95 b7 3f 50 4c 6f 33 99 37 c2 3f
       0.09212549387912193 0.14232172976935198
000580 a2 af b6 c0 ab ee 87 bf 27 64 f9 00 f2 c4 b0 bf
       -0.011685697382595898 -0.06550514720710564
000590 54 17 4f 21 3e 30 b0 bf c4 6c 02 81 48 b2 b5 bf
       -0.06323612511832027 -0.08475163602490726
0005a0 d6 9f 7f 64 3f 9f 8b 3f 72 15 b7 d0 2f 02 a2 3f
       0.01348733449408705 0.03517293379585852
0005b0 2a ac 06 07 53 8c b6 bf 84 2e aa f6 33 63 b8 3f
       -0.08807867929014948 0.09526371738518874
0005c0 69 a7 cc d0 25 0d b9 3f ce 25 da 0d 34 61 b7 3f
       0.09785686824457475 0.09132695520579334
0005d0 a5 d9 be 29 19 67 a4 3f cd b9 d5 f9 d4 0a 6b 3f
       0.03984907755459525 0.0033010635076415663
0005e0 41 26 64 66 a1 22 82 bf b3 0b ea 8e 5c 8f 99 3f
       -0.008855114876968108 0.02496094343451789
0005f0 78 bb 22 1b e1 1f b1 bf 53 09 0f 5a 5f 15 bd bf
       -0.06689268982402818 -0.11360736797999964
000600 80 70 70 01 be 69 b4 3f 65 87 7e d0 02 2c 90 3f
       0.07973849806916355 0.015792888617972695
000610 72 23 93 a0 2c 9c ab 3f 58 10 86 14 51 9a 8f 3f
       0.053925890542422375 0.01543105453379938
000620 07 43 cc 83 e5 71 cd bf 29 32 64 a1 d0 5a 70 bf
       -0.23003834662861086 -0.003992857897412474
000630 f8 c7 dc 38 21 46 b5 3f 43 c4 b0 8b d8 d6 6b 3f
       0.0831013454269679 0.0033983449370898213
000640 07 a3 20 d8 9d bb a5 3f e7 d6 ed 2f 81 1b 83 bf
       0.04244702590250964 -0.009329804682902188
000650 84 9f 0e bd 62 65 d1 3f d4 64 39 27 8b 84 bf 3f
       0.2718130918751671 0.1231162043344683
000660 76 fd 4a e3 8d 19 6d 3f 1e f9 0d 33 cb c9 9d 3f
       0.0035522242781948444 0.0290900945578808
000670 33 d8 1a 4b f8 09 ac 3f 15 cc 9e 7c 29 bb a3 3f
       0.054763564270090014 0.038537308180274156
000680 11 3e 21 ac 8e e7 99 3f bc 06 d8 ee a0 b0 ce 3f
       0.025297383552525036 0.23976527845666407
000690 47 5b be 06 07 b7 ba 3f 32 26 6c 5a 61 69 b9 3f
       0.10435527720106307 0.09926422555522477
0006a0 9f 2d 99 e0 08 e9 82 3f c1 52 6f f9 98 5b 9d 3f
       0.009233540872762456 0.028669729446692886
0006b0 18 de eb 17 8d 8e be 3f 54 14 31 f9 af cc b3 3f
       0.11936265787141342 0.07734203180105342
0006c0 4a b0 cf b7 29 78 70 bf 98 45 67 8a a7 10 69 3f
       -0.0040208463296772055 0.003059699275788485
0006d0 79 a8 e8 1b cd 5b bf bf 89 04 41 3e 03 01 91 3f
       -0.12249452525489514 0.0166054255244075
0006e0 c3 8c 4b 4a 7f a7 b3 3f 96 b3 b3 5a 8d 12 d1 3f
       0.0767745548615038 0.2667573343049353
0006f0 d0 cd ea 01 a5 dd c9 3f 5b 38 8a 16 00 d2 a5 3f
       0.20207655519116807 0.04261780047555482
000700 ba c5 37 06 2c b1 b3 3f e0 66 b0 17 41 52 c1 3f
       0.07692217971614115 0.13532270104115351
000710 d1 04 c2 3f 39 8d d8 3f 1b 6b b3 ee e5 ee dd 3f
       0.3836196062694173 0.4677061873496073
000720 d6 88 3f 0a ea 91 d7 3f e0 4e d8 23 a3 99 cd 3f
       0.36828089714812273 0.23125113725892898
000730 56 44 c7 ec 65 f4 de 3f 9f 8d 44 4e 6c 92 e3 3f
       0.48366687891854576 0.6116239098231978
000740 81 01 af f2 32 bb e7 3f 88 f0 61 da c4 04 ee 3f
       0.7416014423288716 0.9380821481022545
000750 86 2f f9 b9 e0 22 ed 3f 00 a0 f1 47 2f 0d f1 3f
       0.9105075485508543 1.0657189188295888
000760 c6 ae a8 b4 5b d1 e4 3f 7d 5b 0c 02 ed 92 de 3f
       0.6505564239973516 0.4777176399233481
000770 73 3c c9 9f 83 6e db 3f 20 5d 09 2b d8 3f e3 3f
       0.42862024883374444 0.6015435066755437
000780 a6 25 0d b2 1e c3 d7 3f f3 f1 5f 45 0b af e1 3f
       0.37128417384937007 0.5526176791168481
000790 27 2a 71 8f ee 1f e6 3f ac 65 77 ff 12 df df 3f
       0.6913979341127899 0.4979903692997947
0007a0 c4 86 ab b5 b6 8f b3 3f 54 d2 45 4f d1 39 c0 3f
       0.0764116471796355 0.12676445360888755
0007b0 ef 6d 05 20 00 79 7f 3f bb 06 2c 9e 9e 2c d6 3f
       0.007683754433255071 0.34647336431963155
0007c0 ba c4 ca ff b5 44 bc 3f b6 b0 1a f8 e7 c1 be 3f
       0.11042344565318532 0.12014627272827991
0007d0 76 9e 8c 67 1a d7 c5 3f 42 ab 67 8e 16 1e b6 3f
       0.17062692695730036 0.08639660813029784
0007e0 8a e4 2b b5 2e 85 af 3f 40 60 20 8d ce 85 c3 3f
       0.06156297647061944 0.15252096072140553
0007f0 08 62 d8 c6 f7 07 a3 3f 5c d5 82 cb 6d d8 b3 bf
       0.0371701650839818 -0.0775211927273935

visible_bias f8 [100]
000000 f2 2c b2 9d ef a7 f2 3f c9 dd 4f 8d 97 6e fd 3f
       1.1659999999999937 1.8394999999999178
000010 46 3a 70 ce 88 d2 f7 3f cf aa 1c 5a 64 3b df 3f
       1.4888999999999597 0.4879999999999826
000020 c5 2b dd 24 06 81 b5 bf 69 08 1b 9e 5e 29 f3 3f
       -0.08399999999998815 1.1975999999999891
000030 13 95 90 0f 7a 36 fc 3f 81 b7 1e 85 eb 51 fc 3f
       1.7632999999999057 1.7699999999999536
000040 4d c5 4b 37 89 41 fd 3f 5c fc f6 75 e0 9c 00 40
       1.828499999999923 2.076599999999912
000050 2f e2 a5 9b c4 20 02 40 73 f1 d2 4d 62 10 f4 3f
       2.26599999999987 1.2539999999999878
000060 42 c4 20 b0 72 68 d9 3f bd ce b3 59 f5 b9 aa bf
       0.396999999999995 -0.052199999999996895
000070 0d a5 0a 46 25 75 ee 3f da 1c 38 67 44 69 f7 3f
       0.9517999999999646 1.4631999999999636
000080 d7 3a bd 52 96 21 f6 3f 33 42 f1 63 cc 5d e1 3f
       1.383199999999922 0.5427000000000305
000090 80 21 41 f1 63 cc ad bf 6c 21 db f9 7e 6a e2 3f
       -0.05820000000000203 0.5754999999999604
0000a0 6f a6 c6 4b 37 89 fd 3f 3f 1e 85 eb 51 b8 f8 3f
       1.8459999999999146 1.544999999999973
0000b0 bd b0 2e 6e a3 01 f9 3f 39 55 c1 a8 a4 4e e2 3f
       1.5628999999999416 0.5721000000000124
0000c0 65 2f bb 27 0f 0b dd bf 5c a7 79 c7 29 3a e4 3f
       -0.4537999999999925 0.6321000000000185
0000d0 42 de 4f 8d 97 6e f6 3f e2 78 58 a8 35 cd f6 3f
       1.4019999999999446 1.4250999999999796
0000e0 b8 fa 7e 6a bc 74 df 3f cc 1f d2 6f 5f 07 e2 bf
       0.49150000000001226 -0.5633999999999957
0000f0 94 3a df 4f 8d 97 e0 3f 2c dd 02 09 8a 1f f8 3f
       0.5184999999999769 1.5076999999999527
000100 ed 93 65 88 63 5d f7 3f 02 df 2d 90 a0 f8 f7 3f
       1.4602999999999569 1.4981999999999407
000110 1f bb 27 0f 0b b5 f3 3f 19 46 94 f6 06 5f f1 3f
       1.2316999999999962 1.08569999999998
000120 36 a5 2c 43 1c eb c2 3f 8e 5e 98 4c 15 8c ea bf
       0.1477999999999981 -0.8295999999999866
000130 6f de 40 82 e2 c7 88 bf 8f 86 16 d9 ce f7 ef 3f
       -0.01210000000001729 0.9989999999999827
000140 f7 4c a6 0a 46 25 f1 3f eb 07 ac 1c 5a 64 f3 3f
       1.0716000000000443 1.2119999999999844
000150 77 66 3b df 4f 8d df 3f d1 51 27 a0 89 b0 d9 bf
       0.49300000000003 -0.4013999999999927
000160 07 66 f7 e4 61 a1 e4 bf 7f 46 25 75 02 9a e4 bf
       -0.644700000000001 -0.6438000000000129
000170 3a 01 4d 84 0d 4f f0 bf 0a d7 81 73 46 94 c6 bf
       -1.0192999999999999 -0.17639999999999417
000180 07 b6 62 7f d9 3d ed 3f a0 35 cd 3b 4e d1 eb 3f
       0.9137999999999814 0.8692999999999991
000190 77 24 0f 0b b5 a6 a9 bf a6 22 4a 7b 83 2f dc bf
       -0.0500999999999942 -0.4403999999999918
0001a0 9a 54 b8 1e 85 eb d5 3f 4b 86 c9 54 c1 a8 f1 3f
       0.3425000000000381 1.10370000000002
0001b0 6b f1 d2 4d 62 10 f4 3f b1 66 88 63 5d dc e0 3f
       1.253999999999986 0.5269000000000316
0001c0 69 52 b8 1e 85 eb f0 3f 7f ba 74 93 18 04 fd 3f
       1.0575000000000279 1.8134999999998909
0001d0 e9 dc 93 87 85 5a fb 3f b3 4f da 1b 7c 61 fa 3f
       1.7095999999999612 1.6487999999999203
0001e0 05 bf ec 9e 3c 2c 00 40 32 73 24 97 ff 90 fb 3f
       2.0215999999999235 1.7228999999999357
0001f0 3a 6c 34 80 b7 40 fa 3f 64 50 49 9d 80 26 f8 3f
       1.640799999999912 1.5093999999999363
000200 c6 47 e1 7a 14 ae db 3f 20 e3 36 1a c0 5b d4 bf
       0.43250000000000133 -0.31810000000000294
000210 07 4f af 94 65 88 e5 3f 65 68 de 71 8a 8e f6 3f
       0.6728999999999993 1.4097999999999271
000220 5f 9b 11 a5 bd c1 e1 3f e7 ea e2 36 1a c0 cb bf
       0.5548999999999572 -0.21679999999999852
000230 34 1a 2f dd 24 06 d5 bf 78 7b a5 2c 43 1c e5 3f
       -0.328499999999994 0.6597000000000284
000240 18 9f 89 b0 e1 e9 f8 3f c4 96 dd 93 87 85 f6 3f
       1.5570999999999398 1.407599999999932
000250 97 e9 73 b5 15 fb f8 3f fa fa cb ee c9 c3 f9 3f
       1.5612999999999368 1.6102999999999938
000260 5d a1 45 b6 f3 fd f6 3f 9b 02 29 eb e2 36 2a 3f
       1.4369999999999756 0.0002000000000226446
000270 6e 6e 12 83 c0 ca e7 bf ba 21 4a 7b 83 2f dc bf
       -0.7434999999999954 -0.4403999999999787
000280 1c c8 c3 42 ad 69 da 3f fe b3 a6 79 c7 29 f5 3f
       0.4126999999999741 1.3226999999999403
000290 89 5f 54 52 27 a0 fb 3f fd 89 db 68 00 6f ff 3f
       1.7265999999999357 1.9645999999999042
0002a0 75 eb 9e 3c 2c d4 f7 3f 14 20 8e 75 71 1b fd 3f
       1.4892999999999266 1.8191999999999142
0002b0 1e aa ad d8 5f 76 fd 3f 3e c8 76 be 9f 1a e5 3f
       1.8413999999999144 0.6594999999999869
0002c0 d5 54 30 2a a9 13 e0 bf 3f 73 68 91 ed 7c d7 3f
       -0.5023999999999896 0.36700000000000793
0002d0 01 8a 6c e7 fb a9 f4 3f 63 e4 d0 22 db f9 fa 3f
       1.2914999999999284 1.6859999999999438
0002e0 93 78 36 ab 3e 57 ff 3f bb 34 67 44 69 6f d8 3f
       1.9587999999999155 0.3817999999999519
0002f0 72 81 e2 c7 98 bb ee bf e6 04 a3 92 3a 01 f3 bf
       -0.960399999999977 -1.1877999999999758
000300 0e 4e 40 13 61 c3 f0 bf f7 93 cb 7f 48 bf cd bf
       -1.0476999999999665 -0.23240000000001235
000310 f8 34 ef 38 45 47 f1 3f a8 58 a8 35 cd 3b ee 3f
       1.0799000000000074 0.9448000000000052

hidden_bias f8 [56]
000000 2f 00 f4 95 65 c6 16 c0 41 13 9c 80 e6 09 15 40
       -5.693746893899557 5.2596683593044995
000010 17 56 b1 68 c8 6b 1c c0 a3 dc 4b e0 2d 5b 1a c0
       -7.10525668699622 -6.589042191152802
000020 e6 97 4d cf b3 1f 15 40 a3 27 35 ea dd 2b 1a c0
       5.280959357367442 -6.542838725561441
000030 df 9a 6a e4 44 31 17 40 0d 4e 81 5a ab bb 15 40
       5.79811436558404 5.433270849363464
000040 17 ef ec 2d cf ab 18 40 20 d3 70 21 60 69 19 40
       6.167782514177609 6.352905771743082
000050 af 7c 6d b3 4d 0e 1a c0 f4 e9 fa 85 85 f2 17 40
       -6.513968280370292 5.986837476195877
000060 f4 f9 55 b6 f4 6b 18 c0 29 1b 05 7a f4 e8 18 c0
       -6.105425690648634 -6.227495104371692
000070 fd fb b3 55 2a 57 12 40 ef fc 4b 22 d1 99 16 40
       4.5851224318603245 5.650211845291081
000080 9b 06 96 b6 b5 26 19 c0 24 5e cd a2 a5 0c e2 3f
       -6.2878025559490665 0.5640438251238646
000090 02 db a0 97 71 ad 17 c0 c9 6f ef 51 f1 8a 18 40
       -5.919378632729378 6.13568618797212
0000a0 f3 32 42 bd e3 09 1a 40 74 37 26 f5 f1 1b 18 40
       6.509657818952053 6.027290182550008
0000b0 ee 50 02 2f f2 20 fc bf c1 62 63 25 18 c7 f4 3f
       -1.7580434643069185 1.298607011840588
0000c0 2d ba a0 53 33 a9 1a c0 65 54 a8 c2 2f a8 15 40
       -6.665234858212483 5.414244691394832
0000d0 79 fc c4 bc 9c ec 17 c0 f0 80 12 ea 5a 52 0e 40
       -5.981066655657849 3.7902124678513403
0000e0 7b 72 a7 5b 3a db 17 c0 ee 3e d8 e8 9f ab 15 c0
       -5.964089805693784 -5.417602194021795
0000f0 da d7 5e d8 90 c9 19 c0 35 5b e0 d5 18 0d 19 40
       -6.446841603077667 6.262790052240963
000100 3a b6 66 68 32 2f 18 40 13 af 0d 2c 59 fc 17 40
       6.04609072806266 5.99643391450424
000110 c4 c0 98 10 6c 1b 17 40 9a 78 81 dd 82 b2 17 40
       5.776779422114661 5.924327336337365
000120 65 7f 06 c5 8b c5 18 c0 81 db 14 9e 4a b1 16 40
       -6.192915991326889 5.6731362056951875
000130 75 6a eb 72 36 23 1a c0 a6 f0 eb 57 64 e8 17 40
       -6.534387393587726 5.976945279861104
000140 63 ed 6c 99 22 e7 13 40 b9 6e 6c 3b 6c 7a 18 40
       4.975717923425097 6.119553497784801
000150 ac 84 7f 9b ef a6 11 40 08 47 2d d8 3c 2d 19 40
       4.4130234047490084 6.294177415622251
000160 69 52 c7 10 76 6a 15 40 3d b9 a2 54 5a 1e 17 40
       5.353966009297985 5.779641458923206
000170 29 99 49 e1 5d 7f 10 40 2e 6d a8 e8 b2 99 14 40
       4.124381561390956 5.15009654548639
000180 5f 0d 6c 31 88 dd 18 c0 0a d3 cc 22 78 a4 f1 3f
       -6.216339847774491 1.1026536330584258
000190 dc db f6 29 c0 79 19 40 9a 21 86 b2 35 be 19 40
       6.368897109691684 6.435751714169237
0001a0 09 46 bd 31 66 43 1a c0 56 ea ed 8a 94 6d 19 40
       -6.565819527795164 6.357011957904055
0001b0 98 4a 20 bf d0 42 08 40 3c 9a bf 3e ba a2 06 40
       3.032624715016322 2.829456796858066
