Data/TFIM1D/Energy/Q100/Trial30.pt (torch_old, 47464 bytes, 3 tensors)

weights f8 [57, 100]
0	0x3f9c1ef226124ff3	0.02746179921503251
1	0xbfac9cb36af947fb	-0.055883032615966464
2	0x3fa0189237a06c01	0.031437463083612734
3	0xbfc72791fb219fe7	-0.1808950878360058
4	0xbfb004293c09d4f0	-0.06256349292546637
5	0xbfc1ecfddcf830bf	-0.1400449112846953
6	0xbfa0c75b5f04c8b6	-0.03277097258468713
7	0xbf8ea16bb6f7dbd1	-0.014956323167082093
8	0x3fa6840c8dce95dd	0.043976204214498195
9	0x3fb6df2c5498fc0f	0.08934285226222037
10	0x3fc13e4fce6274b5	0.1347141034829399
11	0x3fbb73bf3bbc27e9	0.10723490913747437
12	0x3fc208852e3ecd36	0.14088501699516492
13	0x3fd933a617226f4e	0.3937773919985731
14	0x40015f17a9fa6073	2.171431854203598
15	0x4015821c741e9313	5.377061666837807
16	0x40012388afc9d733	2.142350552890002
17	0x3fdbf2aafbe4b5fe	0.4366862735649589
18	0x3f961841d62b6ae1	0.02157690877616403
19	0x3f9ba44781f7388c	0.026993863399007043
20	0xbfa54660be27de06	-0.041552565777177405
21	0x3f97a744cf028ef8	0.023099017271888095
22	0x3f869902c270d256	0.011034032400950949
23	0x3f9c59c8a9d88391	0.027686248175203657
24	0xbfaeffed86a80a05	-0.06054632443194311
25	0x3fa9fca898521f9c	0.05075575694451048
26	0xbfab083095d83bed	-0.05279685811193944
27	0x3f99c290534b3e66	0.025156264385087466
28	0xbfa1650b8c200878	-0.03397403798591453
29	0xbfa3269d94a9628c	-0.037403988263297355
30	0x3f8fc7cac3a68563	0.015517791839388456
31	0x3fc649d7faa547a2	0.17412852991634248
32	0x3fadeca30db82f69	0.05844602148508111
33	0xbfa71fa85d67c317	-0.04516340389444034
34	0xbfb566611e352968	-0.08359343516818785
35	0xbfb31b98d70f032d	-0.07463984728293545
36	0x3f9c275f9cad15a7	0.02749394792342277
37	0x3f943921fd06a3cf	0.019749194210507966
38	0x3fa2c219ee408a27	0.036637125333318026
39	0xbfa643299c975868	-0.04348115955842574
40	0x3facfad2731627ed	0.05660112051835129
41	0xbf9bbc7f3d8394eb	-0.02708624661399465
42	0x3f6e63f0f48c9216	0.0037097650678268408
43	0x3fa79a26eb496936	0.04609796163704731
44	0x3fccd7379f21651b	0.22531790990869002
45	0x3faa0bd858049812	0.050871620888116934
46	0x3f9f6bb2860f259d	0.030684270317384955
47	0xbf8b60f6246373b5	-0.013368533120621121
48	0xbfbdfafb9d369c2f	-0.11711094463554227
49	0xbf826b601abab443	-0.008993864837373638
50	0x3fae997a4d605431	0.05976469225439763
51	0x3f991fda91a246b1	0.024535575045382788
52	0xbfb4288716be168b	-0.07874340348470292
53	0xbf6bd3ff3d3c6bcd	-0.0033969864979445986
54	0x3f860b01718824d1	0.010763179089752136
55	0xbfb6d198c46bc269	-0.08913569255288113
56	0x3fc1e386e49e8dd1	0.1397560707383563
57	0x3fb3673f9d587a40	0.07579419700093926
58	0xbfbabd377ee95073	-0.10444971893713433
59	0x3f7acd44768cc404	0.0065434145297311765
60	0x3f9b27c9a7d5506e	0.02651896559594074
61	0xbfa20b3e04a15c19	-0.035242021622870996
62	0x3f8741c7314daf70	0.011355930511591089
63	0xbfb652eb161be3c0	-0.08720273294228686
64	0xbfb050171443b50c	-0.06372207875002206
65	0xbf96d749228187c9	-0.022305624705388803
66	0x3fc2a08b01173dc9	0.1455243830991846
67	0x3fb2e50c025d8c86	0.07380747850179334
68	0x3f9f0fba73a10ecc	0.03033343630546774
69	0xbfb3aafacea13861	-0.07682769341156039
70	0xbfb7dc15ee690001	-0.09320199080048043
71	0x3f9032818620a4a6	0.015817664920324014
72	0xbfa0dc791baeb4de	-0.032932076100544924
73	0x3fbc342f7432bcde	0.11017128550405483
74	0x3facc3d0ba57124e	0.056181452509495786
75	0xbfb36a5b969a857f	-0.07584164072843257
76	0x3fa0aecb1b9f86aa	0.03258356773563993
77	0xbf9a541485ddc2bc	-0.02571136538557782
78	0xbf87d19121d0c499	-0.01163018593260494
79	0xbf76bfbda0e0945a	-0.005553951965372306
80	0xbfce70b509fb698d	-0.2378145502796766
81	0xbfb9abaddeab8a66	-0.10027586637765182
82	0xbfc0189a20cfb6dc	-0.12575079538458211
83	0x3f8bde84053e0b76	0.013608008775695995
84	0xbf982cbeb142dfd7	-0.023608188218275785
85	0x3fa51ef151378b44	0.04125169865053249
86	0x3fcb305ea227dd1c	0.21241362493285798
87	0x3fba01fa886f3797	0.10159269171637529
88	0x3f9386c85b4fd117	0.019068842480877892
89	0x3fab8c237d362163	0.05380354789218946
90	0xbf87f08fe71eecdd	-0.01168930458140099
91	0xbfa5de21de727a86	-0.04271035995883658
92	0x3fc036cca768aaa1	0.12667234586964063
93	0xbfb2068a76b701da	-0.07041230581581406
94	0xbfb13873e7dfa2b3	-0.0672676507089232
95	0x3f97c74b68bbb42f	0.02322118593922456
96	0xbfc00ffbe55458cb	-0.12548779199341306
97	0x3faeb9fb3e212c70	0.060012675604036114
98	0xbfb17d2924620e72	-0.06831605089433326
99	0x3fa9fdef14929fdb	0.05076548696644042
100	0xbf908bc64e207f21	-0.01615819789742468
101	0xbfc1ecbd825f55d2	-0.14003723970260623
102	0x3f8acc26bb0a58c4	0.013084700186749017
103	0x3fbc190bcde9ecda	0.10975717332069071
104	0x3fc0e588c02463e5	0.13200482732716448
105	0x3fbc9674d37f432f	0.11167078174117927
106	0xbf5eb7c3642b75d0	-0.0018748672597931233
107	0xbfb00c9e5d3b468b	-0.06269254470978518
108	0xbf6e5b66052cd4dc	-0.0037056915838556814
109	0xbfa800e0069a3d2b	-0.04688167648884652
110	0xbf9d06caa1f00b19	-0.028346220144167853
111	0xbfb88602633f7d54	-0.0957948200516417
112	0xbf96fadc86a57c51	-0.02244133540932253
113	0x3f524a74bd795052	0.0011163845100741377
114	0xbfa9218c8594acff	-0.04908408289551324
115	0xbfa1813e5e6c7d7a	-0.034189175630895144
116	0x3fb4649f1e9553b6	0.07966036316550071
117	0x3fbaa4a5095e700d	0.10407477835400432
118	0x3f9c194dfa04b6f9	0.027440279374039787
119	0xbfc12601fce7abd3	-0.1339724049460914
120	0x3fb2dd1d17922e96	0.07368642640556752
121	0xbf9aa651f045a705	-0.026025085725826198
122	0x3faf6d5555b0d949	0.06138102217703307
123	0x3fabdff39957db0b	0.05444298979630532
124	0x3f7492373cfb6b5f	0.005022254728568181
125	0xbf87a7288fd48755	-0.011549298180913029
126	0x3f93d46b9e99d778	0.019365006976350213
127	0x3fbcc917f8b3b7e6	0.11244344541384485
128	0x3fb3edc885f03266	0.07784703512170096
129	0x3fc483c0ced2eea4	0.16027078722787735
130	0xbfa4c6c7a16d2b25	-0.04057906957185357
131	0xbfa6d64252bc0607	-0.044603417014524686
132	0xbfacb097fee5ae02	-0.05603480326211853
133	0xbf90754a7f429596	-0.016072429673518927
134	0xbf9f2ea3e600b7c3	-0.03045135585141857
135	0x3fb14fe4d2ef652b	0.06762533330711011
136	0xbef3ba245b8f0fce	-1.881324508069809e-05
137	0x3fb39b40198dadc8	0.07658768295157536
138	0x3f8629a7a5c135b0	0.010821637865002426
139	0x3f894e5c7eede753	0.012356493590903439
140	0x3fb8b44f52a354e5	0.09650131003884928
141	0x3f7753a2ccc726a1	0.005694995820201194
142	0xbfae1f9c0653fae1	-0.05883491112944284
143	0xbfb269f96235eb79	-0.07192953727455444
144	0xbf8e2337e87c7b15	-0.014715611250321762
145	0x3f86ed5574698634	0.01119486581336835
146	0x3fa038d489ad02c1	0.031683580213671465
147	0x3f910c3cd0b09596	0.016648245084203227
148	0x3fa1f5bb571b5d04	0.035077909835019155
149	0x3f9351ce99654851	0.01886675654652265
150	0x3fbfef38c31a43fd	0.12474398387190884
151	0xbfc371fc56bc9322	-0.15191606745897795
152	0x3faf510f508833d6	0.06116531236703053
153	0x3fba763c38e98a82	0.10336662663898191
154	0x3f9b9c3080a42075	0.026963003017073512
155	0x3f7b8cf6ddc5b3df	0.006726230927921655
156	0xbf5f0a9959cf1886	-0.0018946168486180539
157	0x3fa48e308ae86285	0.04014732070590291
158	0xbf9239cde59179a5	-0.017798630844816938
159	0x3f94ffa5c73330b5	0.0205064680892952
160	0x3f49217c6bebf78f	0.0007669312979883147
161	0x3f8651a916c0df6a	0.010897942549590051
162	0x3f794ac223b040aa	0.006174810750067797
163	0x3fb4d9528379ac9f	0.08144107541891053
164	0x3f72bbbea944f4da	0.0045735786155180706
165	0x3fc97da84b17126f	0.19914725939283381
166	0x3fca0a2bcda10d85	0.20343539753421794
167	0x3fddd0159bba0e75	0.4658254643220297
168	0x4001dc820b9aacf5	2.232669916780305
169	0x4015154a82b806f4	5.270792047960402
170	0x4002cfc8d9443772	2.351457307237916
171	0x3fe01f4428ba77bd	0.5038166804767951
172	0x3fc34df26ca78c4e	0.15081625275988347
173	0x3fbe853c1249ecab	0.11922049948218454
174	0x3fd24b207098f804	0.2858353709779069
175	0x3fd21908eee0ff02	0.2827780087281867
176	0x3fb0e025e7434928	0.06592022796693142
177	0x3f9797e7904230ec	0.02304040735229844
178	0x3fa176035b9e4bf6	0.034103493627433965
179	0x3f93483077a8039d	0.01883006792377594
180	0x3fb11a292f4e6192	0.06680543332038827
181	0x3fae73f869da0f18	0.059478533669816425
182	0xbf5f28678431f712	-0.0019017229940624975
183	0x3fa2bc8764b49605	0.03659461120905053
184	0xbfc12847e2f81665	-0.13404177267527753
185	0x3fb049b2a8da0cff	0.06362454054219667
186	0xbf8a31172b943baa	-0.0127889452146784
187	0x3fb2369a45f8b25d	0.07114567001617318
188	0xbfbafde55ace0de6	-0.10543664423862928
189	0xbf92267a50f977b4	-0.017724906151094635
190	0x3f8e6608a9d4b1fd	0.01484305160791965
191	0xbfa0df37c3bd6f3f	-0.03295301689533269
192	0xbf792f5d81fc49d9	-0.006148686661406854
193	0x3fb6e8c097248f49	0.08948901834497493
194	0xbf97c3bcfc207ae9	-0.023207619560816992
195	0x3fa94e246b87807b	0.04942430317510201
196	0xbfc806f57224fd7e	-0.18771236489736148
197	0x3fb37a2a377f7acc	0.07608283858233306
198	0xbfa574af2b7f618b	-0.04190585523582787
199	0x3fa8b03843c0dad0	0.048219450255080454
200	0x3f61f42c6c08b22c	0.0021916263215387057
201	0xbfa1fcf4b3087810	-0.03513302503073146
202	0x3fb8999d0a62bf4e	0.0960939550739088
203	0x3fcf2c1957cddfc4	0.24353329455675354
204	0xbf811d06d75b4a5d	-0.008356145331537218
205	0xbf99da86a528eb55	-0.02524767287307424
206	0x3f92487c838cdef8	0.017854638604346967
207	0x3f91ce932cda5f41	0.01738958321820339
208	0xbf98b44cc3fed551	-0.024125289404499487
209	0x3fb91befb7469c50	0.09808252548701657
210	0xbfb2ced3027b041e	-0.07346838770446637
211	0xbfc2a6ae6f9211d3	-0.14571171233923383
212	0xbfbda39a524596fa	-0.1157776308878872
213	0x3fa27840bfad6eed	0.03607370700657762
214	0x3fafa9b5d0df058c	0.061841661211938875
215	0xbf91ec52ed944df1	-0.017503066778841562
216	0xbf954463515cb752	-0.020768691864922424
217	0xbfbbce03cf8ad566	-0.10861228768302097
218	0x3fb110b47b6ffe9f	0.06666114820108725
219	0x3fbc059169ba6f3d	0.10945996123558373
220	0x3f9579be778018c4	0.02097222904560493
221	0xbfbadb769258baaa	-0.10491124222674367
222	0xbfab91517e4b788b	-0.05384306589779538
223	0xbfc6b3f665a78347	-0.17736701930609852
224	0xbfa1b6ed66a76c46	-0.03459874990559135
225	0x3fa9ca22f7736fc4	0.050370304781352654
226	0x3faf996ddbc07a36	0.06171744639890557
227	0x3fc9df4ed7ec4af6	0.20212731879345086
228	0x3fb09de16defd547	0.06490906652455407
229	0x3fadc0726a6062a7	0.0581088785986073
230	0x3fbb44c5b7832219	0.10651813249854349
231	0x3fc4914a43397d07	0.16068390161942878
232	0x3fbde98574a679f9	0.11684450242908175
233	0x3fcf1755b274326e	0.24289962018555705
234	0x3fc1b8ea82797c11	0.1384556901057015
235	0xbf96375b050d2385	-0.021695539649303725
236	0xbffcafaaba1c5979	-1.7928874273253241
237	0xc01429d5a8f3e14f	-5.0408541106083495
238	0xc001fd2ca4337d93	-2.248620302983633
239	0xbfe5c590d621b2bb	-0.6803669149645296
240	0xbf80a265597e9fa0	-0.008122245591792254
241	0x3f779ac0f82a0cab	0.00576281908672908
242	0xbfc0a8f9781b2977	-0.13015669216685996
243	0xbf6e7af03cf6d674	-0.003720730986709603
244	0x3f3e03068fb3f63e	0.0004579440134902835
245	0x3faad68ecb70bb51	0.05241819604304133
246	0x3fb09ace3d216877	0.06486214630550245
247	0x3fc80eac8334933f	0.18794781118881507
248	0x3fa487f28d0d64a1	0.04009969684438742
249	0xbfccc0da97470a2f	-0.22463543306919706
250	0xbfc409e8a2f24ad4	-0.15655239063615645
251	0x3fbfb37543798365	0.12383206269579501
252	0xbf8112225621cc05	-0.008335369351902608
253	0x3fcc9bdaa5554d5f	0.22350628922377333
254	0x3fa51d2a91447806	0.04123814605030422
255	0x3fc030716534341c	0.12647836152646696

visible_bias f8 [100]
0	0xbff85b573eab3583	-1.5222999999999451
1	0xbffab645a1cabf50	-1.6694999999999318
2	0xbfaa0f9096bb9666	-0.05089999999999577
3	0x3ffe38ef34d6a031	1.8888999999999323
4	0xbf9ba5e353f7efca	-0.027000000000029258
5	0xbfefb8bac710c94a	-0.9912999999999468
6	0x3fea1205bc01a433	0.8147000000000219
7	0x3fff8240b780321c	1.9692999999998682
8	0x3ffb205bc01a348f	1.6953999999998677
9	0x3ffcaf4f0d844b31	1.792799999999897
10	0x3fe7c5d638865a29	0.7429000000000247
11	0xbff3f4f0d844cf82	-1.2472999999999677
12	0x3fd2f1a9fbe76c31	0.295999999999995
13	0x3ff47318fc504788	1.2780999999999683
14	0xbfbf4f0d844d00e7	-0.12229999999999884
15	0xbff641205bc01937	-1.3908999999999432
16	0xbfe21d7dbf488010	-0.5661000000000076
17	0x3ff619ce075f6f27	1.381299999999962
18	0x3fe48db8bac71125	0.64230000000001
19	0x3ff8758e2196513e	1.528699999999915
20	0xbfbe69ad42c3caee	-0.11880000000000354
21	0xbff78ce703afb694	-1.4718999999999243
22	0xbff8816f0068da9b	-1.5315999999999466
23	0xbff86594af4f0c12	-1.5247999999999178
24	0x3fc016f0068db4f8	0.12569999999997328
25	0x4000b50b0f27bafc	2.088399999999977
26	0x3fff6809d4951830	1.9629000000000012
27	0x400202a9930be2b5	2.251300000000209
28	0x3ff6de69ad42c13c	1.4292999999998548
29	0x40022cd9e83e420f	2.2718999999999663
30	0x40043c01a36e2f56	2.529300000000073
31	0x400820902de00ebb	3.0159000000001845
32	0x3ffc5a1cac082f7a	1.7719999999999048
33	0x4002d73eab3677b5	2.3550999999997324
34	0x40018c154c985f74	2.1934000000000484
35	0x40011930be0dec97	2.1372999999999354
36	0x400272474538ee1e	2.305799999999876
37	0x3ffd923a29c777ed	1.848199999999902
38	0x3fedc5d6388659c9	0.930400000000014
39	0x3fecf837b4a233dd	0.9053000000000072
40	0x3ff294af4f0d8406	1.1612999999999842
41	0x3f9bf487fcb9227b	0.027299999999998974
42	0xbff3c6a7ef9db14d	-1.2359999999999502
43	0xbfd3bb2fec56d491	-0.3082999999999823
44	0x3ff1df3b645a1bec	1.1169999999999574
45	0x3f4a36e2eb1ae6b4	0.000799999999990328
46	0xbff641f212d772e6	-1.3910999999999887
47	0xbfddd495182a994b	-0.46610000000000146
48	0x400014af4f0d83b3	2.0100999999999316
49	0x3fe25f06f6944598	0.5740999999999756
50	0xbff15aee631f89df	-1.0846999999999907
51	0xbfedd21ff2e48cf6	-0.9318999999999551
52	0x3fd561e4f766011c	0.3341000000000507
53	0x4000c0ebedfa439d	2.0941999999999568
54	0x4002b74bc6a7ef47	2.3394999999999615
55	0x40047e5c91d14d8c	2.561699999999922
56	0x4000d21ff2e48d18	2.1025999999998355
57	0x400077ced916879a	2.0585000000000493
58	0x4001da858793dbed	2.2316999999998104
59	0x4005be76c8b43a46	2.7180000000001057
60	0x4000a5aee631f782	2.0808999999998727
61	0x4001af4f0d844c31	2.2105999999999075
62	0x40065b8bac710b09	2.794699999999811
63	0x3fe1ced916872b13	0.5565000000000019
64	0xbfe88b43958104bd	-0.76699999999996
65	0x3fe4e48e8a71de41	0.6528999999999955
66	0x3fff31f8a0902c0e	1.9496999999998965
67	0x3ffc096bb98c7d90	1.7522999999999662
68	0x3fe0c2f837b4a0be	0.5237999999999585
69	0xbfeac8b439580f7c	-0.8369999999999744
70	0x3fe4f837b4a232cd	0.655299999999977
71	0x3ff7b71758e21887	1.4821999999999507
72	0x3fd9bf487fcb8eff	0.4022999999999541
73	0xbff8083126e9776c	-1.5019999999999198
74	0xbfdb95810624dc7b	-0.43099999999999
75	0x3ff3f06f69446762	1.2462000000000093
76	0x40035d6388659532	2.420600000000058
77	0x3ffc617c1bda500b	1.7737999999999399
78	0x400304816f0067f3	2.3771999999998967
79	0x4001182a9930be02	2.1367999999999947
80	0x400370a3d70a3d79	2.4300000000000037
81	0x3fe3381d7dbf487b	0.6005999999999995
82	0xbfd0ac083126ea2b	-0.2605000000000099
83	0x3ff300d1b71758b1	1.187699999999989
84	0x4004f80346dc5d72	2.6211000000000064
85	0x3ffc9e1b089a00d5	1.7885999999999076
86	0x400003afb7e9104c	2.0018000000000367
87	0x4004b8ef34d6a18c	2.5903000000000187
88	0x40071ff2e48e8b14	2.890600000000072
89	0x4002f212d7731815	2.3681999999998973
90	0x40053d3c36113560	2.654900000000154
91	0x3fe113404ea4a9ab	0.5336000000000259
92	0x3fb10624dd2f19a3	0.06649999999999649
93	0x3ffa59b3d07c8314	1.6468999999999072
94	0x3fff41f212d771ca	1.9535999999999256
95	0x3fdf5f6fd21ff3bb	0.4902000000000119
96	0xbfdd013a92a30504	-0.4531999999999956
97	0x3fd1b8bac710c750	0.2768999999999453
98	0x3fffb6ae7d566afd	1.9820999999998883
99	0x3fe5ed288ce7015c	0.6851999999999339

hidden_bias f8 [57]
0	0xc0150bd583c725bd	-5.2615566816616
1	0xc01aca9e6fc7b92b	-6.697870012822288
2	0x401116edfb007acf	4.272392198471336
3	0x4018a19f0c2e26c2	6.157833280865534
4	0xc0181fb3842e82ac	-6.030958237971088
5	0x4018306d0e023a5a	6.047291010747893
6	0x40178b10f9b820ab	5.885806943763025
7	0xc018d6f22befce9b	-6.20990818644682
8	0x4018aa4edf098336	6.166316494899368
9	0x4011251d93e5b533	4.286245642562153
10	0xc01841cc6e1acffd	-6.064256401430609
11	0x4017de6d53599c1a	5.967213919014307
12	0xc015d4ab5b3d26cc	-5.457684922797579
13	0xc01a34aad2a386b2	-6.551432887297482
14	0x4014883805eb9549	5.133026211265425
15	0xbffb0748712a803c	-1.6892780705020547
16	0xbfd3c1adb4eb14f7	-0.30869620006372095
17	0xc01ac7e9d8ad48ff	-6.695227990700231
18	0x40130c5c8ef4903f	4.762071832348794
19	0x400292cfe3a269ce	2.321685579675637
20	0x401a39fe2684fb26	6.55663356959011
21	0x401855029349bd4b	6.083017636657426
22	0x401b00e0e8562ae6	6.75085795427251
23	0xc019cb98ea198f38	-6.44882550984385
24	0x40196fe77f7ee495	6.35928153240197
25	0x4018c1e46e283bdf	6.189347954946213
26	0x4018ca1daa7b4670	6.197378791593664
27	0xc0183a1b4a85682f	-6.056744732277408
28	0x4018de59c744d113	6.217139352393377
29	0x401b0e12253d0016	6.763741094444432
30	0xc01a9eded258eaef	-6.655146872212511
31	0xc019e8d1bb524708	-6.477362563034838
32	0x401a4f07bdde5289	6.577177969641192
33	0xc016950dad177058	-5.64555998282966
34	0x4017ee5b57ecb4d8	5.982770322630323
35	0xc01862e08b15796a	-6.096559689698873
36	0x401b8bc7d5b14c7c	6.88650449652334
37	0x401bb4e66235aad9	6.926660093808743
38	0x4018627126de85ad	6.096134764987636
39	0x401928f7ce0669f3	6.290007800237151
40	0x40193ba3cd5a1dfb	6.308242043137848
41	0xbfdf9b3e0ccd955c	-0.49385024309443337
42	0xbff2d03ec7ebb591	-1.1758411225704075
43	0x4016873ddfd1db4b	5.632071969207412
44	0x401301b880c980ec	4.751680385874561
45	0x40138692a21c6e75	4.881418736443824
46	0x401635edd0d003cb	5.552665007301537
47	0x401a968e94c05f30	6.6470282785810895
48	0xc01bfbbd0fc7fbb3	-6.995838400441175
49	0xc015ed63e9ef4189	-5.481826453426387
50	0x3fdf6c94c97d6008	0.49100227047665657
51	0x4017131d1a7a4cf3	5.768665708269725
52	0x4013cdf5c09121de	4.951132782800839
53	0x4018e62b7e039af7	6.22477528473859
54	0x400de9dc3f4f658d	3.739189619646544
55	0xc014db71d6587cbf	-5.214301442290149
56	0x401710fd4fb507f6	5.766591306137334
