Data/TFIM1D/Energy/Q100/Trial2.pt (torch_old, 47464 bytes, 3 tensors)

weights f8 [57, 100]
00000000: 2386 948b 5d14 b0bf 88db 979a b476 b5bf
00000010: d987 691b 73d0 b6bf 3653 5cf7 856f bcbf
00000020: 7e0a b545 4e8e 9c3f f31f e0d7 1b1b ce3f
00000030: 9923 19be fdee a1bf bc20 29b9 b7f4 b1bf
00000040: 8fc0 17f3 8898 863f 76db a79d ae6b c13f
00000050: 782c 281b 511d acbf 8c08 f971 94fe c7bf
00000060: 784a 3972 99cc c9bf aee1 f376 96bf b0bf
00000070: cae8 21f7 26f3 d2bf 2d62 6702 9281 02c0
00000080: c78f 458c 05ce 12c0 920a 6841 bc6a ffbf
00000090: 8067 46dd b906 cabf efbd a6fe 5bac 953f
000000a0: 4901 4343 3edd c5bf 1b6a 6166 ca22 b1bf
000000b0: 3f8e 3039 85ba a63f 5e33 a3a9 2277 afbf
000000c0: 84d5 466f 7656 a03f ef08 383f c704 b1bf
000000d0: 2e2b 3cbf 623c bebf 29f7 a926 953f a1bf
000000e0: 36b0 c3d7 f461 a33f 9228 0310 45f2 b83f
000000f0: e1ee 5f20 1b66 b73f 929d 87af 4f2e a6bf
00000100: aea4 5d0a 65b9 d4bf 5cda 8282 5a3a c4bf
00000110: 246a 555e 05b1 c23f f457 fc06 8216 93bf
00000120: ce06 253f fd94 90bf 84ac ebb1 1641 73bf
00000130: 85b0 d976 aa0a a23f 9a2b b765 07c9 b43f
00000140: 4902 4366 7f44 99bf 67f1 6554 ce34 ad3f
00000150: 81e9 a8dc 2695 c43f e50e f21b 801b 8d3f
00000160: fa18 32d7 f8df a8bf 2a0c 518b 0685 7ebf
00000170: 16ed 4c93 c697 a5bf 407e 5662 69e1 9cbf
00000180: 634b 5d8e 3277 d63f cdca 281e 4c68 b13f
00000190: 587b 2e15 9263 c3bf 0436 46d7 dacc adbf
000001a0: a2d0 3656 f44b a3bf 11cf 8566 04a3 acbf
000001b0: 58b2 12f8 35e6 c1bf ae0e bd94 20d4 833f
000001c0: 84c0 10ee e76e b5bf 3c0a 36d1 e66c 92bf
000001d0: 8243 7b82 0f8a be3f 4cfa 2e89 773f a2bf
000001e0: 851e fa8b 770a bb3f c1b4 91c7 daca b23f
000001f0: ff2e 7d07 0a1d b5bf 53ca 8984 78da ad3f
00000200: e174 dc71 a480 9d3f 0674 b3df e42a 893f
00000210: 2151 7629 d078 b1bf df05 58da 3f9c b9bf
00000220: ff70 6238 0914 b5bf c5bf 78b9 defd ce3f
00000230: 50e2 b458 926a c23f 98af 9c98 e5c7 6c3f
00000240: c23a a65a 9e12 973f f455 896e 108b 923f
00000250: c0dd 6a40 e13b a13f 18e8 be58 efc7 9ebf
00000260: a261 88cf 6801 bdbf fbc4 c2d5 829c b5bf
00000270: 7f36 2c35 a378 b33f 0205 fab5 92fa 603f
00000280: c221 814b b8e7 b63f f7b2 40c3 132d b13f
00000290: ee55 000e 1b15 b9bf 5eb9 a40d f28e a2bf
000002a0: 20fa 56d8 e835 c43f ca69 5c99 826e 863f
000002b0: d3c0 aaab efc3 c0bf 1fe7 955b b0cb abbf
000002c0: 7a4f cd08 46ff a33f b277 bec4 423a b53f
000002d0: 5d00 9283 79ed 7d3f 96f3 c7ed 1075 a63f
000002e0: f641 5042 36fe b23f 5b3c 99f1 dda4 b0bf
000002f0: 8432 d6a4 57e7 c5bf 70b6 8c34 d17a 9cbf
00000300: d49e 75de eac8 75bf 03cd e44c 93d5 b7bf
00000310: 6345 d3fb d9f9 bbbf 5753 1ba9 6a38 a2bf
00000320: 1047 c046 93ad adbf a730 42f0 9022 97bf
00000330: 4a0f 5ea5 e4c9 97bf fef2 c186 8ffb a2bf
00000340: 3023 c3d4 b5de a73f c157 5e6e fbad 9ebf
00000350: 8ae1 57ba 910d a1bf c804 12de b10f c2bf
00000360: 6d48 0eb6 aa0f bdbf f090 0e11 7999 813f
00000370: fe6f 8853 790a 97bf 5f0c 2996 1e30 95bf
00000380: ed3b 87cc e506 bb3f d8f5 1d0f 0aea 933f
00000390: f38e 155d bcab babf 26a2 6e7c 7d66 b0bf
000003a0: f9c3 8cca e5fd a83f 9eed 5767 91af b03f
000003b0: 331f 7217 71bd b53f fd59 196b 3bec 61bf
000003c0: 7e8c b4b0 68c9 a3bf f7ff 719e ef1a a13f
000003d0: d8be 2e18 6ff1 bb3f 61b1 eac6 5c3f b03f
000003e0: 0fec 5f37 8ae4 b1bf c029 c6d4 ab11 bfbf
000003f0: ced6 23fb 3b56 b73f 4a09 21f2 b65e a13f
00000400: 6091 9d91 cb52 b2bf 13a6 8ddf 4261 723f
00000410: 624c 5694 2f16 bb3f ae3c dfbb bdfc 923f
00000420: cd2b c975 5584 b3bf c5c7 463e fb5d 5dbf
00000430: 6db7 1c24 6d6a af3f 7a1e 7166 e97d ad3f
00000440: b360 e0ca 52c8 56bf f61e b339 2c4c a73f
00000450: 2f29 5dde 8685 a8bf 441d a628 9ff3 b1bf
00000460: fe3a 766f bccd aebf cb33 e48c c87f a13f
00000470: d683 cbb9 8bc6 abbf 236c 9907 f875 9d3f
00000480: 0edb 0f6a 4b5c a93f 1342 07f3 5666 763f
00000490: e0f8 5c20 2966 b6bf 4c56 1080 c7c4 9b3f
000004a0: 8391 44fb a192 b1bf d32e cc1a 35df b63f
000004b0: ee53 75ad 144a b63f 4e2e 105f 2a14 aebf
000004c0: ed8f 7c9b c8db b33f 1da2 a1ca bdf9 a13f
000004d0: 75b0 090c d752 babf dec5 ee3d 03e5 c9bf
000004e0: 771c 3416 8ac7 c4bf 3500 28ce ebd3 cabf
000004f0: df2d 1935 61cb dabf aa38 a5be 6fbb 01c0
00000500: 5240 c66d 95d7 14c0 01a2 7bb2 5ae9 01c0
00000510: a72e b6fd 21b7 d0bf 3370 487e bc82 c7bf
00000520: 0424 1ec3 4e5f c0bf 7779 cb62 39d7 b7bf
00000530: cce7 cacd 81ff ad3f adf5 4624 6b3f 9dbf
00000540: cf4f b506 a1a4 c0bf d0f0 726f 97e0 b2bf
00000550: 27ee 7598 5cd6 9c3f 60d8 8c07 aefe 973f
00000560: 1f42 ed94 f1f7 523f 40dd 0d86 621c a63f
00000570: 6448 cb20 28b6 b63f 8438 c9e3 c0ab 6d3f
00000580: 673c 03e9 7c24 b5bf 0a45 39e8 effa b4bf
00000590: 4876 48ab 34b5 47bf 2309 05eb 6fc3 b2bf
000005a0: c1b7 bc6a 8923 ad3f 6040 1ec1 17c1 b63f
000005b0: 6424 3216 46e5 babf 26b6 8303 bdc1 b8bf
000005c0: c02e 31d2 4c12 b53f c872 273d 9f4d b13f
000005d0: 87d2 99c0 3a71 913f ea1e 60e3 f8dd b43f
000005e0: 2850 f6cc f5a9 2e3f 2566 2460 529c 8c3f
000005f0: 4b5c a63a 2f98 7d3f 2bb5 cafc 5b09 b0bf
00000600: a874 c3fa 00c0 97bf 2a12 6195 7a71 b0bf
00000610: ec44 012b da43 b0bf 8869 8aae 689a 913f
00000620: da55 edeb caea c4bf f24e 75ab 8b73 afbf
00000630: af83 b429 1154 c0bf 9d86 b6d5 47fe 953f
00000640: 0b58 300e 4b99 73bf ae56 2183 00e6 1bbf
00000650: 9046 bb13 7e19 7c3f 92bb 818e b2f6 9cbf
00000660: 528e f9fc 6f1a a2bf d3ea 6837 fd12 773f
00000670: 48bf 227f d773 92bf 923d 74b5 d9fc b9bf
00000680: cf37 af0d 9938 acbf f480 7f99 3623 bb3f
00000690: bda0 4c5d 2dea c13f 276d 3465 ee80 583f
000006a0: 9de2 aef2 3199 b43f c22c 2152 f41c 903f
000006b0: 03c6 8103 45ee b2bf 7dc5 fb82 470b a2bf
000006c0: fa50 0e9f fffa c1bf df69 692b a1f4 b23f
000006d0: 7a75 4d14 0940 c13f c4c0 c8c5 1c1f 823f
000006e0: d37e af62 f030 b9bf 1901 8524 ae21 b3bf
000006f0: 9d25 81e7 33ae 97bf feaa 70d9 55c5 903f
00000700: 3461 30d2 020a adbf 34da 83be 1255 b13f
00000710: 83cd 9d32 442a c23f 5f37 906c 578a 54bf
00000720: 9d78 6c70 2d1e cfbf a1da a409 3333 a7bf
00000730: f623 36c1 059e 9e3f 7c46 f716 da4f b1bf
00000740: db76 69b4 5f4a 98bf e368 4c3c d96a b93f
00000750: 08c5 76d2 2695 b13f 1fed 85f1 596e 493f
00000760: eacd 1db8 ff43 90bf 4e15 a7f1 d580 8bbf
00000770: cf24 e45d 0c18 cdbf bbdd 8aa0 7bc1 b6bf
00000780: f4f3 393e e6ee 913f 2e7e 203b 1ed5 7d3f
00000790: db24 e67b b051 ac3f 550d fb44 0386 b13f
000007a0: 65a4 6ad9 6720 c03f a889 5184 3655 a4bf
000007b0: 8bf8 54a1 04a4 aabf bdfa 6a4c 49c7 8dbf
000007c0: 2b07 23c2 d4ae a43f 7dab 75c9 0a44 b33f
000007d0: 023a a1ae 3845 a7bf 72c8 a5e9 90a6 8d3f
000007e0: e5cc ab8d 4987 abbf 4ebb 307a 6e57 933f
000007f0: 3d9c ed41 ba7e b7bf f500 79ee 0d9c aebf
-0.06281075151175534 -0.08384255193946732 -0.08911818904155612 -0.11107671059683075 0.027886603359784427 0.23520229378505028 -0.03502648301634465 -0.07014034529231855
0.011033124846079793 0.13609869668990954 -0.05491116959100223 -0.18745666089131807 -0.20155637814839955 -0.06542339710347875 -0.2960908330347932 -2.3132667720604077
-4.701193038697915 -1.9635584406793538 -0.20333026222652606 0.021165311258014737 -0.17081430706276482 -0.06693711280369323 0.04439178774944396 -0.061455805976584385
0.031909657558041565 -0.0664791611998543 -0.11810891312431401 -0.03368822190257809 0.03785672315447679 0.09744674340177742 0.0914017633476152 -0.04332207696625824
-0.32381559383663727 -0.15803080914129708 0.14602725130210203 -0.0186405483974212 -0.01619334886459605 -0.004700745251038477 0.03523762417612012 0.08119245751656337
-0.024675360313951598 0.0570435026192822 0.1608017518463605 0.014212609150724595 -0.048583771008496826 -0.007451081813147057 -0.04217358158208577 -0.028203627230708017
0.351025237109914 0.06799770103752252 -0.15147615465408637 -0.058203543451877976 -0.03768886139315099 -0.05593122245309535 -0.13983797657910446 0.00968194440759559
-0.08372354089874717 -0.017993551749450484 0.11929413734038799 -0.03564046430209497 0.10562846343429484 0.07340781566900302 -0.08247435267292856 0.05830742471598129
0.028811044168027492 0.012288845135509884 -0.06824971210727827 -0.10004042702350756 -0.08233697535110095 0.24212249809488476 0.14387730914474384 0.0035132870006204346
0.022531961710735578 0.018108612772570212 0.033659972299058705 -0.030059566299066004 -0.11330275599210052 -0.08441941946763969 0.07605953262483388 0.0020726075597968805
0.0894732651078192 0.06709407345688222 -0.09797829715565573 -0.03624683777376235 0.15789518893684917 0.010952968888479204 -0.13097949869325606 -0.05428839796054618
0.03905695779272285 0.08292023948021557 0.00730655161271451 0.043861893678673144 0.07419146651250927 -0.0650156702842976 -0.1711225085131397 -0.027812260467888483
-0.005318562943422218 -0.09310265185631654 -0.10928118131712021 -0.035586674826538704 -0.05796489943180749 -0.022592796959131658 -0.023231098740793578 -0.037075505447296195
0.04662101957507614 -0.029960564242706548 -0.03330665015886598 -0.14110396712570705 -0.1135203070137167 0.008593507607493639 -0.02250089237541885 -0.02069137374406826
0.10557399981847455 0.019447476551695292 -0.10418298027576238 -0.06406387603659222 0.04881208512814079 0.06517895482095645 0.08492190191657016 -0.0021878395571477403
-0.0386460033135103 0.03340863045832514 0.10915273991008279 0.06346683365217622 -0.06989349224015505 -0.12136339134864382 0.09115958100650376 0.033925740296143106
-0.07157585434976488 0.004487286780979999 0.10580727931510261 0.018542255965993952 -0.07623800397520526 -0.001792426447633209 0.0613588434774631 0.057601255183326
-0.0013905342598317493 0.045503027003688176 -0.04789372887042231 -0.07012362234501263 -0.06016339169138084 0.034178034971865744 -0.05424915926938183 0.028770328010392043
0.04953227681828852 0.005468692441767081 -0.08749634780994908 0.0271178409494353 -0.068643688053788 0.0893433752464106 0.08706788286993092 -0.05874760065497907
0.07757238193568101 0.03510850046660983 -0.10282653850453179 -0.2023014118581576 -0.16233945926817103 -0.20959231916640567 -0.41866331277262064 -2.2165217298671296
-5.21053096315889 -2.2389425224284882 -0.26117753769424684 -0.1836772553077722 -0.12790855910523657 -0.09312781011565173 0.058589989062468456 -0.02856223496359227
-0.13002407863188956 -0.07373949500010046 0.028161474996052285 0.0234324638469946 0.0011577471920710747 0.04318530928042685 0.08871699143063122 0.0036219375017828032
-0.0825880116346852 -0.08195399684452212 -0.0007235057042326931 -0.07329463470253876 0.05691174915260389 0.0888838621597201 -0.10506094018832496 -0.09670621238520791
0.08231048709529443 0.06759066813487913 0.017033498769210922 0.08151202727469423 0.00023394704338086767 0.013970035132433509 0.007225212563205362 -0.06264281198192083
-0.023193373971356707 -0.06423154971077652 -0.06353534269262057 0.017190585759274707 -0.16341530341985228 -0.06142841785427135 -0.1275655225408889 0.021477816027646857
-0.004784863648657388 -0.00010642412306202206 0.006860249031619539 -0.028284826229021905 -0.03535795176574354 0.005633343817460018 -0.018020026335477085 -0.10151444129973289
-0.055119307442154424 0.10600606200705781 0.1399590211451648 0.0014955833510786416 0.08046257185822943 0.015735452187340078 -0.07394820533388473 -0.03524230455321751
-0.14047236696627136 0.07404525098664959 0.1347667073377286 0.008848404680151474 -0.09840299996676131 -0.07473266975012328 -0.02312546825877392 0.016377774616709743
-0.0567170030191754 0.06770436431165977 0.1419148680830454 -0.0012536863089311551 -0.24310844411315183 -0.04531249516224035 0.029899682920163394 -0.0676246934956683
-0.02372121370932843 0.09928662988787411 0.0686821235492695 0.0007760943581582059 -0.01588439522988764 -0.013429328381685448 -0.22729639610796545 -0.08888981503957087
0.017512891338345285 0.0072833233735134905 0.05531074058951343 0.06845112260912363 0.12598894229930405 -0.03971262326446673 -0.05203260869392164 -0.014540264744366533
0.040396355341285016 0.07525699060867726 -0.045449992482293325 0.014477855806692672 -0.05376653532393919 0.018888212402255626 -0.09177745923590037 -0.059784350738938764

visible_bias f8 [100]
00000000: 5b6e 1283 c0ca e5bf 4906 8195 438b f1bf
00000010: bf86 a757 ca32 ccbf 5322 0681 9543 ef3f
00000020: 347d 3f35 5eba f13f 7d49 7b83 2f4c f43f
00000030: e84e d191 5cfe d73f 387f fb3a 70ce ecbf
00000040: 09aa cfd5 56ec d3bf ceac 1c5a 643b df3f
00000050: 77a8 f1d2 4d62 f83f 4c3e e8d9 acfa f33f
00000060: 14c5 6d34 80b7 f33f a826 3108 ac1c e03f
00000070: 0158 ca32 c4b1 debf 8cb5 847c d0b3 d53f
00000080: 6d4b 158c 4aea f53f cb6d a301 bc05 f73f
00000090: 8b36 5eba 490c e23f 307f 7346 94f6 c6bf
000000a0: c9c4 d32b 6519 e23f 5014 ae47 e17a f33f
000000b0: 6a7f b740 82e2 f33f f40e 0bb5 a679 f63f
000000c0: b73b 014d 840d db3f 115b 643b df4f d13f
000000d0: a682 7346 94f6 ea3f fbdf e236 1ac0 9b3f
000000e0: 3983 2f4c a60a eabf 88ae fa5c 6dc5 d23f
000000f0: c3c1 1726 5305 e33f 51e6 8c28 ed0d e0bf
00000100: 94b7 d100 de02 b93f cbd7 5f76 4f1e f53f
00000110: f626 ed0d be30 f83f dab7 8d06 f016 f33f
00000120: 838d 7571 1b0d f83f 558b 1f63 ee5a e83f
00000130: 7919 4850 fc18 c33f 041e a7e8 482e e33f
00000140: 8c64 f7e4 61a1 fd3f 8f8a db68 006f fc3f
00000150: 5f22 4a7b 832f 0040 482b d49a e61d fc3f
00000160: 8b1b 5a64 3bdf fb3f f9fa 5c6d c5fe ea3f
00000170: 7a32 dd24 0681 cd3f 41c0 5b20 41f1 f03f
00000180: 2117 0456 0e2d fc3f 6b4b 840d 4faf fc3f
00000190: 79be ec9e 3c2c fd3f 7173 2497 ff90 fc3f
000001a0: a31e f46c 567d f53f d10c b5a6 79c7 d93f
000001b0: 5aca 10c7 bab8 e9bf e903 560e 2db2 ebbf
000001c0: 6c05 1214 3fc6 d8bf 6ea6 0a46 2575 da3f
000001d0: 8496 6e12 83c0 ee3f 061a 9e5e 29cb ee3f
000001e0: 6d4f fc18 73d7 f63f fc76 58a8 35cd ed3f
000001f0: 9838 b4c8 76be e73f 2512 363c bd52 ce3f
00000200: 4d81 9543 8b6c e5bf b4a5 2c43 1ceb c23f
00000210: f495 f606 5f98 ea3f 01a3 b437 f8c2 e03f
00000220: 7436 1ac0 5b20 eb3f 2553 c1a8 a44e e43f
00000230: d935 cd3b 4ed1 c1bf 48b6 f3fd d478 edbf
00000240: 8b4a 72f9 0fe9 a73f 1f12 f241 cf66 e93f
00000250: 117d aeb6 627f e1bf 197f 48bf 7d1d eebf
00000260: 0499 e61d a7e8 e8bf b62c 90a0 f831 e4bf
00000270: 7792 ed7c 3f35 cebf ca64 19e2 5817 f13f
00000280: e2f1 8e53 7424 fb3f a5af 506b 9a77 f83f
00000290: ca9a bb96 900f de3f 348e 06f0 1648 e83f
000002a0: 8f9d 3c2c d49a fb3f b048 9d80 2642 0040
000002b0: dc92 1804 568e 0040 5a49 ea04 3411 ff3f
000002c0: 431c a7e8 482e ff3f 7854 0e2d b29d f93f
000002d0: 8f71 6891 ed7c f73f ff7e 48bf 7d1d e03f
000002e0: 7c08 6822 6c78 d6bf 3c8a 1f63 ee5a e43f
000002f0: d39e 1a2f dd24 f53f fb58 17b7 d100 ea3f
00000300: 4b8f db68 006f c93f ba80 9543 8b6c e93f
00000310: 5591 3a01 4d84 fa3f 747d aeb6 627f f13f
-0.6809999999999933 -1.096500000000008 -0.2202999999999999 0.9769999999999278 1.1080000000000156 1.268599999999963 0.37490000000000956 -0.9002000000000185
-0.3112999999999891 0.488000000000011 1.5239999999999136 1.2487000000000021 1.2322999999999569 0.5034999999999927 -0.47960000000000497 0.3390999999999955
1.3696999999999335 1.4388999999999779 0.5640000000000368 -0.17939999999998113 0.56560000000004 1.2174999999999905 1.242799999999955 1.4046999999999885
0.42270000000001623 0.27050000000001356 0.8426000000000229 0.027099999999990115 -0.8137999999999926 0.2933000000000239 0.5944000000000006 -0.5016999999999802
0.09770000000000173 1.3198999999999497 1.5118999999999096 1.19309999999995 1.5031999999999648 0.7611000000000369 0.149200000000018 0.5994000000000033
1.851899999999918 1.7770999999999366 2.023199999999903 1.7572999999999457 1.7419999999999358 0.8436000000000085 0.23050000000002396 1.0589000000000086
1.7609999999999177 1.7927999999999098 1.8232999999999306 1.7853999999999497 1.343099999999972 0.40280000000002497 -0.803799999999977 -0.8654999999999947
-0.38709999999999556 0.4134000000000019 0.9609999999999705 0.9622999999999713 1.4275999999999514 0.9312999999999358 0.7419999999999787 0.2369000000000067
-0.6695000000000079 0.1478000000000016 0.8311000000000477 0.5238000000000228 0.8476999999999877 0.6345999999999533 -0.13920000000000135 -0.9210000000000003
0.04670000000000581 0.7937999999999795 -0.5467999999999923 -0.9410999999999802 -0.7783999999999485 -0.6310999999999669 -0.2360000000000075 1.0681999999999783
1.6963999999999193 1.529199999999926 0.46970000000002854 0.7588000000000137 1.7252999999999223 2.0322999999999283 2.069499999999932 1.941699999999932
1.9487999999999068 1.600999999999912 1.4679999999999358 0.5035999999999773 -0.35109999999998087 0.6361000000000057 1.3214999999999477 0.8126000000000028
0.19870000000002572 0.7944999999999915 1.6572999999999258 1.0936000000000066

hidden_bias f8 [57]
00000000: 6500 cdb2 a72d 1540 241b 9ab5 8456 1840
00000010: 21e7 d0ce 4373 1540 78ae 6e09 2d69 18c0
00000020: 542f c086 35d9 1840 6462 af5e f50e 1940
00000030: a683 0258 b7e4 1940 20e0 c7ff 62be 14c0
00000040: 6d7d 8a4a 996a 17c0 735a 1b60 3d36 13c0
00000050: ed2f 6478 e358 1740 ffcc 78ff 1547 17c0
00000060: 51a6 1ac7 0706 1340 c000 a20b 77bc 17c0
00000070: 3c9b a2a3 87cc 1640 ba38 0780 fdca 12c0
00000080: 8fc9 ca90 cd7c f53f 9610 d9b7 789e 1940
00000090: f39f 1171 46d7 19c0 e0b5 d658 6c11 14c0
000000a0: e598 4508 6779 1140 91ac afc1 8be4 18c0
000000b0: 2aa7 b3f9 002a 1240 2b21 9b8b 9ede 17c0
000000c0: 76c9 622d a05b 1240 dff3 da6b ae02 17c0
000000d0: 3d8d 15ef 5e88 15c0 3119 d052 e4fe 1540
000000e0: 80e5 8fa2 e048 1740 75f7 1874 ef0b 18c0
000000f0: 97fd e068 ed3f 0e40 8c3d 0ec4 3c6b 1a40
00000100: 5f0d e44f 23e2 17c0 5dc2 2381 2d06 1640
00000110: 5ef1 504f b61d 1440 ab62 5646 4d11 1640
00000120: 8358 ec69 c837 1540 60a1 28d8 a12c 1840
00000130: 1626 7a09 9d5a 1740 1355 8007 4d3d 19c0
00000140: dc7f 5cd5 cc85 0140 568c 233d 3792 1840
00000150: bb39 f434 8f4e 1ac0 6cbe b0b8 60f5 ff3f
00000160: 4df6 1769 f20a 1540 144e 8def 4f5c 17c0
00000170: 2676 26ee b6cf 1640 9c09 360a 1d48 1540
00000180: 3c6f 99c0 47a9 17c0 70ff f399 886a 1440
00000190: 6a4b 1b7f cb64 fa3f ff71 51b0 469f 1640
000001a0: f213 0f76 2c89 1840 0228 a7cc 8206 16c0
000001b0: cfd9 b449 f70c 15c0 b52e 5d75 153b 1840
000001c0: ffff e488 e970 1640
5.294585031282712 6.084490621119389 5.362563354015749 -6.102710864429916 6.21211824939731 6.2646078867479424 6.473355651048143 -5.18592452676242
-5.854100384428745 -4.80296850363685 5.836805230250303 -5.819419852970213 4.755889044763152 -5.934047872317194 5.699736172485071 -4.698232651177188
1.3429694801276104 6.404757378219207 -6.460229651165707 -5.017014873604666 4.368557099578742 -6.22318937906961 4.541019345846317 -5.967401677459104
4.589478215364911 -5.752618489493186 -5.383174644174969 5.498917859984702 5.821169414551491 -6.011655630134432 3.7812145417844465 6.604723990792433
-5.970837829870418 5.506032960708208 5.0290157693055715 5.51689634229903 5.304475455332184 6.043586137275582 5.838489673691148 -6.309864155967506
2.1903320950368492 6.142788844389619 -6.576718165785162 1.9974066938847512 5.260690347754985 -5.840148680686543 5.702846261117463 5.320423278377714
-5.9153127759598725 5.104036717908329 1.6496081318952869 5.655543093653704 6.133958668394358 -5.506358335211191 -5.262662078536279 6.05769904500237
5.6102658643503664
