Data/TFIM1D/Energy/Q30/Trial1.pt (torch_old, 4568 bytes, 3 tensors)

weights f8 [15, 30]
00000000: 0e57 9131 37fe 03c0 f3ac 1eba 6c29 15c0
00000010: b0fc 8063 0e92 03c0 9b91 e18e e2f4 edbf
00000020: dec6 fbcd ec17 85bf 57f0 b4a6 78df a83f
00000030: fa9e f03d 196d c9bf da0e c53b 4555 c0bf
00000040: 997a e64b 58bd 8d3f 904d 3551 4970 82bf
00000050: 9390 38a5 aa72 a23f 8c19 108f ca82 86bf
00000060: 0e09 cb5d 6a3c ac3f 0370 bf55 946e 403f
00000070: 3862 6095 6f08 68bf 09ee d3d3 f8d0 a0bf
00000080: fcf1 ebce 67f5 b63f ed30 728a 8c16 9e3f
00000090: 6cf2 4ef4 93c2 173f ef58 20b5 3808 76bf
000000a0: d82e 58f0 5fde 72bf 2668 2419 7123 a8bf
000000b0: 6455 8d4f 715d bfbf 3fa4 56c5 135f a5bf
000000c0: 17bb b1c1 a13b a33f fd73 19c1 0c67 96bf
000000d0: 04fc 5c4b e196 b1bf c8d5 19b1 6b9a 933f
000000e0: c461 c752 0a57 a3bf b42c 5728 e6b1 763f
000000f0: 89f0 dc71 65d1 893f ddcc c0dc 7d82 b43f
00000100: 748f 5703 4582 a23f 6456 23d2 9d1c aa3f
00000110: bfae 349b 4980 9d3f db23 130e 2fd4 b53f
00000120: d65e d783 03ab bc3f d647 ff0f 4c46 ad3f
00000130: d4c6 decc 62e2 963f 8c9e 9562 cb33 c13f
00000140: f4c3 d77e 40bd 86bf ddc6 fd6d 0a63 c63f
00000150: 3cfa 1944 cd95 d83f 5811 95d7 70c6 0240
00000160: 1805 d732 9c56 1440 9f88 83f7 b269 0240
00000170: d456 a09c 5ec7 de3f e625 995a bcd1 cb3f
00000180: f026 69f6 a3a9 c03f 4f0d fa5a 3863 b33f
00000190: 3cf3 63f4 a441 a83f a2c4 67d3 80cf 803f
000001a0: 7136 6a0d 3f6a afbf 2590 c12c 5c15 90bf
000001b0: e95c 0195 92d6 bb3f d753 2af2 1260 c33f
000001c0: 4093 3b8e 4545 b23f 4edd c538 6018 9bbf
000001d0: 17fc 4385 6528 73bf 5177 5af0 ea81 72bf
000001e0: 8371 9766 f0bd 793f 7d30 e1ab 06d0 93bf
000001f0: d0d5 cc14 c4fe 983f 5991 0296 11d6 9ebf
00000200: 0eb8 05dc 6e0a a23f 2aeb f15a 8af1 ae3f
00000210: 4d80 16d4 5f47 ab3f 0b2d 2f3a b1b9 65bf
00000220: be8e 1143 a2c4 b3bf 7eba c3bc d25d b1bf
00000230: b5f9 0310 94bf a6bf 5b2d 37fc f3f7 883f
00000240: 7132 cbbf ae56 b03f 0032 9b96 aba0 983f
00000250: f58d 1470 4cfc 953f c722 c0b6 853c 883f
00000260: 7211 10be 0dcf a03f a844 760c 2744 a93f
00000270: b117 a2f2 30e8 a03f 09ed f844 bf93 863f
00000280: 7f66 8919 06ba b03f 26e1 222a f826 833f
00000290: 595f 89b3 5f4a c4bf 0c7a 6a3c ad07 9d3f
000002a0: 1b8c 1496 5bb8 ac3f 9f29 2ddd 9e95 ba3f
000002b0: 1ecc 1b72 ae8f d03f 66f6 aa14 c4be 0140
000002c0: 8e30 8299 9d89 1540 ca43 3da0 9959 0340
000002d0: 593d 03eb b635 493f f722 1532 6643 ba3f
000002e0: 3fd9 7ae2 14ac 843f 1f15 db77 25dd 903f
000002f0: a45a 526e e8a4 ba3f 5381 91fb 335b ad3f
00000300: d7cc a80d aff5 75bf 7f05 3f03 660d b0bf
00000310: 64c8 fe6e 864c 8a3f 5924 da20 96dc b1bf
00000320: c592 22ff 6f7a bbbf 6b32 4ee3 ab4c 76bf
00000330: 05e4 cf57 bfb9 6e3f ca91 bf1e f57a 84bf
00000340: b537 8782 593e 9dbf d86b 74c2 57bc 9dbf
00000350: 2733 9eba 1f53 a4bf 34ad d265 d3a5 83bf
00000360: b4ad 5a9f 41c0 93bf 47fd 4047 8e33 b4bf
00000370: 08f5 b355 02e4 c5bf bb2f cbbe 90f2 babf
00000380: 33bb bb10 0e6e bf3f e17a a782 dabf bdbf
00000390: 4157 720f a53e e1bf 5f4f 547c 20b7 02c0
000003a0: 1ee0 c457 80df 14c0 81d6 4858 b177 03c0
000003b0: bf52 4e27 fc57 dfbf 08cd 3498 1ea5 cabf
000003c0: c1cf 63d8 3d77 b73f a78c 58b0 adcb d73f
000003d0: 98a0 137a 54dd dabf 1075 fe3d 32ff e0bf
000003e0: 881c 399c 1959 de3f 09b3 3b8a 7692 e03f
000003f0: e28e f919 a2f7 c73f 0eaf 4c1d c092 b7bf
00000400: dc69 a60e 463e dbbf d272 00f5 49da ba3f
00000410: 3ebf 5a98 f1b8 d03f 0631 3094 f533 a03f
00000420: b60b 9cdf d3cc c73f a748 519f 5717 bb3f
00000430: bfd2 2801 56fc d0bf aa0c afb2 fdc8 a33f
00000440: 8cf9 b6bc 83bc d23f 9c79 3b39 ca86 c13f
00000450: 9598 daa1 3ffc da3f 6fbc 2a6a e6ef d43f
00000460: f621 2345 516e c63f a20d 37ec 9e76 f03f
00000470: 8a0d 56ba f664 0540 5e66 a54f eaea f43f
00000480: f01e 3496 6638 f73f daea 0db6 657a f13f
00000490: 9e48 f1dd 5473 e23f fee8 319d 72ee c13f
000004a0: f190 e37e fa46 afbf 5491 14b4 c2da d23f
000004b0: 8b5e 920d d35c a0bf 1614 5017 3919 b4bf
000004c0: 06ec b56a f990 bdbf 29d2 9592 6603 c4bf
000004d0: 8dde 721c 789a bfbf 6e69 f963 db19 c4bf
000004e0: beeb f052 6c7c cbbf 80d0 0236 2218 c9bf
000004f0: d25a f591 dac5 d6bf aa0d 7483 0152 02c0
00000500: 37c4 85f1 b005 15c0 0d35 6ce7 b1e4 02c0
00000510: 0bc7 7eb4 2b03 c5bf cd2c 6efa 2e6f cabf
00000520: 7311 09a3 8965 c1bf 12e9 7a90 a75d c7bf
00000530: 092d 571d 34f1 953f c7a1 1d4e 370d b9bf
00000540: b92d a58a 968e a1bf ddc0 c1b5 7a58 a7bf
00000550: 060d 17c4 8daa b8bf 2ae0 6f74 0abf 8dbf
00000560: 1065 0ea0 9629 a5bf 37de f4de 165e 9cbf
00000570: d1c8 4e99 93f3 9abf 2ca2 3215 8615 913f
00000580: 0787 e36d d015 c23f 0019 35f0 b5ba 563f
00000590: ddb1 ea21 c085 abbf c946 e6d8 68b4 8e3f
000005a0: d4c2 4984 c386 6abf b916 f80c b7c6 303f
000005b0: fb93 258e 3901 b5bf d468 b461 5bec a4bf
000005c0: 48ce 52c7 f29c 9f3f 55f0 879b f926 a63f
000005d0: 167d e3d6 6787 96bf 8571 bb7c fbf0 9fbf
000005e0: 80d0 e0d3 bc53 c0bf 3318 85d8 0e3a acbf
000005f0: 6c28 373e 3796 a6bf f1ca 69ed a2ef c2bf
00000600: 658d 4fd4 67aa c4bf 3a5b 5f16 4c00 c2bf
00000610: cb75 7ae8 9827 d5bf 133b a41b 5435 02c0
00000620: 5992 002c 6ee4 14c0 37f2 c6ea 4241 02c0
00000630: d8b9 929b 4070 d2bf e5de 41d7 7cb4 c8bf
00000640: 946a 28e3 8a24 c2bf bb5b 5349 07f4 c3bf
00000650: e636 3164 0455 a4bf f9df cc6b 1fb6 b1bf
00000660: e24b 9267 bbec babf adee 7df9 5aff 9d3f
00000670: 0469 b1e9 5260 8b3f 9c64 9b14 158b 97bf
00000680: 027d 17d8 5a7b b33f e3b0 997e 855a 90bf
00000690: e0f2 546f e64f 933f ba42 15b8 e361 a23f
000006a0: 8be0 bb16 7823 823f 8dd2 93dc 943f aabf
000006b0: 7298 81d6 3c0d adbf b72a f13b 93a5 9cbf
000006c0: a432 fd06 0670 afbf 0180 8e7e 2614 aebf
000006d0: a5d7 8009 0ce8 bc3f cfbd b3ec 0b5e 953f
000006e0: cbeb 6bc3 9dd3 6cbf 2cb5 eccb 06ba 953f
000006f0: a769 690a 790b bf3f 4a90 a094 bddc a83f
00000700: d435 8bc3 c014 943f a66b 51b3 c588 c03f
00000710: c4b9 e825 66e4 673f a6ed 35d0 00d2 c23f
00000720: 2e43 9d51 c889 d33f 39ea e26a 5126 0240
00000730: 7438 4d2d 3710 1340 cc5b b6fc 5a37 0140
00000740: 2c34 0219 2614 ccbf f930 9bac edb6 aabf
00000750: 4cc9 a8b7 bccc d53f 12c7 3330 fac4 c43f
00000760: 9290 c157 0afb b0bf c6a6 04b9 c3c1 92bf
00000770: 5f88 5677 9735 893f c09a e0dc 8354 65bf
00000780: 1516 08c3 dd19 83bf 30f3 f478 87e7 9cbf
00000790: c598 ff8a 7312 aebf 6e01 67f6 6c39 abbf
000007a0: 99b4 574d 4ec5 bbbf 9693 9fe8 7828 b1bf
000007b0: 954b b48b 0ea4 b1bf 4c84 2632 0c22 c7bf
000007c0: f514 3a26 b8ff c2bf ead9 a3b7 3b60 cbbf
000007d0: 53ee 2920 b170 debf 07c3 c18d 3888 02c0
000007e0: 635c f8d0 a964 15c0 fa63 ea05 931c 02c0
000007f0: 9cf7 9bcc 3f80 d7bf 0408 a966 794a c3bf
-2.4991287109832063 -5.2904538232062235 -2.446316506742356 -0.9361431875845939 -0.010299539600484516 0.04857995066638015 -0.19864192509088935 -0.1276022474140664
0.014521303001683793 -0.00900323180272869 0.03603108660561918 -0.010991652003224293 0.05514843363700282 0.0005014633456954524 -0.0029337100377342627 -0.03284432969845958
0.08968209077642791 0.02938289256103215 9.063747445643152e-05 -0.005378934396523357 -0.0046066043482928185 -0.047145399397962515 -0.12251957122983509 -0.04174100669781255
0.0375643300002279 -0.021877478872159618 -0.06870849695131659 0.01914375561178419 -0.037773439984167406 0.005540751507804465 0.012606422936748867 0.08011614455681433
0.03615012803837106 0.05099957647477707 0.02880969056893323 0.08526891797659124 0.11198446244031443 0.05717694945600697 0.022347968820844624 0.13439314187711593
-0.011103156920372094 0.17489748354596815 0.3841431775144064 2.346894916760146 5.0845802253473025 2.301610883428182 0.4809185533098177 0.21733812736265107
0.130177016561269 0.07573272915947381 0.04737582667619342 0.008208280994013887 -0.061357469928322035 -0.015706482154556185 0.10874286783051769 0.15136944603423672
0.07136950228193673 -0.026460174050467793 -0.004677197041245604 -0.004518430452348302 0.006284655633376326 -0.019348243942929323 0.024409354943790096 -0.030113482266317024
0.03523584781474663 0.06043655738991156 0.05327891792262616 -0.0026520215483053547 -0.07721914422432527 -0.06783787830839036 -0.04443037696363509 0.012191682943827933
0.06382267172302548 0.024050408427500614 0.02147025522311981 0.011834187163928601 0.032829694224377884 0.04934808756946413 0.03302147828894365 0.011023992817277522
0.06533849833922466 0.00935167196836113 -0.1585197092670068 0.028349596798415574 0.05609403807672938 0.10384552860083439 0.2587696184484133 2.2181474318193066
5.384390257426402 2.418750049466756 0.0007693427233110103 0.10259093020171038 0.010093844567887643 0.01646860641519254 0.10407879537010928 0.05733644910719939
-0.005361255457091838 -0.06270444468738921 0.012841272604280536 -0.06977213193944588 -0.10733699778445345 -0.0054442133304176505 0.0037506806534080028 -0.010000147820343214
-0.028558157531555845 -0.029038783305718713 -0.039696685343278575 -0.009593631310358043 -0.019288087226113595 -0.07891167869182879 -0.17102078613962868 -0.10526375444459195
0.12277305515793273 -0.11620870294380438 -0.5388970662777198 -2.3394174302319892 -5.218263026610684 -2.4334437272289624 -0.48974517668220224 -0.20816404754587148
0.0916632321639659 0.3718065473678486 -0.4197589103846524 -0.5311518870181846 0.4741882348648194 0.5178787898890685 0.18724466579725801 -0.09208298411675406
-0.425675882631962 0.10489332419860922 0.2612880695187306 0.03164641794146132 0.18593834322390784 0.10582492484653248 -0.26540136445263934 0.038642814695344654
0.29275601796316475 0.1369259623961171 0.4216460304836656 0.3271423374926092 0.17524162174073837 1.028960154261633 2.6742987210761315 1.3073523627448576
1.4512697093322764 1.092382155561316 0.5765785536589367 0.1400893466523669 -0.06108839796960009 0.29460208497973395 -0.03195819416685904 -0.07850987261925044
-0.11549338202705436 -0.15635378034097983 -0.12345076269672912 -0.15703909284168155 -0.21473459291322955 -0.1960490001416737 -0.3558260369658629 -2.2900419492522888
-5.255557798184831 -2.3616674499413706 -0.16415926278346435 -0.20651805141492333 -0.13591118298257818 -0.18254560999577812 0.02142793110924138 -0.09785791070101545
-0.0342909855122246 -0.04559691876136338 -0.09635244405130913 -0.014524537733436278 -0.04133291915713688 -0.02770267234629228 -0.026319795829927998 0.0166836691320517
0.1412907158438019 0.0013872887364683728 -0.05375481046698714 0.014992541426895116 -0.003238088482526139 0.00025598496446864076 -0.08204993934994313 -0.04086576049503923
0.03087214795659879 0.04326610587665473 -0.0220009064586267 -0.031192712295579312 -0.12755546899427728 -0.055130447321559826 -0.044114805550251684 -0.1479381236309432
-0.16145036570297147 -0.14063407032400638 -0.3305418272301181 -2.2760393294805765 -5.223076522383587 -2.2818659154857204 -0.28810134117784747 -0.19300804625139914
-0.14174018947308709 -0.15588465767242873 -0.03971112940835812 -0.06918522245257454 -0.10517474440193511 0.029294415929583085 0.01336731696772065 -0.022991494543792443
0.07610099578549881 -0.015970311977455586 0.018859482331424426 0.0359030878268007 0.008856714433463494 -0.051266338277774805 -0.05674162024006159 -0.02797536900861061
-0.06140154681506729 -0.05874748511200779 0.11291575653089454 0.02086657173361833 -0.0035188752475483246 0.02121744746834968 0.12126881126588406 0.04855911673828979
0.019610416350408347 0.12917395835651496 0.0029165263252004265 0.1470337883618928 0.3052845761313162 2.268709979104895 4.765835483396689 2.152029012980597
-0.2193648931610438 -0.05217688304910157 0.3406211656139433 0.16226127008081243 -0.06633057253344735 -0.018317278068173314 0.012309249238402651 -0.0026037764973979305
-0.009326679720298473 -0.028226963765735025 -0.058734522550183445 -0.05317249782410981 -0.10847939861533219 -0.06702380828171636 -0.06890955839871389 -0.1807265515208506
-0.14842893473193156 -0.21387430636214272 -0.4756281675433673 -2.316514117694513 -5.348304047735925 -2.2639522993235888 -0.3672027109276941 -0.1507102729102031

visible_bias f8 [30]
00000000: ad61 3255 302a f13f 1864 8863 5d5c 0140
00000010: 6a9a 559f abad dc3f 72b3 59f5 b9da eebf
00000020: d504 3411 363c f0bf c70f 9c33 a2b4 b73f
00000030: 0e13 3fc6 dcb5 fd3f 269c 8026 c286 e33f
00000040: 0ebe ec9e 3c2c fbbf bbed e995 b20c a13f
00000050: 3a84 0d4f af94 0440 7b6a bc74 9398 0240
00000060: b61a 9e5e 29cb 0140 aa49 ea04 3411 b63f
00000070: 2404 1214 3fc6 fcbf dd58 a835 cd3b ce3f
00000080: 1644 696f f085 0240 8bd5 34ef 3845 0140
00000090: 45eb 51b8 1e85 0140 3319 dbf9 7e6a bc3f
000000a0: 868f 0f7a 36ab f9bf 36ac add8 5f76 d3bf
000000b0: de15 d9ce f753 f83f 6571 d712 f241 fa3f
000000c0: efaa add8 5f76 f43f 9f5b 2041 f163 f13f
000000d0: 6a6b 09f9 a067 0040 dfdf 0b93 a982 d53f
000000e0: 10bd c117 2653 02c0 2fef 3845 4772 f4bf
1.0728000000000109 2.170099999999831 0.4480999999999883 -0.9641999999999895 -1.0146999999999953 0.09260000000000367 1.8568999999999423 0.6101999999999677
-1.6982999999999069 0.03330000000002139 2.5725999999999916 2.3244999999999982 2.2241999999999633 0.08619999999999686 -1.7983999999999094 0.23620000000000277
2.315399999999964 2.1587999999998764 2.1899999999999715 0.11099999999996583 -1.6042999999999394 -0.30410000000000836 1.5204999999999624 1.6410999999999032
1.2788999999999608 1.0868999999999926 2.0505999999999647 0.3360999999999858 -2.290599999999934 -1.2778999999999987

hidden_bias f8 [15]
00000000: 90ef 07c0 f84a 1740 89c1 01b0 ff93 18c0
00000010: 0892 269d 358d 15c0 2613 ae44 a94b 1740
00000020: 2f0a a21a a76f 15c0 ddaa 87a7 4d71 1840
00000030: 0cda 46e1 b202 1840 fd1b 00d7 ed44 14c0
00000040: c55d 9adc f15d 1840 90b1 3cb8 5d9d 1040
00000050: b3f2 6284 ba78 1740 8bac 4669 9a56 1840
00000060: 1e4a 5905 fb4a 17c0 1d3b da6e efc5 18c0
00000070: 8dd3 6bef 41c3 1140
5.823214531406748 -6.144530058009317 -5.38789983318248 5.823887894749339 -5.359035888805507 6.1106477905802565 6.002635497998664 -5.067313537007974
6.091742941781779 4.1536778246921955 5.867899006404218 6.0845734071146 -5.823223193716812 -6.193296176976927 4.440681210476112
