Data/TFIM1D/Energy/Q30/Trial20.pt (torch_old, 4816 bytes, 3 tensors)

weights f8 [16, 30]
000000 ec 14 00 eb 93 20 ac bf c2 6f 51 bf 9e 85 84 3f
       -0.054936048924028785 0.010020485127988258
000010 57 7c d1 85 d0 92 9c bf 7f 41 56 5a 40 32 93 3f
       -0.027903803031560006 0.018746381295899447
000020 ec 32 b0 f1 8d c2 b4 bf 65 59 3d fd d0 4f ae bf
       -0.08109366560547543 -0.0592027005320002
000030 ab 1f 30 38 58 61 a3 bf 06 cb 45 fc 80 42 c8 bf
       -0.037852055415043516 -0.18952953641890974
000040 f0 60 7e ee 25 07 a5 3f d5 b2 4a 06 c5 a1 bb 3f
       0.04107016121196405 0.10793715861900506
000050 7b 1e 19 45 b3 ea 9a 3f c8 c2 46 f6 a9 2c b7 bf
       0.026285935490049966 -0.09052526724441201
000060 02 eb a8 13 d0 26 b8 3f 31 c1 96 d0 6c 06 90 3f
       0.09434223632790054 0.015649509650473795
000070 ce c5 e7 2b e4 61 d2 bf 6f e5 90 9b f1 eb c2 bf
       -0.28722481048233994 -0.14782543273922097
000080 8c bc 9e 46 d3 1f b4 3f 4d 61 07 d3 e7 99 b0 bf
       0.07861061548350018 -0.06484841253348357
000090 80 79 c0 33 93 04 c7 3f 16 31 44 93 55 2f c3 bf
       0.1798271181768989 -0.1498820275377361
0000a0 5c 94 2f 9d 8e 74 d5 bf 09 c3 b5 41 5f f1 02 c0
       -0.33523907995396995 -2.3678574689478222
0000b0 81 4b 4d df 68 79 15 c0 56 80 da 3b b3 be 02 c0
       -5.368564118473729 -2.343115298848754
0000c0 ce 9c 81 4c 85 91 d2 bf 9c 4d c1 07 0c 7d d0 bf
       -0.2901318785793138 -0.25763226277669005
0000d0 41 34 86 04 5c 2e cc bf 61 3e e0 2a ca 1b b0 3f
       -0.2201647779551497 0.06292403742576759
0000e0 5c 8c 56 18 fe 32 b5 bf 6e a1 40 99 a9 98 83 bf
       -0.0828093346995486 -0.009568524350542087
0000f0 cd ae 58 67 01 97 b9 3f 34 28 1e 60 92 ac b7 3f
       0.09996041081529512 0.09247698637605667
000100 88 fe 1a c2 3b 9b c3 3f 0d 43 10 a6 a8 5c c1 3f
       0.1531748483448505 0.13564022167749848
000110 5b a4 4e 3b ab 71 bc 3f ed 76 67 57 d8 f4 a3 bf
       0.11110944936685156 -0.03897739474244397
000120 44 9f b1 52 ec 1e c5 3f 96 9f ee 1c 64 3b ca 3f
       0.16500619924340232 0.20493747151089953
000130 51 6c 46 00 bd bc 01 40 a4 39 38 2c b6 a2 14 40
       2.217157365941184 5.158898058826171
000140 0b 49 f2 20 3e 2e 02 40 74 9f b2 58 ef 38 d2 3f
       2.2725794385852445 0.28472503339661803
000150 3b b4 86 7e 01 dd 7d bf fc 65 78 83 d5 5c c0 3f
       -0.007290845715414436 0.12783306998680632
000160 90 04 aa 72 7e b8 b0 bf fb 56 9b 0f 6c 7c bb 3f
       -0.06531515407006538 0.10736728077912609
000170 ab 2f 67 b3 2a 4e c3 bf b0 e3 31 cb 03 48 aa 3f
       -0.15082296142497617 0.05133067946821457
000180 0d 53 ab a6 9d 39 a1 bf 24 01 cd 78 88 d1 b2 bf
       -0.033642698855748866 -0.07350972127187966
000190 7a 97 18 7f f0 92 86 bf 29 4b 22 63 99 b0 bb 3f
       -0.011022452238716108 0.1081634394670742
0001a0 99 7b 75 b4 5e 09 be 3f 97 41 99 00 0a ee 93 3f
       0.11733047395453723 0.019462734495677116
0001b0 d3 c1 5d 14 43 ce ac 3f eb cc 2d 21 eb b2 bf 3f
       0.05626115439997972 0.12382382926971373
0001c0 42 32 34 b8 d4 04 b2 bf e1 aa 04 61 9a 8f 83 bf
       -0.07038621422925309 -0.009551244817506301
0001d0 9e f9 e3 b5 69 f7 a5 3f 94 9e 6f c2 3d f1 9e bf
       0.04290323586791377 -0.03021713732951399
0001e0 1d c4 46 2e 1b 0a 03 c0 90 fc 49 6e e1 df 14 c0
       -2.379934655699357 -5.218633387819082
0001f0 bd f1 73 be e5 06 03 c0 91 b2 83 31 a6 cd c7 bf
       -2.3783678893216504 -0.1859634153146499
000200 71 14 45 76 9b 69 c9 bf db f7 4e 92 49 9a b3 3f
       -0.1985353782166928 0.07657298871978872
000210 f6 c2 33 71 cb c0 c9 bf b0 11 b2 0f 4f cb c5 bf
       -0.20119612719965801 -0.1702669932020746
000220 99 46 e6 bd ee a8 68 bf db 53 68 b7 b9 eb c1 3f
       -0.003010240833824462 0.1400062699837282
000230 28 f0 c4 00 cc ea a4 bf 7c 30 b5 2d 85 70 cc 3f
       -0.040853858083636674 0.22218384486984977
000240 16 37 c3 3a 4b 6d 85 3f 2a a6 ca a5 36 db 92 bf
       0.010462367754736895 -0.01841435801421746
000250 10 c7 e4 b7 7a cb 58 3f ca d2 4e 66 50 9e b5 bf
       0.001513357011912967 -0.08444693086387214
000260 c4 d6 db 70 8f 5e 97 bf eb 0c 62 c1 91 2f 81 bf
       -0.022821656478263078 -0.008391512598115066
000270 3c cd 85 ef 1d fb 89 3f 27 d4 05 df 9f fa 91 3f
       0.01268599879470022 0.017557619082669753
000280 e3 32 bc a2 9a 47 b5 3f fe a1 61 a5 20 64 a5 3f
       0.08312384102846297 0.04177953738036776
000290 2a 0d d1 9e 25 a9 c0 3f f2 6b 07 68 cc 00 90 bf
       0.1301619554015841 -0.01562804589216777
0002a0 56 e8 33 12 35 46 c8 3f b4 f3 f5 1b e1 cf af bf
       0.18964255703741867 -0.062132868445565675
0002b0 ec 51 79 b6 e8 ef bf bf db bb ff 5d 63 65 82 3f
       -0.12475447134904244 0.008982445055122959
0002c0 35 f0 41 14 19 85 b5 bf 8e 09 2f 43 d8 ec 79 bf
       -0.0840621637780153 -0.006329388404028425
0002d0 f9 1e 49 20 bf f2 81 3f 92 14 e0 c1 08 12 c0 3f
       0.008763783619670106 0.12555036036079464
0002e0 0a db f3 14 0e 42 c1 bf 6d 83 03 39 63 d5 c0 bf
       -0.13482833884310025 -0.1315120724093747
0002f0 76 ab 34 25 e1 55 d0 bf f2 a5 de bd cd 54 c3 bf
       -0.2552416671120946 -0.15102550288183597
000300 d3 f9 bd b7 1c a7 01 c0 16 40 64 4d 0e a4 14 c0
       -2.2065977434969937 -5.160210808986468
000310 f4 f8 8c 96 94 74 02 c0 1f 1b 44 3b 30 91 da bf
       -2.3069240342875847 -0.41511159694384675
000320 73 f1 9d c0 89 97 c6 bf ee cc 0d 0f b6 14 cf 3f
       -0.17649957566380756 0.24281955466322053
000330 60 25 fa dd 63 b3 75 bf d8 43 3f 69 70 42 8e bf
       -0.005298032861568686 -0.014775160037887078
000340 dc 4b cb 08 fc b2 cc 3f 20 b5 82 ce ed 3c ba bf
       0.22421217374230096 -0.10249220172655216
000350 b1 f6 5c c5 ed 61 90 3f 11 50 b2 c5 bb 39 b2 bf
       0.01599856869801525 -0.07119344307494681
000360 e5 a5 65 68 85 a3 b4 bf b2 cc 77 4e 5e fe 93 bf
       -0.08062013434177791 -0.019525025882057796
000370 da 51 76 f6 11 03 91 bf d5 5d c7 a6 d4 5b c3 3f
       -0.016613274257524548 0.15123994964117907
000380 84 4b 44 ad 51 a1 b5 3f dd 14 4a 73 e5 8c b1 3f
       0.08449278335710458 0.06855615677530431
000390 f1 09 ae 0f 40 a5 ae bf e8 e9 09 e0 69 16 b2 3f
       -0.05985450927166259 0.07065450401015705
0003a0 0f d3 7f 87 0b 85 bc bf a7 51 4e d8 0b fc 98 3f
       -0.11140510614479758 0.024398980214373058
0003b0 46 ca 55 51 3f 05 d3 bf f2 0f 10 91 19 df b0 bf
       -0.2971952719009646 -0.06590423385210878
0003c0 4f 83 1a 90 80 cd 9e bf bd 4a 17 00 6c ca bc 3f
       -0.03008080367601745 0.11246371271344464
0003d0 25 26 a1 f2 f8 10 85 3f 55 c7 f7 19 99 2a d3 3f
       0.010286278633560528 0.29947497878958035
0003e0 9c 06 8a b3 63 59 b7 3f 7b 85 c0 b4 41 8b b3 3f
       0.09120772488861423 0.07634363806621096
0003f0 03 4a b2 78 b3 3a c0 3f 45 99 a1 7e 77 df bc 3f
       0.12679141419774007 0.11278483239730004
000400 4a b4 60 4c f3 21 c9 3f 40 09 6d d2 bb 1b d0 3f
       0.1963485835016477 0.2516927294674538
000410 12 2a 69 18 25 5d cd 3f 60 fa 2f 02 5b 1f f0 3f
       0.2294050568765021 1.0076551518865458
000420 a7 01 4e 22 16 48 0b 40 1a 94 31 dd 1d 6f 06 40
       3.410198467259949 2.8042561798815884
000430 3b f9 42 a3 81 17 e4 3f 7e 1f f9 5a fc ed b9 3f
       0.6278694332793643 0.10128762455962989
000440 ba 71 c5 44 11 59 c5 bf 05 58 de d4 dd 06 97 bf
       -0.1667806230351639 -0.022487131230796837
000450 ac d8 c3 b9 d6 d2 dd 3f 02 5d f5 20 90 a5 a8 3f
       0.465993577395589 0.04813814546894869
000460 16 45 4c 5a ab 07 c2 bf 41 cb 41 15 8b 76 c5 3f
       -0.14085904988363812 0.1676801542085631
000470 9a 93 3e 72 59 ae c1 3f fc 6c 4b b8 94 c3 a0 3f
       0.1381332214197329 0.03274216413202599
000480 e7 17 cd 53 ed f2 69 bf a8 62 91 2d 86 30 c5 bf
       -0.00316759446141911 -0.1655433390140122
000490 bc 81 ac db af dd c2 bf 85 97 c7 fc 6f 6e 64 3f
       -0.1473903486849063 0.0024940669302279694
0004a0 92 68 2c c7 69 d1 2c bf 52 2f fa 11 72 2b bc 3f
       -0.00021986404643642828 0.11003792704485463
0004b0 63 98 4c 26 38 20 b2 bf 69 9e b1 d7 72 4d b2 bf
       -0.07080412802733486 -0.07149427190744863
0004c0 9d b2 dc e9 a4 07 8d 3f ad 78 15 17 39 ed bd bf
       0.014174736391930504 -0.11690098584719762
0004d0 e0 9c af f2 89 8a 92 bf 07 74 08 6f c6 94 b0 3f
       -0.018106608807923474 0.06477012835280514
0004e0 b1 a0 2e c0 2d 25 b0 3f 58 41 d7 9c 0c 65 a1 bf
       0.06306730215021862 -0.03397406973420186
0004f0 09 79 e0 a7 ea cc a2 bf 7b cc b1 bf a4 46 a9 bf
       -0.036719639771250874 -0.04936709251423906
000500 d5 74 f1 92 24 21 a4 bf 5d f3 92 4b 3d 0c d5 bf
       -0.03931536000957584 -0.3288720357921216
000510 ef 8d 50 b3 9e ee c8 3f ea 8b 91 39 bd 61 bb 3f
       0.1947821021613971 0.10696013122064554
000520 44 65 09 48 0a 93 c1 bf f1 25 77 ca a7 22 c5 bf
       -0.13729980962197363 -0.16512009988791435
000530 b3 8b 54 11 b8 b0 d8 bf e5 6c 02 97 5a 97 02 c0
       -0.3857860726586139 -2.323903255235211
000540 6b b3 d2 76 72 7e 16 c0 9f b4 93 b8 d1 3c 02 c0
       -5.623483521089706 -2.279696886069885
000550 36 3d c3 5a 78 26 d8 bf 51 98 d0 26 f6 8d d5 bf
       -0.37734803069629963 -0.33678964415083096
000560 d1 41 f4 43 7e cc d6 bf a8 84 9f e9 f4 0d c2 bf
       -0.35623127590318143 -0.14105092437151723
000570 4f 58 9f 0d 7a 34 b6 bf b7 29 0b 4b ce 36 c0 bf
       -0.08673823196963436 -0.1266725412772993
000580 54 e0 19 13 e8 a6 c2 3f 81 c0 04 dc e6 e8 9c bf
       0.14571858341855892 -0.02823219983946546
000590 52 d5 c5 d8 56 0a 90 bf 49 60 69 75 f1 a0 8a bf
       -0.01566444109035576 -0.0130022872883019
0005a0 35 54 ce d4 54 cd b5 3f 76 eb d4 bf 69 8b cb 3f
       0.08516435809572516 0.2151920496633825
0005b0 95 57 f2 43 ab 27 c4 3f 3f df a9 18 91 b9 bc bf
       0.15746060197551218 -0.11220652439248811
0005c0 45 77 03 b4 3a e0 01 40 05 f5 50 99 a2 20 16 40
       2.2344869674260814 5.531870265547018
0005d0 fd 05 5f c7 48 1a 02 40 59 67 aa a4 2c ac de 3f
       2.262834127032646 0.47925869064930776
0005e0 60 df a1 b6 f6 ed d2 3f e7 ba fd 88 f8 09 c8 3f
       0.2957741530913065 0.187804285898401
0005f0 ee 41 67 d7 f1 7c c5 3f 89 38 67 0b 6b cf ca 3f
       0.16787550943128288 0.2094548993758887
000600 5c bc 96 e3 07 b2 9e bf f5 f8 1e c4 32 3a bc 3f
       -0.029976008668821982 0.11026303566083924
000610 53 2c 80 be 04 bb 84 3f d8 0d ce 65 bb ab b1 3f
       0.010122334540957711 0.0690266727015606
000620 87 04 bf be 1e 9b d1 3f 80 c8 2a 2e 08 55 50 bf
       0.2750927794223305 -0.0009968356977592407
000630 df e6 56 d3 7e d2 b7 3f ca ce 95 07 c3 57 88 3f
       0.09305565509466927 0.011886142415029072
000640 f2 ed 02 0b 8e 32 c2 3f a3 5f 54 6b 2b b9 8f 3f
       0.14216781175296905 0.015489901745738005
000650 41 bd da 75 df 6c bf bf 21 f5 1e ae ad 70 90 3f
       -0.12275501849466243 0.016054834129808463
000660 ac ca 43 6a 93 43 b8 bf 6c 51 60 b3 e4 c8 b0 3f
       -0.09478112549167389 0.06556538943579476
000670 10 9c 67 cf 83 93 97 bf 9a 94 84 5d 25 e6 b5 bf
       -0.023023662122707178 -0.08554299863006279
000680 66 eb 43 3d 93 06 c2 bf 95 36 25 c2 f7 1a a1 3f
       -0.1408256577631974 0.033408873032937304
000690 ac b4 24 4b 95 42 b1 bf 94 43 4a 89 c0 96 86 bf
       -0.06742222866587849 -0.011029724302064094
0006a0 5b 14 7c b5 b5 dc aa bf 13 e1 d5 f8 8a 2f cc 3f
       -0.052465132144825254 0.22020089292687625
0006b0 82 fe ab e0 21 b2 9c 3f be 35 94 65 86 98 78 bf
       0.02802327092922364 -0.006004834163161941
0006c0 a4 e7 b8 bc e0 1f aa bf 7a fc e2 0c 6f 8b c9 bf
       -0.051024458920849086 -0.19956768159133614
0006d0 ed e2 5a 89 79 57 ae bf c1 7f 97 1a a7 70 c1 bf
       -0.059261129395457114 -0.1362503890841236
0006e0 23 7d bc c4 d1 86 bf bf 8d 1e 26 b6 57 52 ca 3f
       -0.12315093091136879 0.20563789743413388
0006f0 a5 38 db c5 c0 a7 d2 bf 05 fb 9e a8 bc 65 00 c0
       -0.291488831729007 -2.049676244117452
000700 24 0f e7 fe df 03 15 c0 6f 62 fc 9e 72 5d 01 c0
       -5.25378416333459 -2.170628778531231
000710 9b 0c 75 90 cf e8 cc bf 2a b7 2c a2 7a 7b c6 bf
       -0.2258548217160737 -0.17564328116116573
000720 7d 98 7a 81 35 f1 b7 bf 98 95 e6 d0 94 1c be bf
       -0.09352430735688873 -0.11762361621966588
000730 46 57 3f f4 b6 3c ca bf 9e 6a cf fe 58 e9 b0 3f
       -0.2049778645147688 0.0660606023879304
000740 53 3d 3d 9f 60 3d bd 3f b9 42 08 9e 5b 74 56 3f
       0.11421779525448032 0.0013705153179481135
000750 e4 af 9d 94 b4 6f d0 bf f6 13 2e 41 84 db c5 bf
       -0.25681795609739155 -0.17076161558739472
000760 1d 51 94 01 d6 73 87 3f a7 6f 4e fa aa c1 9d bf
       0.011451408312986683 -0.02905909683941812
000770 8d e3 d4 58 1f b2 c5 3f 48 00 f2 5e a7 7d 80 3f
       0.16949836575966196 0.008052165589333651
000780 df e7 eb b5 54 fa c7 bf 90 99 82 af 7e cb cf 3f
       -0.18732699282537532 0.24839767045814343
000790 99 86 c5 c2 e0 0b 84 3f f9 d4 be 07 2c 2a d1 bf
       0.009788280433613837 -0.268198974193481
0007a0 78 8e cd a2 4f 16 c2 3f 02 94 46 48 4a eb ab 3f
       0.14130588006365818 0.05452949650069884
0007b0 42 e3 d9 e6 bc a1 a8 3f f1 55 9f 19 d9 3f d4 3f
       0.04810896223074802 0.31639697553813934
0007c0 ad ac b9 72 d9 aa c7 bf 88 f3 72 fe a5 70 9d bf
       -0.18490141012020925 -0.028750032096229755
0007d0 cf 0e 45 13 77 3e d7 3f 7e ff f1 a8 8b 36 cd bf
       0.363187569444773 -0.22822709798128565
0007e0 57 36 1c 4a 30 0d c0 bf 08 79 f1 88 63 09 cf bf
       -0.1254024850717765 -0.24247402369196203
0007f0 d7 d5 c5 b4 18 85 88 3f da 3d 7f ee a4 9d c7 bf
       0.011972611443279142 -0.18449842114794884

visible_bias f8 [30]
000000 56 85 0d 4f af 94 f6 3f 85 98 ff 90 7e fb 04 40
       1.4113000000000588 2.6228000000001566
000010 24 31 33 33 33 b3 02 40 48 58 39 b4 c8 f6 06 40
       2.337499999999766 2.8705000000000247
000020 16 68 de 71 8a 8e d4 3f 5b f0 85 c9 54 c1 02 c0
       0.3211999999999774 -2.344399999999991
000030 80 0e e9 b7 af 03 cf 3f 76 67 b3 ea 73 b5 04 40
       0.24229999999998952 2.588599999999981
000040 71 1f ed 0d be 30 a9 bf 52 cd b3 59 f5 b9 02 c0
       -0.04919999999998382 -2.34079999999964
000050 64 6a 19 e2 58 17 a7 3f d4 c4 dc b5 84 7c fb 3f
       0.04510000000000927 1.7178999999999194
000060 b6 84 c9 54 c1 a8 e8 bf 58 b7 fc 87 f4 db e1 bf
       -0.7705999999999651 -0.558099999999949
000070 ed 83 51 49 9d 00 04 40 5c 29 f6 97 dd 93 cf 3f
       2.5003000000001436 0.24669999999998538
000080 2d ce ee c9 c3 42 00 c0 e1 44 47 72 f9 0f d5 3f
       -2.0326000000002495 0.3290999999999951
000090 ac b6 62 7f d9 3d 04 40 75 f4 1f d2 6f df 02 40
       2.530199999999999 2.359100000000178
0000a0 30 2d 3a 92 cb 7f 0d 40 7d c6 07 3d 9b d5 01 40
       3.6874000000003875 2.2292999999997947
0000b0 33 43 69 6f f0 85 05 40 af 1e 0d e0 2d 90 d4 3f
       2.690399999999863 0.32130000000004605
0000c0 b5 03 78 0b 24 a8 01 c0 e1 db d7 81 73 46 e2 3f
       -2.207100000000049 0.5710999999999978
0000d0 7e 73 f9 0f e9 b7 0d 40 d9 98 a2 23 b9 7c 04 40
       3.714800000000138 2.5608999999995885
0000e0 13 d9 34 ef 38 45 0a 40 03 cf b3 59 f5 b9 f4 3f
       3.283800000000278 1.2953999999999162

hidden_bias f8 [16]
000000 aa d2 3e 12 80 1c 18 40 7d b6 fa 5c ba 3e 16 c0
       6.027832303127676 -5.561257794191644
000010 67 e1 2e 7d 7f 8a 14 40 e8 33 ef 28 fb e4 15 40
       5.135251956926687 5.473614348983553
000020 e4 d3 f5 b7 28 d7 13 c0 89 6b 6d 75 30 62 19 40
       -4.960116266612179 6.345887980273695
000030 03 7d 81 c7 93 18 18 c0 85 af b8 d4 b7 2c 15 40
       -6.024001233366337 5.293670009395901
000040 e9 98 ee 95 7e 3e 10 40 fa b1 98 3c ad 65 19 40
       4.061029761016678 6.349293658084656
000050 24 41 5b 5b 0f 76 16 c0 e1 8a dc f0 8d bd 18 c0
       -5.615292956776361 -6.1851117739304025
000060 c4 34 f9 6f c4 12 18 40 c4 27 28 c1 c8 22 11 40
       6.01832747419866 4.2839689427145835
000070 bb ed be b2 2d c3 16 40 0f 02 29 62 83 9c 13 40
       5.690604012397155 4.902844938042576
