Data/TFIM1D/Energy/Q30/Trial22.pt (torch_old, 4816 bytes, 3 tensors)

weights f8 [16, 30]
0	0xbf9488315f8b34b1	-0.020050784546403026
1	0xbfb26038fffe630b	-0.07178074121328508
2	0xbfa298d3d5521d43	-0.036322231092578615
3	0xbfb00664346dfb26	-0.06259752540607319
4	0xbfa5b6e0f68e0c09	-0.042410879227667016
5	0x3fb0e660e01ce676	0.06601529571062223
6	0x3fbc2dff3b4663c0	0.11007685849325721
7	0xbfc3ba21ca99591c	-0.15411779778032375
8	0xbfa95048522c9f83	-0.04944063189606054
9	0xbfb3521466a83ae4	-0.07547118669775049
10	0x3fa69dacc5d6fe44	0.04417171397244293
11	0xbfc6f48aebff5f11	-0.1793378498393783
12	0x3fb82a5093423e8c	0.09439567179856051
13	0xbfa5df4e0147efb0	-0.042719304710743145
14	0xbfc7337436b3c8c5	-0.18125775023469806
15	0xbfc5b4d1df215f79	-0.1695806827071882
16	0xbfcf70df174c52b7	-0.24563206327061035
17	0xc00358e996b79673	-2.41841428516164
18	0xc015092a4042e08e	-5.258950237352236
19	0xc0021211bc8c5635	-2.258822892220247
20	0xbfdbcdfbe74e3055	-0.4344472655145684
21	0xbfc93e7451e283ac	-0.19721845625192935
22	0xbfd3b4dbdd440b1c	-0.30791374786365266
23	0xbfb4f42b79b460c8	-0.0818507358675361
24	0xbfc2a362603ec2ac	-0.14561109256239513
25	0xbfc0fa532225da53	-0.13263930480362038
26	0x3fcbd2141e03163e	0.21734858956749464
27	0x3fa804a0254cebaf	0.046910290292053396
28	0x3fc466be31047da8	0.15938546555933653
29	0xbf935de3049670a0	-0.018912837176330854
30	0x3fac9f9665be4ca6	0.05590505592331256
31	0x3f9964a72e9f8766	0.024798023434306947
32	0x3fd007e3781bdca4	0.25048147897127593
33	0xbfa325f4884634f9	-0.03739895022872903
34	0x3f81dde3bd1f73b9	0.008724002083846704
35	0x3fb8754b30dfeaf9	0.09553976004819366
36	0xbfa122aa752efa6a	-0.033467604450824265
37	0xbf91ba94c85a6e85	-0.017313313225356914
38	0xbfc48d0c8a5304a5	-0.16055447343936638
39	0x3fb2624d6e2e3eff	0.07181247653920407
40	0xbfab0b40616ffe7d	-0.0528202170316918
41	0xbfa39ce222818f33	-0.03830629988877234
42	0x3fdd1319e7f8b63e	0.45429084447355084
43	0x3fb5b63c2b004d7c	0.08481193590005448
44	0xbfbdd8c2b7e1f7ff	-0.11658875455211158
45	0x3fb7bd0a2851eabb	0.092728266566989
46	0x3fd06dc0ed28c594	0.2566988292702146
47	0x3fd1dd692aab102a	0.2791388432199279
48	0x3fd02b1ac0840c17	0.252630889896126
49	0x3fdd06d9925382a2	0.4535430840460696
50	0x40082e8e6d42e7fb	3.0227325950663704
51	0x4009b73e2c1f93c4	3.2144740531097984
52	0x3fee219c39ea21f1	0.941602814783492
53	0x3fa0e5dd427eb576	0.03300372540193568
54	0x3fbf4a5be1749815	0.12222837690623607
55	0x3fd244dab4d0b0e3	0.2854525342725209
56	0x3fc82e54a0fc6d98	0.18891389713904227
57	0x3fb2f7e76817e61c	0.07409521380750345
58	0x3fc074c0eb7d4513	0.12856303690436074
59	0x3fb5b24f21d6f123	0.08475203109896205
60	0x3f9950c2b86aa6b2	0.02472213984098088
61	0xbfa73b03fcd66f7b	-0.045372128118485976
62	0x3fb0cb637d71a204	0.06560346424669922
63	0xbf9a05afe5886cde	-0.02541231955011091
64	0x3fa71987d5fb1903	0.04511665808745315
65	0xbf7c9da496305c26	-0.006986277500820958
66	0x3fc32e58e7be9f1d	0.1498519069257264
67	0x3fb38f07259fee4d	0.07640118282864101
68	0x3fbe030338423c54	0.11723346827987885
69	0x3fc0e866b8ac2c3a	0.13209232346739147
70	0xbfb763a8e1bad8cd	-0.09136443625434083
71	0x3fc35183a7e55ce6	0.1509251184276998
72	0x3fe2013a443fe088	0.5626498539923128
73	0x40023dfa91c215fc	2.280263079391032
74	0x401756193cbbe817	5.834080647438916
75	0x400193671c174d25	2.196974009953595
76	0x3fdb62c19ee42e85	0.42790260807735364
77	0x3fcbf89a2e2600ff	0.2185242390951387
78	0x3fad24629c05a7d8	0.056918221994081086
79	0x3fd0514277253538	0.2549596942452186
80	0x3fd552c0a3a962da	0.33317581160149035
81	0xbf9a12ce8065b0fa	-0.025462366663689708
82	0x3faa5ed9a22c3f00	0.05150489906929856
83	0xbfa2e6838bb84c37	-0.03691493111195892
84	0x3fd0fe6cde7d1245	0.2655288861026615
85	0x3fc0bbe7fbf80f27	0.13073444178746138
86	0xbf7a3d3933aa1891	-0.006406043476664306
87	0xbf957dffb7883cad	-0.020988460137286214
88	0xbfcb6e4a41406db8	-0.21430328546635535
89	0xbf9823054162b82a	-0.023571092716046994
90	0xbfc2ee84266546b2	-0.14790393709931987
91	0xbfd20f5561bb7fbc	-0.2821858839433806
92	0x3fb87cafc607225f	0.09565256676354171
93	0x3fa62061f5c48ea3	0.04321581006140931
94	0x3fb79809fc2b222c	0.09216368109185485
95	0xbfc16cf30531a448	-0.13613736871346505
96	0x400bb713ffb33c6c	3.4643936134885305
97	0x4002ebcf8192b3a5	2.3651418803114717
98	0x3fd5a667fb79e337	0.33828162725653804
99	0x3fc46b5abc0d2eb8	0.1595261972637354
100	0xbfc50d992bc70724	-0.16447748792239125
101	0x3faadc845ac80546	0.05246366127176798
102	0xbfe14efb4e8e21f9	-0.5408913168221822
103	0x3f79de2c595f89f4	0.006315396536566532
104	0xbfce39b3b4ffc641	-0.23613592470023728
105	0x3f89e1990a848a50	0.012637324937320532
106	0xbfd1465eb960350e	-0.26992004492861177
107	0xbfbb264ecc46ac44	-0.10605328070839543
108	0x3fad1faa54b4210c	0.05688221248607492
109	0xbfabdc1dd0a6d5c8	-0.054413730354478995
110	0xbfc233ea3e0aabf1	-0.1422093203485413
111	0xbfc1507c70c960a4	-0.13526874072227202
112	0xbfc9cd692d3866ca	-0.20158114154837953
113	0xbfa233ea7a9b84e9	-0.03555233713792367
114	0x3fca3497471347fa	0.2047299477622458
115	0xbfc583bc3d290542	-0.168082742560765
116	0x3fd4e0c8bc2b219a	0.32621973396137494
117	0xbf9462ccc7d7b939	-0.019908141801289168
118	0x3fcb1d8e6ddfa33a	0.21183948864861596
119	0xbfb2722e62b69a23	-0.07205476675026339
120	0xbfbfdfa180fea3d6	-0.12450608634266244
121	0xbfd42dfb2f1eda73	-0.3153064689790092
122	0xbfba4ebc5726f354	-0.10276391151178405
123	0x3fb67ae3844d8035	0.08781263332412055
124	0xc001df07a86acdb4	-2.2339013249963617
125	0xc01666a04ff32296	-5.60022091790656
126	0xc0039084e2b9683b	-2.4455659592468044
127	0xbfe62ca178204f42	-0.6929480882849719
128	0xbfcbefeef476d379	-0.21825968682028554
129	0xbfc6a2fa1366181c	-0.17684865901191038
130	0xbfb124314170edad	-0.06695850227054363
131	0xbfbbabe199146876	-0.10809144961641146
132	0xbfc22a2f5a9ab31c	-0.14191238330877176
133	0xbfc5c753689c53c7	-0.17014544113103922
134	0xbfadcfa0b402ab3a	-0.058224698995522364
135	0xbfb94846e3c3a74e	-0.09875910816813624
136	0xbfd28ddbcaff0d2a	-0.289908359755105
137	0xbf99bba39d69ba09	-0.025129848940588704
138	0xbfa6f63f1b442db6	-0.04484746177521563
139	0xbfafa5815799e2e3	-0.06180957979535664
140	0xbfa74ba86d2d790c	-0.045499099089953615
141	0x3f9376266af557d6	0.019005394247265738
142	0x3f9cabe250095670	0.027999435553587693
143	0xbfa87dd2634ac108	-0.04783494436321872
144	0x3fd50a276248f574	0.32874474142211985
145	0xbfb54eadec0860e1	-0.08323180210607319
146	0x3fbcd2d1377bea7e	0.11259181599226939
147	0x3f80c145047058f8	0.008181132505381758
148	0x3fd0955ca517f8cd	0.25911632654596134
149	0xbfba80db016914dd	-0.10352867874560752
150	0x3f9bc0a48dfeb7d7	0.027102061430632176
151	0x3f72543caceefe64	0.004474865926510672
152	0x3fc07b357252b1fa	0.12876003343752968
153	0xbfbf663efc641bad	-0.12265390073672107
154	0x3fada395281f28c9	0.05788866152541201
155	0x3fbbfb63ac5fbf36	0.10930464704847229
156	0xbfd2a43bf729dfed	-0.29127406251018223
157	0xbfa332c16e4251de	-0.03749660941062748
158	0xbfbea2d5f669e5e8	-0.11967217699011423
159	0x3fabb28c9c4082cf	0.054096597741823176
160	0xbf8306814fe89619	-0.009289751292338487
161	0xbfc246619a4d8494	-0.14277286562267888
162	0x3fa3b41fe61287bd	0.03848361667156961
163	0xbfb049fbbb30f5b3	-0.06362889595126013
164	0x3fd4fe7db8b508ed	0.32803290403184243
165	0xbfc3df1325d4ca3f	-0.1552452025149069
166	0xbfa732adf50e9581	-0.045308529056721454
167	0x3fbca86de21959de	0.11194502611156262
168	0xbfc13fcf90287a29	-0.13475985087366496
169	0xc007d56b8f208c4e	-2.9792090589340097
170	0xc0080cc49862a73d	-3.00623435069147
171	0xbfd28528b5dd1904	-0.2893773818981489
172	0x3f876b0c64d8cf06	0.01143464739570944
173	0xbfca953f4464071c	-0.2076796611727837
174	0x3fc7f624a9464a80	0.18719919457779
175	0x3fbcb1939295b193	0.11208460167626404
176	0xbfcb7f2cb21fa7ba	-0.21481856057590482
177	0xbfc9ab4de59fd4ec	-0.20054029190183742
178	0xbfa528fa0d467186	-0.04132825290728008
179	0xbfa692c54ea185d8	-0.044088521812920056
180	0xbf88bbd9972e21b3	-0.012077045370248429
181	0xbfbfc9c5f6b0295d	-0.12417256615313961
182	0xbf9df2bc51e9dbca	-0.029246275424579506
183	0xbfac0e9ee02bf06a	-0.05479904638738804
184	0x3fa302b46d64912e	0.03713001094209499
185	0x3fd0a9399e95ed3b	0.26032867895965567
186	0xbfe054e0d1fc6895	-0.5103611089027874
187	0xbfd7642552b1e7c6	-0.3654874141280938
188	0xbfb01c9dd7ce65ea	-0.0629366542692861
189	0xbfd0d8b5a7ae2c6c	-0.26322690367732693
190	0xbfe41693b1f2cada	-0.6277559733919944
191	0xc00323b0f583126e	-2.3924273663163182
192	0xc0158de52b08338f	-5.388569519401144
193	0xc0018dea5db07de0	-2.194294673870658
194	0xbfc83da17d1eb788	-0.18938082322477734
195	0xbfc5da0265cf2b9e	-0.17071561785845984
196	0x3fa8af9131752eab	0.048214471137354074
197	0xbf8a8bbd5b53496e	-0.012961844777610945
198	0xbfc6c3197951cb27	-0.17782896446041116
199	0x3f78794ecad565aa	0.005975063116545535
200	0x3fc5c7d9b2df82b8	0.1701614497569801
201	0x3fc2aa361d306d18	0.14581943917514972
202	0xbfbc42cbdfb49655	-0.11039423190649107
203	0xbfc156d2320883de	-0.13546206896810892
204	0xbfc25b6ea75e67bc	-0.14341529056838265
205	0x3fc5fd001917f997	0.17178345895076738
206	0x3fb484556d364546	0.08014425197895489
207	0xbf4df1e124ce509e	-0.0009138440451459567
208	0xbfaafb5834f8ed2e	-0.05269885679850926
209	0xbf93b2c861610ea1	-0.019236689513731368
210	0xc0030375c520a718	-2.3766894722547356
211	0xc014fa3d8afb649b	-5.244375392526446
212	0xc002b44271c48637	-2.3380173576449823
213	0xbfcedcd384acb0dc	-0.24111408212900798
214	0xbfcb037d5ad20e67	-0.21104399618717481
215	0x3fc8e7e13891926e	0.19457640897884992
216	0xbfd836f0afe94557	-0.3783532827265694
217	0xbfcca1f7ad31f9f5	-0.22369285542295328
218	0x3fcd4f0df8fb73d3	0.22897505433402773
219	0x3fb75a0db10e6f30	0.09121785710015895
220	0xbfb40f4b868bf432	-0.07835838351088922
221	0x3fb91ed48c65fafc	0.09812668254560813
222	0x3fc09d28a8771dd1	0.1297961065849749
223	0xbf93e3f935ea05cc	-0.01942433730665076
224	0xbfa8588c84824444	-0.04755057446994518
225	0xbfb1191ffa53ad6e	-0.06678962575431566
226	0xbfb25380e5606011	-0.07158666229258893
227	0xbf9074902fad359b	-0.016069653425167734
228	0xbf8568688800580c	-0.010453049326354623
229	0xbf8fb8b85a84579d	-0.015489044439657646
230	0x3fa035a059ca8a8a	0.031659136734806984
231	0x3fb4e6c598b9cc9b	0.08164629915863701
232	0x3fc963f572a41d95	0.19836299989422615
233	0xbfa1723f463b4089	-0.034074761698890184
234	0x3fd36bffd00b7d6a	0.3034667522133164
235	0x3f840cef84d3d4a4	0.00979029773814439
236	0xbfc1808b883d0ff8	-0.13673538353225445
237	0xbf8d1ec86e733eb0	-0.014218870039626935
238	0xbfba5c78ddfd3d11	-0.1029735128370144
239	0xbf8d53010d58ec77	-0.014318474025563284
240	0xbfbbbabae68aa037	-0.10831802490668073
241	0xbfc9ce5e6090bab4	-0.20161037173371243
242	0xbfca723bc8c5de1d	-0.20661113074651008
243	0x3fad678d702b8e62	0.05743066782249852
244	0xbfcea5411f2e0c6f	-0.23941816351370757
245	0xbfa07edb99dc3ba3	-0.032217848331235
246	0xbfd71f3441adf663	-0.36127954877870233
247	0xc00126e331b513de	-2.1439880259881496
248	0xc01559d8b5e6ac8a	-5.337740747646544
249	0xc001c38dab894e5f	-2.220485057952643
250	0xbfd6cf8fb516314c	-0.3564185398506836
251	0xbfb01a3e60512181	-0.06290044642913097
252	0xbfc82ccf895d8d70	-0.18886751372620436
253	0xbfb7265f5592fa8b	-0.0904292663499097
254	0x3fb2393aa403d459	0.07118574623366793
255	0x3f75d6925fa4ea46	0.0053315847129007995

visible_bias f8 [30]
0	0x3ff230be0ded287a	1.1368999999999958
1	0x4006123a29c77c7a	2.758900000000321
2	0xbfc79db22d0e5c58	-0.18450000000004496
3	0xc0055119ce075fb7	-2.6646000000000316
4	0x3fcbd07c84b5e085	0.2173000000000266
5	0x4000c538ef34d6b9	2.0963000000000105
6	0x3fa30be0ded27adc	0.037199999999975225
7	0x3fd96f0068db8a2c	0.39739999999997866
8	0x4003f1758e21965a	2.4929000000000032
9	0xbfb6f694467387aa	-0.08970000000002068
10	0xc000f0a3d70a3ca0	-2.1174999999999073
11	0x3fcbd07c84b5d5b5	0.21729999999994978
12	0x4002ad42c3c9eede	2.334600000000008
13	0xbf9b3d07c84b5835	-0.026599999999995034
14	0xc0059b3d07c84bf3	-2.7008000000000663
15	0xbfffe631f8a0976c	-1.9937000000004117
16	0xc003fa43fe5c927b	-2.4972000000000754
17	0xbfc1eecbfb15b323	-0.14009999999998354
18	0x4005d97f62b6ace6	2.731199999999819
19	0x400395e9e1b088f6	2.4481999999999244
20	0x3fd69e1b089a0316	0.35340000000000893
21	0xbfe0ca57a786c29a	-0.5247000000000128
22	0x400125119ce074f8	2.1430999999998868
23	0x3fd88b4395810656	0.3835000000000027
24	0xc007caf4f0d846ea	-2.974100000000239
25	0x3fa70a3d70a3d890	0.045000000000002705
26	0x4005ff972474548d	2.749800000000113
27	0x4001a1cac083130e	2.204000000000071
28	0x4003147ae147ad9f	2.384999999999948
29	0x3ff662b6ae7d56fa	1.3991000000000313

hidden_bias f8 [16]
0	0x4017f81b57a4b51a	5.99229180281443
1	0xc013877a14220ec4	-4.882301630572048
2	0xc0191f7c01d6a34f	-6.28074648735567
3	0xc0045e3c2cd6bd59	-2.546013212493261
4	0x40193cec184ec235	6.309494380766911
5	0x401168c974958225	4.352330991387622
6	0x4018b22c9d19eb7f	6.173998312670732
7	0x4014b8a20ef531f0	5.180305703845519
8	0x4017aec5d24e0e0e	5.920676504148572
9	0xc0181b93a28d1207	-6.026930370197539
10	0xc018fb80d5871e27	-6.245608650562224
11	0x401680e97d4f1f19	5.625890691713516
12	0xc017af390ea5c005	-5.921116093508322
13	0xc019fc7b8ad4ca3e	-6.496565026509925
14	0x401680f32e80384d	5.625927664352344
15	0x4015079779642d4f	5.257413765658682
