examples/Tutorial1_TrainPosRealWaveFunction/saved_params.pt (torch_old, 1618 bytes, 3 tensors)

weights f8 [10, 10]
0.39516603688188806 0.7849172343147127 0.17352150764184943 -1.1304270853324043 -2.1839831436629225 -1.8448431419550115 -0.6995149936437859 0.05022902695757692
0.18816779433534334 0.0198798116350184 -0.6146910128736794 -1.2746880921495278 -1.2927548015056054 -1.1166884733647962 -0.802385902873733 -0.3569054172946381
0.015294785782241341 -0.2816794664374613 -0.9354617537717287 -0.7570751574063388 -0.2564280960764797 -0.26103617608518437 0.507111900972281 1.2218948311800124
1.721781258241508 1.5772585667733674 1.054139490166448 0.6469131141393077 0.1566543244325648 -0.04720664367462233 0.15746516833296847 -0.6184057383288575
-1.7320577562910362 -2.025044736860481 -1.238905709306057 -0.12783840466342244 0.16576079167671215 0.21865570648522253 0.11547847739089787 -0.035699960021266554
1.9053648695401197 2.7516494469196506 1.225304325551482 0.2725065944289647 -0.11788820339938665 -0.10160394364660344 -0.07874368018162321 -0.28543218465323866
-0.4050724516734496 -0.26954905856460487 0.8044569622581327 1.4915446635801075 1.4752571772614558 1.3049476101563418 1.0485908067789325 0.5378192789961297
0.1848178827995105 -0.42232808173817865 -0.9404297908608487 -0.572030260451669 -0.4822788363001316 -0.5844326647218032 0.03585038658332424 0.43068130838678287
0.07127595592156276 -1.2681217661312416 -2.5012417861470975 -2.3592508110116044 -1.1997056747690265 -0.044530621496132 -0.9761623951903936 -1.6117949674017722
-0.9148422456650935 -0.17535529473185996 -0.014575043996227815 -0.17810767993509632 -0.2574153107922194 -0.8939431625279479 -1.6313529617593379 -1.0684356527222965
-0.09284137434192118 -0.2428790823817154 -0.09511534452478504 0.15254414884416906 0.5624443306921225 1.514159715920213 1.8792927900356935 1.3427698051043078
0.6418282669139042 0.16763140883514047 -0.5419208829632579 -0.5460543817692548 -0.09828327836308871 0.24840460113632257 0.06847022483814293 -0.3981129831703925
-0.1167431307944546 1.4982313038633102 3.396810155227273 2.3416966537735755
00000000: eb72 397d 664a d93f c959 6ebf 0a1e e93f
00000010: beb7 3ce8 f335 c63f 943e 20b6 3a16 f2bf
00000020: 5361 8827 cc78 01c0 8525 0f3e 7a84 fdbf
00000030: ea5f 9844 6d62 e6bf c075 2f78 9eb7 a93f
00000040: 2356 6add e115 c83f 21cc 4a93 5f5b 943f
00000050: 8f00 ae7c 8cab e3bf 2e20 4657 1f65 f4bf
00000060: b06a a3a8 1faf f4bf 60c0 8ebb f4dd f1bf
00000070: d6a6 7333 25ad e9bf ceec c2d1 89d7 d6bf
00000080: d556 df65 df52 8f3f 9b6e 1350 0907 d2bf
00000090: d877 e37c 4def edbf ae93 35ae f539 e8bf
000000a0: 3f23 9b63 5169 d0bf fef5 d613 d1b4 d0bf
000000b0: a9d3 c2bc 423a e03f 0f1d 3198 e18c f33f
000000c0: 4735 3081 6a8c fb3f 040a 9a7a 733c f93f
000000d0: fcfd ba5e c1dd f03f 739e 9221 83b3 e43f
000000e0: dd7f 1bb8 3f0d c43f 1d0d 791d 782b a8bf
000000f0: eae6 1f92 d127 c43f 66ff b8d4 fac9 e3bf
00000100: a8d9 a031 82b6 fbbf 8305 aea7 4a33 00c0
00000110: 52c1 04cb 8ed2 f3bf 20e2 9943 025d c0bf
00000120: 3af3 9a4d a637 c53f 060a 3802 e9fc cb3f
00000130: fe28 c95b ff8f bd3f b50a 85e1 4347 a2bf
00000140: 35f4 99df 5f7c fe3f 719c 04c9 6003 0640
00000150: 5741 5eb5 d89a f33f 4112 c17f bf70 d13f
00000160: 6f3f 2fda eb2d bebf 8256 1b4f b702 babf
00000170: bd91 25bb 8b28 b4bf 81ef 935a 8544 d2bf
00000180: 23ac 1c01 b5ec d9bf daf6 ccb1 4a40 d1bf
00000190: 9f05 fe86 1cbe e93f 2099 e9ef 5ddd f73f
000001a0: 866f 1845 a79a f73f 68d6 c9be 10e1 f43f
000001b0: 4007 6027 07c7 f03f 2d4b cec6 d035 e13f
000001c0: 7c80 2bc5 1ca8 c73f 77dd cf5c 6c07 dbbf
000001d0: 8fce 7d37 0018 eebf 01cb 9e67 124e e2bf
000001e0: 7491 5d0d a8dd debf 8637 b621 acb3 e2bf
000001f0: 6942 d95b fb5a a23f 2443 a155 4890 db3f
00000200: 9f9b ac1b 243f b23f 3312 8e0c 3a4a f4bf
00000210: 8f1f b70d 8b02 04c0 bdd9 a2e3 bedf 02c0
00000220: 5956 df93 fe31 f3bf 962d feb5 b7cc a6bf
00000230: 47b0 5deb b83c efbf 6691 0d85 e9c9 f9bf
00000240: 4e2f c43e 6346 edbf 40e2 06d4 0a72 c6bf
00000250: 1698 694a 85d9 8dbf 1b6c 3e82 3bcc c6bf
00000260: 8fe7 5511 7e79 d0bf 8a4a f1b0 2e9b ecbf
00000270: 55d3 2f90 051a fabf af29 a5fb 4f18 f1bf
00000280: 8fa5 83ca 73c4 b7bf 6c21 db69 a916 cfbf
00000290: e4eb 14ae 7a59 b8bf aaad 3d11 9186 c33f
000002a0: b695 c440 8bff e13f 77c4 cc89 ff39 f83f
000002b0: 89fd 0c51 9511 fe3f 32ab ef30 fc7b f53f
000002c0: fc64 016f db89 e43f cf5a 5d2d f274 c53f
000002d0: a517 ab76 6a57 e1bf 952a f109 4779 e1bf
000002e0: 5129 50ca 1729 b9bf 1839 07d3 b8cb cf3f
000002f0: a9f9 6dc0 4387 b13f 011c b5e0 ae7a d9bf
00000300: 2d7a cbb8 e0e2 bdbf 50fb 3e63 c1f8 f73f
00000310: e45f 7bcd aa2c 0b40 92e1 8874 cbbb 0240

visible_bias f8 [10]
-0.32174999999999826 -0.26234999999999187 -0.0003499999999989092 -0.053049999999986504 -0.09394999999999093 -0.08655000000000326 -0.07094999999999367 -0.027999999999999137
-0.09760000000000273 -0.07280000000000385
00000000: 453b df4f 8d97 d4bf 94c1 86a7 57ca d0bf
00000010: 2d6c b88d 06f0 36bf 0101 1b9e 5e29 abbf
00000020: 948b 7571 1b0d b8bf 3204 780b 2428 b6bf
00000030: 43b3 a679 c729 b2bf 80e8 2631 08ac 9cbf
00000040: cbf0 1648 50fc b8bf d718 2653 05a3 b2bf

hidden_bias f8 [10]
1.6379380723720933 3.471177494475973 -2.689202282802401 2.377747571710476 -1.9974687915224996 -1.8909918466308389 4.014512423200372 3.5625265170122193
-2.336902851488702 -2.3021812672071857
00000000: fc61 5b8d fe34 fa3f 8e15 cbb4 f8c4 0b40
00000010: 06b8 877c 7c83 05c0 891e d584 a005 0340
00000020: 9cea e5d5 a1f5 ffbf 7c83 a4aa 8041 febf
00000030: 1020 3c58 dc0e 1040 279a 0de7 0d80 0c40
00000040: c095 481f fab1 02c0 19f3 2003 de6a 02c0
