examples/Tutorial1_TrainPosRealWaveFunction/saved_params.pt (torch_old, 1643 bytes, 3 tensors)

weights f8 [10, 10]
000000 46 48 d8 f5 83 1d e8 bf 18 e1 65 e4 ac aa fb bf
       -0.7536029626519472 -1.7291687890811485
000010 83 bd 90 fe 48 b2 ff bf 4f 42 87 30 c2 86 fd bf
       -1.9810266441307653 -1.845400037349595
000020 75 8a 59 21 22 52 f2 bf 88 f9 d8 4b fd d1 ae bf
       -1.1450520804143285 -0.06019584227441316
000030 e6 c7 5f 67 11 99 de 3f 3b 61 e8 6f 1d e5 e6 3f
       0.4780925282967686 0.7154681382844851
000040 8c 9e aa 07 aa 6b e7 3f 94 98 fc 60 4d 4e cc 3f
       0.7318926000343295 0.22113959537199845
000050 2b 88 7a 3a 58 8e e0 3f 70 65 bd 3e ea 9d e3 3f
       0.5173760549698775 0.6130267358195578
000060 bf 9b a7 76 f3 5e c2 bf 3a 46 a9 48 b2 0e e7 bf
       -0.14352267545402062 -0.7205439967312437
000070 16 b1 68 79 e2 e5 e4 bf 84 e5 cf cc 07 6f d5 3f
       -0.6530620929020496 0.33490176201993216
000080 52 70 06 f6 25 05 f7 3f e4 8d e9 a2 d9 85 ff 3f
       1.4387569055898166 1.9701782573473503
000090 8c 93 dd 42 e7 16 fb 3f 9e 5d c3 54 c2 c9 e4 3f
       1.6930916416106099 0.6496287971048564
0000a0 f4 fc da 24 05 ed e3 bf 51 a1 33 1c 1b 64 e4 bf
       -0.6226831168968645 -0.6372199583829944
0000b0 7f da 7c 5b 70 5d a3 bf 87 71 67 ba 21 b6 d0 3f
       -0.03782225720208476 0.26111643985293437
0000c0 c1 0e d5 0b d6 38 bb bf b7 5c 51 70 15 b0 f2 bf
       -0.1063360003363938 -1.1679891955771333
0000d0 84 56 0f 92 44 2c fb bf 1c 52 61 e1 3a 52 f5 bf
       -1.6983075814690958 -1.3325756839668719
0000e0 5a 32 73 3e ea f3 d4 bf cf a5 8b 9f dc 81 c6 3f
       -0.3273873910773425 0.17583806791598852
0000f0 4e 37 e6 2c 1f fb fe bf 39 e6 ca a0 4e 80 06 c0
       -1.936309028041666 -2.812649971191402
000100 ec 7a 54 5c 1a 00 f2 bf 9d 75 9c 43 ff 5c d0 3f
       -1.1250251394882822 0.2556760940804795
000110 91 12 58 c6 a9 35 e3 3f b1 a9 5a 39 fe 5e b4 bf
       0.6003006814867878 -0.07957447910545203
000120 50 47 13 81 63 f0 e5 bf e9 c4 99 a2 0a 3c e4 bf
       -0.6855943223001564 -0.6323292899889142
000130 a0 59 d6 6e a0 ab b0 bf c6 b6 bc 21 07 cd c1 3f
       -0.06511881547917264 0.13906945369074303
000140 3d b7 0a eb 26 29 b4 bf 6d b9 13 f5 1a e4 cf 3f
       -0.07875293005301116 0.24914872137692204
000150 85 80 6c 64 e3 6a 9e bf cb 15 19 7d 29 ad ee bf
       -0.02970462131918385 -0.9586379473991483
000160 a2 05 a1 51 99 8d fe bf c3 35 f7 1a 27 be 01 c0
       -1.9095700443871029 -2.2178480250065333
000170 6b c1 30 e8 07 d4 f4 bf 44 4e a1 6e 44 d5 d9 bf
       -1.3017653531970506 -0.4036418037769389
000180 9f 57 2c ee 5c 70 d0 3f 98 4e a9 e0 5b f1 d2 3f
       0.25685809382536634 0.29598137797914026
000190 ab 8f 18 5c 02 ac e5 3f 9f b1 5e 32 2c db f8 3f
       0.6772472189663764 1.5535089461874134
0001a0 f9 c8 df 2c de c7 f8 3f e8 29 32 04 3f f1 fa 3f
       1.5487958672425164 1.6838979877380726
0001b0 33 ba 9e 92 19 60 f5 3f 81 d8 67 2e 5a 35 e4 3f
       1.3359618880600805 0.6315127283439922
0001c0 13 3d e5 7d c4 ef a2 3f 11 7d 17 6e 5b b0 bf bf
       0.0369855312043176 -0.12378474653040807
0001d0 ab 14 ac b4 fa 60 d1 3f d0 43 aa 3a f0 e6 d1 3f
       0.2715441479088649 0.2797203610326138
0001e0 e8 96 2a a1 b7 20 c8 3f c4 fa cf 21 35 f8 6d 3f
       0.18849845284892486 0.00365839364394502
0001f0 63 99 15 c9 75 85 b0 bf 5f c4 0e 63 3f 2d c5 3f
       -0.06453643950735492 0.1654433473281953
000200 96 ef 68 18 4c 78 d8 3f 8b 9d f4 49 1b 0d db 3f
       0.382342361295508 0.42267496320933934
000210 60 91 0f d6 dc 0e a7 3f 04 75 03 04 37 ed f7 bf
       0.04503526795432111 -1.4954137951638709
000220 81 33 f2 b9 69 b3 0b c0 fa 22 d4 8b c0 db 02 c0
       -3.462604000762838 -2.3573008464921914
000230 91 84 46 a7 f8 9d d5 bf 48 8c 8c 36 9d 99 c1 bf
       -0.33776680312627955 -0.13750043071294926
000240 b7 72 43 ad 23 26 e2 3f 32 27 7a a5 14 3f f3 3f
       0.5671556839038975 1.202900549311789
000250 88 1c c6 fb 53 d1 fa 3f 82 3a df 92 6f 06 f9 3f
       1.6761054835240277 1.5640712487399075
000260 d2 1e e2 7b 10 27 f2 3f 9c ff 62 4c 1b 98 ec 3f
       1.134537204665254 0.8935677043846115
000270 29 07 46 f1 ac c7 e9 3f 7c d0 b1 0d 69 e0 d6 3f
       0.8056244575857124 0.3574469217048841
000280 dc 21 57 60 b9 f6 ee 3f 81 16 87 db 59 e2 f6 3f
       0.9676176911971726 1.4302614760685233
000290 c4 74 8a bd 7a 55 e2 3f 1a 68 45 9d 40 78 c2 bf
       0.5729345037431348 -0.1442948120046033
0002a0 36 b0 17 e8 b3 b1 e4 bf bc 23 c6 ea aa 7f f2 bf
       -0.6466922314698482 -1.1561688586100294
0002b0 6f 2f 70 67 f1 d8 f9 bf 69 f2 6f 29 ba 9b f5 bf
       -1.6154645958476654 -1.3505193346637958
0002c0 f7 92 40 02 69 94 d9 bf d8 07 1a b0 44 60 50 bf
       -0.39968323917336995 -0.0009995146541830115
0002d0 8b bb fe 30 3d 95 ba 3f 1a 1d 10 f6 2e 9c d3 bf
       0.10383970686119263 -0.30640768079361325
0002e0 ec f0 23 55 ef d8 f4 bf 2f 17 ab d4 a6 a4 f9 bf
       -1.3029626203343083 -1.602698164687762
0002f0 3f a2 8e 16 54 24 f0 bf 97 57 67 5b c5 56 d1 bf
       -1.0088692551745593 -0.27092107702389384
000300 93 9a 8e cb 6b e6 d5 bf 4c 5c 3b 81 85 ab e9 bf
       -0.34218878630273614 -0.80218768349267
000310 ed 61 b2 b1 2f 3d f3 bf 3e 3e c1 62 09 0b e9 bf
       -1.2024380627900613 -0.7825972489171773

visible_bias f8 [10]
000000 94 89 b0 e1 e9 95 e1 3f cf bc 74 93 18 04 e8 3f
       0.5495499999999987 0.7505000000000112
000010 ed 36 ab 3e 57 5b ec 3f d1 5d 4b c8 07 3d e7 3f
       0.8861500000000128 0.7262000000000005
000020 db d4 78 e9 26 31 e1 3f 97 08 1b 9e 5e 29 e4 3f
       0.5372499999999961 0.6300499999999997
000030 80 39 b4 c8 76 be e4 3f aa f6 75 e0 9c 11 dd 3f
       0.6482500000000044 0.4541999999999954
000040 cf 93 87 85 5a d3 b4 3f 09 8a 1f 63 ee 5a ce 3f
       0.0813499999999998 0.23715

hidden_bias f8 [10]
000000 34 80 79 ac 96 b1 04 40 5a 30 b6 bf c8 e9 f3 bf
       2.586713168580923 -1.2445762146699253
000010 6d 71 bb 93 a1 d9 03 40 63 e2 17 be 6b fc 08 40
       2.481265215070542 3.1232523776091496
000020 3a 27 3b 46 c8 7c 07 40 96 a0 81 67 40 ae 0b c0
       2.93592886798879 -3.460083778994952
000030 dd 5d bb 4c 70 61 05 40 ed 35 dd 52 3e fe 09 c0
       2.6725774759940877 -3.2491423105009205
000040 52 92 57 cd 52 77 e5 3f 26 f4 02 26 f6 23 0e 40
       0.6708158503138952 3.7675593347216987
