Data/TFIM1D/Energy/Q150/Trial2.pt (torch_old, 106904 bytes, 3 tensors)

weights f8 [87, 150]
00000000: db5d 0e6a d6dd 99bf 3dfe 8ed3 ec05 b23f
00000010: 1c5d 3966 51d0 abbf 1acb 32d8 e5a2 9ebf
00000020: 2869 2bc0 4b86 a2bf 4f94 f3cc 8999 963f
00000030: 4e8d ce76 fbce c53f 79ab d138 7f3a b4bf
00000040: 3ae9 9c8d 9e0a c0bf ac2b eba9 353f a63f
00000050: a7f3 2bdf 8530 983f 3951 4498 3005 a63f
00000060: 4e42 ddd9 d41d 93bf c2b2 d8a1 beb9 bc3f
00000070: 60c1 e5c9 2685 b53f 6a7a 4f3e f7f6 b93f
00000080: 5768 4306 e203 afbf 9421 30f7 363a 96bf
00000090: 17ed ec59 ef69 a4bf 992d 3fb5 4f35 a13f
000000a0: 758e 0f19 ad30 b03f 9e30 5bd9 5a7a 83bf
000000b0: badd 0e59 c585 843f d441 9779 cb49 a1bf
000000c0: 13da 345f ec66 703f 3405 fdcb d2f4 5d3f
000000d0: b8bb a54a 64e5 b13f a64a cce6 74d6 963f
000000e0: 8357 51b0 a94e b7bf c3d6 3d61 079d a7bf
000000f0: b149 ac34 cc77 c4bf 90a4 dae3 67aa 8f3f
00000100: 9897 b356 a035 60bf 6b29 321d 8186 a73f
00000110: 3fcf f1e0 077d a0bf c7cb 49d0 6fc2 a6bf
00000120: ba9f eee6 a09b b7bf 6a15 f8dc 690f b2bf
00000130: 4702 3bbd e749 c43f 625e c467 891c bf3f
00000140: c254 27c0 b43b 953f 2ae7 f3e8 6e7a c3bf
00000150: ba7c 1dbd b8c9 c1bf 2aab 6eb8 c4aa 633f
00000160: 49c8 4922 631f bb3f 4680 29ac 2c61 91bf
00000170: 65ac 3f1b 705e c5bf 1c6d 304b 2d9c 973f
00000180: a937 86cf 9caf a13f 1fe4 251c 14dc a2bf
00000190: cf2f 712d b19d a4bf 2769 bcd4 a066 9dbf
000001a0: 49cc e693 8e91 913f ce34 d29c 6dd3 a33f
000001b0: b041 7f54 1acb a73f 7c66 cbd5 04c8 a23f
000001c0: 6154 5657 bdb4 953f 4f9f b02d 4083 c1bf
000001d0: 8bd3 18c5 160e b5bf 1142 272d 6135 97bf
000001e0: 1902 1a68 4da8 bebf 6e80 7185 38c6 823f
000001f0: 4eea 67d1 8f52 c23f c5e5 0ea3 422b 99bf
00000200: f50b f7b8 9486 bc3f 2cda f3e3 efae 963f
00000210: eb13 5dc9 04c1 67bf 63d2 a689 5f91 823f
00000220: 44d6 56bc 1241 a33f ccd6 5cc0 4335 b8bf
00000230: 1779 63be f0b6 64bf b418 f297 6c32 a03f
00000240: 756c 727c 3b59 aa3f 38e2 10b4 1749 a13f
00000250: 4c3f eae3 bb7e 9dbf 0aed 8ca1 2b22 a63f
00000260: 146c 758b 7867 87bf 4149 d981 2b63 ad3f
00000270: 2161 923a 68c2 b1bf 828b cf79 43ac c0bf
00000280: 115c 2a0c 4e09 bfbf ce44 8bcd b818 a43f
00000290: 143e 4e89 517e a0bf 9975 1c13 678f bf3f
000002a0: 3c71 b9f1 fed1 813f 6a4d 8ebf 1a2f a5bf
000002b0: 1b49 1c1e 487f b23f 57ab 0c89 89cc 673f
000002c0: 59fc b90b a51b 81bf 772f 5dc0 9f15 9abf
000002d0: 6154 19ce 6d97 afbf b01e 12be 10be c1bf
000002e0: 2619 1f70 9354 b8bf 3a8d 74e9 c6d8 b4bf
000002f0: c433 a3eb 7546 ac3f fe7c 9e3c b787 b33f
00000300: 4fd5 29a1 17b0 c5bf 3674 e2b1 d472 c1bf
00000310: 9a7c 91bc e53b d6bf 6ad4 4c61 dfb5 01c0
00000320: acab 5413 042e 16c0 30ee 1e42 ef1b 02c0
00000330: 1dc1 064a 906f d7bf c0bf 11a7 601f d5bf
00000340: 152c a18c df90 d3bf 1ccb 151d 7f33 9cbf
00000350: 3b3e fe79 9e4f b2bf 84e4 942f da9c bdbf
00000360: a7f8 e79f 92ee a63f 47db 98b8 535b a2bf
00000370: 9fd9 f0d3 b878 81bf 772d d189 8b00 b3bf
00000380: 2c07 3d0c ca30 903f 44fb 8933 cffe c13f
00000390: fc15 2a51 cb43 b9bf 6932 502a 6e4f b6bf
000003a0: 5e65 fc6b 5b6b bd3f 2944 aea9 00b5 93bf
000003b0: e2d9 8f4c c981 72bf 410d 931a 60ac aa3f
000003c0: e76d 467e 7867 973f 0751 87c0 1cfc 9dbf
000003d0: 70da b342 ef7f bcbf 2121 dcbb cea7 b1bf
000003e0: cf10 7fce 2c30 a3bf 65e6 50b0 6dd0 bb3f
000003f0: 39d3 fcde 3cb5 b0bf b2af 0d07 f06c a5bf
00000400: fc0c 5630 0b53 953f e867 d921 7b28 9cbf
00000410: 9d93 dda4 a260 913f 44ca 7602 46f3 b1bf
00000420: 434b 5b95 9a22 79bf 6e35 d747 89f5 a13f
00000430: b7fa 7f57 93df af3f 12eb 5911 0238 a13f
00000440: 38b2 c974 2672 a03f 9fb7 4f02 250e a6bf
00000450: 1422 ab8d fed4 b3bf 11e3 3be7 65b7 b2bf
00000460: d9db 0fe5 bbfc b43f 668f 1522 a96b bb3f
00000470: 8d79 a8f3 4614 a73f ce72 2f40 c737 913f
00000480: 7c71 2726 73de 9a3f ef5a 319f 466b b3bf
00000490: ea15 f606 8886 9bbf 37be 2e81 d4d0 92bf
000004a0: 4a03 3583 6f55 ac3f 1410 bc67 80a1 ac3f
000004b0: 4c53 d75c f170 a0bf 1a4b 2564 4b33 92bf
000004c0: c0cf 60fd c098 acbf 6a54 536a 8aa2 8bbf
000004d0: 416f 0408 e9bd 933f 6c36 f099 50b1 a6bf
000004e0: 05e5 f4e1 cd39 ad3f cc61 4354 7519 bd3f
000004f0: 6966 643e decc ac3f d196 8d1e 0460 b63f
00000500: 00db 3e16 0997 a6bf 7f73 849a 0fa1 bbbf
00000510: 30b5 37bc a70d b1bf 96a7 5f90 4a58 adbf
00000520: 8a2d cf46 33de b93f 7586 0a75 6acc a63f
00000530: bffe 9432 a29b a63f 5cc7 8710 2d86 953f
00000540: a07b 4296 6a0e b63f c92a f242 ec33 7e3f
00000550: 6a7e 1a8c ba8d b33f 1631 0927 213e 473f
00000560: 4e2c b3b8 dc11 92bf b3c9 f194 3e73 c3bf
00000570: 113e 292d 80c2 bbbf 0e7c 54e1 7903 a6bf
00000580: d9e5 cd1a abdf 823f b9de 232d aa99 8dbf
00000590: 5f0c 96b1 92b4 8d3f 66e5 8af5 64e3 8cbf
000005a0: 5623 2779 186c 993f 3c34 f6f2 171c 9a3f
000005b0: 59ee 1135 4d73 ab3f 307d 7e86 9c8f c43f
000005c0: 9443 8deb 9eb6 783f 7405 2719 ca12 b63f
000005d0: a7b3 a374 ca7f a7bf 26e2 678c e8c5 afbf
000005e0: 8491 4839 b6b4 96bf 18e0 77f5 d81f 9e3f
000005f0: 0baf 1273 8899 b4bf d389 26cc 263b c1bf
00000600: 5a3c 0390 9f0b a53f 8a8b a7e2 a9f8 a5bf
00000610: 074d 1fdb 0e6f ac3f 96fb 2a07 3918 b53f
00000620: 3063 f24f 4db3 b73f a1c4 83b4 290a 7b3f
00000630: 815b 76f9 ca05 91bf 79a8 07fb 36f7 693f
00000640: 876e 8e20 fc45 b3bf ffb6 ffa8 1502 a7bf
00000650: ce93 eedd 7669 723f 8179 76ae eca4 8c3f
00000660: 6d31 b726 9f2f 9e3f 68d9 81be d852 aa3f
00000670: 412f 019b 9c92 a53f 097c 6c1d bd7a b3bf
00000680: a523 c0fd 463f 92bf f985 8d5f 902a 9b3f
00000690: c5f4 4272 e7b5 73bf 639d b69f e73b 85bf
000006a0: 4063 aab0 8968 b8bf 8ba9 424d 10d8 b73f
000006b0: 8eed 520b 68ef bf3f 05a2 cc98 14d8 9f3f
000006c0: dbae bee8 06d1 a9bf 2d53 012c b106 a2bf
000006d0: 7a8a 08a5 1f83 b63f 8af3 35eb a88d 63bf
000006e0: 0dd0 f2ac 2546 963f 338c 3ad9 943c a0bf
000006f0: 1035 30b6 8768 9b3f f809 d139 3fb2 9ebf
00000700: 4fda 6c08 ad3c 88bf 4c85 7395 0a07 a7bf
00000710: 9cd6 e112 3ff7 b83f 86ab 8ec8 f2ad 84bf
00000720: dba5 84c1 1cb1 96bf 7b5c 9c47 c1d7 b5bf
00000730: 545a d49e 4b74 a1bf be81 aa05 d2b0 c2bf
00000740: 69b4 7b02 4863 babf de4d ab4a cbfa a9bf
00000750: 60cd 4348 a9a3 953f 6f6b 6fbc 8712 ab3f
00000760: 8d3a 2e7a 05d0 b53f cdac b632 77ef 7abf
00000770: e3ac f9f4 c11e 98bf 30a6 adaa a4b4 b83f
00000780: 4c79 2167 4604 a33f d810 42e4 c393 b5bf
00000790: c45d c730 2a88 ab3f 4f4d fcbe ee4d c23f
000007a0: 5d2e 9017 48de bebf 527b 92bd 6c4f 9dbf
000007b0: fec7 4f93 bc73 ba3f 278b b8a1 0010 b5bf
000007c0: 9f1b 09d2 39bf 96bf 8e8b 8fc0 7d52 b6bf
000007d0: edd9 491b da9d afbf fa4c 2f99 9e0c 9bbf
000007e0: e40e 9bc8 04d2 c93f 56fc a75e 7013 863f
000007f0: 9046 7d4f 5e3b a03f 7a12 99f5 fff8 cfbf
-0.025260305617477257 0.07040290989879679 -0.054323714951062224 -0.029918280907348473 -0.0361808464128493 0.022070077070470536 0.170379097949175 -0.0790175927847211
-0.12532407679266006 0.04345100115968789 0.02362260031349064 0.04300834521032688 -0.01866848544824711 0.11220923854188938 0.08406298092973463 0.10142464896441941
-0.06057649923759872 -0.021706446492346723 -0.03987071964953708 0.03360985839352821 0.06324273931346076 -0.00951071716135515 0.01002077272447265 -0.03376613482726368
0.004004405334220101 0.0018283899843967834 0.0699064905399912 0.022302462183754777 -0.0910440497840153 -0.04611990987807026 -0.15990593501972009 0.015461742058805933
-0.0019786960234453137 0.045948061765630786 -0.03220390911965731 -0.04445218484479301 -0.0922184528159268 -0.07054769177201128 0.1585054086663311 0.1215291860902368
0.020735573032500516 -0.15217386603017619 -0.13896855577602257 0.0024007646747653726 0.10594768130411682 -0.016972253807012082 -0.16694451647285571 0.023056705202276637
0.034542942364267866 -0.03683531612018264 -0.04026559524262973 -0.028711808189748524 0.017156818177408693 0.03872244395561496 0.04647142678698246 0.03668227300449886
0.021197279410973716 -0.13681795340493827 -0.08224623023927628 -0.02266456449598492 -0.11975559035818896 0.0091671386455234 0.14314458584688555 -0.024579087450296706
0.11142854228732786 0.022151706970328686 -0.002899655674726711 0.009066339863104738 0.037605844011903616 -0.09456275411943266 -0.0025286390328879238 0.03163470606618671
0.05146203893783589 0.0337607772166319 -0.028803764139012686 0.04322944972087768 -0.011427823787633108 0.05739723167484324 -0.06937266759849027 -0.13025706718243774
-0.12123573109634857 0.039251113024542414 -0.03221373368353056 0.12328190056401524 0.008701316596834922 -0.04137500370338894 0.07225466475600621 0.0029051481473251583
-0.008353509350170695 -0.02547311412426675 -0.061702186020433876 -0.13861283570098726 -0.09504052626934775 -0.08143275451270862 0.05522507192072326 0.07628960828741424
-0.16943641061122114 -0.13631685910959995 -0.3474058476912859 -2.213804969937475 -5.544937421839602 -2.2636399427117553 -0.3661843035615833 -0.3300401336227843
-0.3057173608146411 -0.027540193700995905 -0.07152739027355264 -0.11567462598476835 0.04478891565303061 -0.03585301998503226 -0.008531040161057045 -0.07422706713366788
0.015811116215679252 0.14058866516639956 -0.09869070750763592 -0.0871495106986885 0.11491938959479372 -0.019245157581796377 -0.004518305134288943 0.05209636997599399
0.022855646807881682 -0.029282044650089236 -0.1113271272514369 -0.06896679006979813 -0.03747692127902413 0.1086491160830519 -0.065265469017345 -0.04184675298787911
0.0208245990993534 -0.02749817270373703 0.016970197022050482 -0.07011830864102203 -0.006136516419888607 0.035076417941676805 0.06225262110819101 0.03363043271834533
0.03212089706071136 -0.043076664478447706 -0.07746878584578837 -0.07311093230590539 0.08198141424496387 0.10711152155050527 0.045076577418728815 0.01681433991676578
0.026239203647365525 -0.07585564981978242 -0.026880383896715467 -0.018374748596839487 0.055339321867455896 0.055919659293096086 -0.03211168535532369 -0.017773797976882034
-0.055852919511749644 -0.013493615503117524 0.019279137720430887 -0.04432155493860254 0.05708163626918331 0.11366971308905888 0.056250519863351674 0.08740258928227297
-0.04412105938484068 -0.10792634508511688 -0.06661461205631691 -0.05731423389791172 0.10104675749533079 0.04452831915592707 0.044156140017091776 0.02101965344804256
0.0861574761242836 0.007373736282839168 0.07638135834212681 0.0007093107106555276 -0.017646263859927118 -0.15195448181800728 -0.108436594987545 -0.042995270496469215
0.009215676074506728 -0.014453248503272108 0.014504571957109911 -0.014105595343937249 0.02482641448458208 0.025497793392379217 0.053614056328083755 0.1606326729497396
0.0060335357491831006 0.08622420419762539 -0.04589684175321134 -0.06205679620683595 -0.0221737358534866 0.029418363554185673 -0.08046772775076876 -0.13461766212738144
0.041104303674381185 -0.04291277782228693 0.055534805534671654 0.0824008600711593 0.09257968141390616 0.006601488981901189 -0.016623660541508215 0.0031696389998972477
-0.07528663439591742 -0.04493777931189235 0.004495109867012693 0.013986443590337629 0.029478537309658593 0.05141331983115799 0.04213418380876855 -0.0760915943942423
-0.01781950877924356 0.02652955611427463 -0.004812149131052827 -0.010368165551723768 -0.09534512103199422 0.09314062010040496 0.12474680210555375 0.031097719026691468
-0.05042287436603284 -0.03520730650112678 0.08793828753599967 -0.0023868846125751396 0.021751965218484815 -0.031712199704337606 0.02676593827714152 -0.029976833251803087
-0.011834480113617788 -0.04497559618335831 0.09752268038740869 -0.010097405190966812 -0.022160004912768243 -0.08532341001806458 -0.03409038842999182 -0.14602113033926217
-0.10307741222978141 -0.050741532196891134 0.021132130656906667 0.05287574935183314 0.08520540459560717 -0.006576028459146244 -0.023554831101518025 0.09650639693213559
0.037141990746692416 -0.08428596804339195 0.053773230032387015 0.14300331426111731 -0.12057924819253558 -0.02862329394394731 0.10332850071407049 -0.08227542827857502
-0.02221384376960211 -0.08719621611775905 -0.06175119002448413 -0.02641532716718318 0.20172176165771483 0.010779264343908117 0.03170294494942738 -0.2497863721092875

visible_bias f8 [150]
00000000: 0c30 08ac 1c5a ec3f ab34 5eba 490c e63f
00000010: 11af 47e1 7a14 d6bf d6f9 7e6a bc74 e5bf
00000020: 810d 2db2 9def f1bf a494 f606 5f98 e8bf
00000030: 3137 b4c8 76be df3f 89af 69de 718a de3f
00000040: 1d7f 6abc 7493 e4bf 1010 363c bd52 f3bf
00000050: 2fbc 0512 143f f5bf c0b7 af03 e78c f1bf
00000060: 3e9f 3c2c d49a d2bf 160c 93a9 8251 e93f
00000070: 5ce3 61a1 d634 ef3f 2377 0b24 287e cc3f
00000080: cdb9 b88d 06f0 e8bf a694 8785 5ad3 e6bf
00000090: ebc9 c342 ad69 f1bf 66b5 9999 9999 89bf
000000a0: 4ec5 feb2 7bf2 f13f 6eca a145 b6f3 eb3f
000000b0: 6c05 1214 3fc6 ea3f 131f 166a 4df3 d23f
000000c0: a394 d409 6822 e4bf 0e64 5ddc 4603 dc3f
000000d0: b23f a4df be0e e83f d785 eb51 b81e d1bf
000000e0: d305 3411 363c edbf 8457 ec2f bb27 d3bf
000000f0: ebc0 1726 5305 cbbf 3016 8c4a ea04 e6bf
00000100: 2f21 c9e5 3fa4 c73f 2996 b20c 71ac f43f
00000110: 7424 287e 8cb9 e93f 7b58 39b4 c876 debf
00000120: 991b ae47 e17a a4bf 6c6b 4df3 8e53 e43f
00000130: 4b7f 26c2 86a7 f93f ab27 ed0d be30 f73f
00000140: a741 cf66 d5e7 f63f 5b5c 8fc2 f528 f03f
00000150: 301e f46c 567d d2bf 5d7c 1d38 6744 d53f
00000160: 964c 840d 4faf e83f 395d 764f 1e16 c23f
00000170: 41ed 9e3c 2cd4 e0bf 164b c807 3d9b a53f
00000180: fa93 6588 635d e43f 492f dd24 0681 d53f
00000190: 71b3 ea73 b515 e1bf e25f 984c 158c e2bf
000001a0: 4cba 490c 022b e5bf 98e1 be0e 9c33 c23f
000001b0: 33f1 d24d 6210 f33f 886d 3480 b740 ec3f
000001c0: 0082 2f4c a60a ec3f 6f9b 2a18 95d4 d13f
000001d0: ba8e 5374 2497 e7bf 6ef0 a7c6 4b37 ebbf
000001e0: 7fbf ec9e 3c2c e2bf 24fe 21fd f675 e8bf
000001f0: 72e6 8c28 ed0d e8bf e747 4772 f90f b9bf
00000200: 5d87 635d dc46 f63f 9fe2 a59b c420 f53f
00000210: 0928 0f0b b5a6 f13f 8066 6666 6666 f13f
00000220: 1f63 3bdf 4f8d f13f a0e9 95b2 0c71 d03f
00000230: ec09 4625 7502 dabf 167d 1d38 6744 c93f
00000240: e3a5 79c7 293a e83f 71cf 66d5 e76a f03f
00000250: 3161 c3d3 2b65 e33f c4eb 0434 1136 bc3f
00000260: 4e18 e258 17b7 f0bf 863a 92cb 7f48 f0bf
00000270: ecf8 0fe9 b7af f1bf 0ddd 0209 8a1f f6bf
00000280: 447c aeb6 627f f6bf 8751 b81e 85eb f3bf
00000290: eb5d 984c 158c f2bf e2f3 6c56 7dae f1bf
000002a0: 314c 7b83 2f4c b63f 2bb0 e1e9 95b2 ea3f
000002b0: 3af3 6c56 7dae e83f ac9a 559f abad f13f
000002c0: 9e10 7a36 ab3e ef3f ae86 855a d3bc f13f
000002d0: 52c7 e53f a4df da3f 2d15 fbcb eec9 e1bf
000002e0: 350a de02 098a 7fbf 78e0 7a14 ae47 ef3f
000002f0: 538f 0f7a 36ab e43f 1b69 6ff0 85c9 e43f
00000300: 2350 da1b 7c61 f53f 5b48 0c02 2b87 f83f
00000310: 7fcf 44d8 f0f4 f53f d6d9 1b7c 6132 f83f
00000320: 5d44 4772 f90f f73f bf14 ae47 e17a d43f
00000330: 00a4 703d 0ad7 e5bf 30c6 ec9e 3c2c 943f
00000340: e761 1058 39b4 b8bf a62b 431c ebe2 ecbf
00000350: caa9 a301 bc05 523f 7183 7cd0 b359 eb3f
00000360: cde8 2631 08ac f83f 9006 5f98 4c15 e43f
00000370: df3b 075f 984c 55bf d7c6 bab8 8d06 b03f
00000380: b316 b7d1 00de e63f 5a07 ac1c 5a64 f43f
00000390: 8fee 5a42 3ee8 f33f 4ae5 61a1 d634 f33f
000003a0: 4c6e 8104 c58f f83f 3d97 ff90 7efb f13f
000003b0: b32d 2aa9 13d0 c43f df1f 41f1 63cc e1bf
000003c0: 2f13 e258 17b7 a13f 3197 ff90 7efb c23f
000003d0: fbc6 e53f a4df de3f fa81 c0ca a145 f23f
000003e0: 1703 780b 2428 f63f d42c 211f f46c f13f
000003f0: ec89 1f63 ee5a f13f a3e5 61a1 d634 bf3f
00000400: 2004 c58f 3177 e9bf c5ed 0dbe 3099 f0bf
00000410: a7f7 75e0 9c11 efbf ba13 3fc6 dcb5 f2bf
00000420: 1370 5f07 ce19 e5bf 89be 0e9c 33a2 d43f
00000430: f309 6822 6c78 ee3f 41e8 482e ff21 f33f
00000440: 2259 a835 cd3b f13f 751c 3867 4469 e13f
00000450: 2a49 94f6 065f a83f 9395 438b 6ce7 ef3f
00000460: 20ad 47e1 7a14 f23f a12b 1895 d409 f13f
00000470: 595d 2041 f163 d83f c351 b81e 85eb e1bf
00000480: 1fad fa5c 6dc5 ce3f a759 b1bf ec9e d83f
00000490: 062d 6519 e258 d3bf 23bf 9f1a 2fdd cc3f
000004a0: 0e5f e5d0 22db f43f 3dc5 8f31 772d f03f
0.8859999999999686 0.6889999999999835 -0.345000000000014 -0.6704999999999994 -1.1209999999999527 -0.7686000000000104 0.4959999999999694 0.4772000000000323
-0.6430000000000039 -1.2076999999999352 -1.32790000000001 -1.0968999999999909 -0.2907000000000045 0.7912000000000059 0.9751999999999543 0.22259999999999378
-0.7792999999999722 -0.7133000000000222 -1.0882999999999992 -0.012500000000012345 1.121699999999993 0.8734999999999908 0.8366999999999911 0.29610000000001085
-0.629199999999987 0.4377000000000074 0.7517999999999943 -0.26750000000001023 -0.9136000000000258 -0.29930000000000967 -0.21109999999999415 -0.6881000000000252
0.18470000000002915 1.292100000000014 0.8039000000000116 -0.4760000000000059 -0.040000000000012643 0.635200000000038 1.6033999999999249 1.4493999999999498
1.4315999999999833 1.0100000000000111 -0.2888999999999866 0.33229999999998033 0.7713999999999881 0.14129999999998136 -0.5259000000000144 0.0421999999999995
0.6363999999999799 0.3360000000000026 -0.533900000000001 -0.5796000000000243 -0.661499999999998 0.14220000000001387 1.1914999999999736 0.8828999999999931
0.8762999999999579 0.2786000000000319 -0.7371999999999936 -0.8505000000000231 -0.5678999999999944 -0.7643999999999704 -0.7516999999999838 -0.09790000000000952
1.3922999999999413 1.3204999999999598 1.1032000000000173 1.0875000000000057 1.09699999999993 0.25689999999999635 -0.40639999999998966 0.1973999999999953
0.7570999999999767 1.0261000000000104 0.6061000000000033 0.11020000000000524 -1.044699999999938 -1.0177000000000205 -1.1053999999999702 -1.3826999999999459
-1.406099999999939 -1.2449999999999777 -1.159199999999937 -1.1050999999999864 0.0871000000000073 0.8342999999999895 0.7712999999999746 1.1048999999999678
0.9764000000000299 1.108599999999949 0.4198999999999745 -0.5558999999999849 -0.0077000000000020845 0.9774999999999769 0.6458999999999641 0.6495999999999954
1.3362999999999452 1.532999999999922 1.372299999999967 1.5122999999999727 1.4413999999999512 0.3200000000000038 -0.6825000000000045 0.01970000000000577
-0.09649999999999857 -0.9026999999999716 0.0011000000000033088 0.8546999999999639 1.5419999999999618 0.6275999999999886 -0.0013000000000038465 0.0625999999999992
0.7145999999999816 1.2744999999999522 1.2442000000000097 1.2004000000000183 1.53509999999996 1.1239000000000055 0.1625999999999813 -0.5561999999999861
0.034599999999988966 0.14830000000000035 0.4823999999999697 1.1419999999999377 1.3847999999999894 1.0890999999999638 1.0846999999999936 0.12190000000000238
-0.7957999999999892 -1.0374000000000347 -0.9709000000000189 -1.1693999999999805 -0.6594000000000072 0.3223999999999952 0.9522000000000034 1.1957999999999773
1.0771000000000375 0.5440999999999706 0.04760000000000482 0.997000000000002 1.1299999999999457 1.0649000000000586 0.3811000000000227 -0.5599999999999955
0.24040000000000192 0.384699999999976 -0.302300000000017 0.22550000000000478 1.3034999999999317 1.0111000000000125

hidden_bias f8 [87]
00000000: b492 d126 9c3d 1940 2c25 9919 5c95 1a40
00000010: f67a 917c bf6b 1bc0 f645 f1da 61cc 1740
00000020: 4380 d7fe 1645 1840 c179 f155 821f 19c0
00000030: 528a 48b2 3bcf 19c0 fbde 5aa0 fdc6 18c0
00000040: 3e48 9421 0caf 18c0 a640 6a28 0cc8 15c0
00000050: 07ea e1c8 ea0c 19c0 c648 9d86 c098 17c0
00000060: 28e4 aee7 9c1e 1540 e4c7 3086 7242 1a40
00000070: 2501 3d68 74cd 17c0 8006 c833 1e8b 1b40
00000080: 3eeb 1e6d ce03 16c0 c5d9 d5e3 711a 1840
00000090: 7ae9 bd20 cd1d 1a40 f667 67fe 927b 1940
000000a0: 31ce 0e93 ec62 f33f 17a7 5364 a8aa 15c0
000000b0: 4ca3 3735 391d 1840 eb47 9b56 51e5 1740
000000c0: 32c9 d79a 6101 1140 a730 12b9 b845 f7bf
000000d0: 6217 c820 89d0 12c0 4b2c 5f86 1c09 1bc0
000000e0: 63a8 c5ea b111 1740 84e3 3c18 c547 19c0
000000f0: fdc4 bb2d daa9 16c0 42d9 518a 4eb5 19c0
00000100: 7b16 d0b1 f6bf 1840 9485 7c05 097d 15c0
00000110: 5ea9 33e6 da0c 0940 208d c424 2e06 1ac0
00000120: f67b b7d2 d69e 1740 7e70 0547 9697 f93f
00000130: 66ba 4b82 68d8 dc3f d8b5 dcbc cb8b 1840
00000140: 54c7 8252 1119 f73f 37a7 8170 883f 16c0
00000150: f6ff ffce 7b19 1ac0 400b f9ba 18ec fb3f
00000160: 239c 34e5 d0f5 16c0 7276 eac1 a34b 1940
00000170: d164 c963 f8f2 18c0 47cc 305e 22ec 18c0
00000180: 98c5 c64a 5010 1840 abcf 6706 94f6 1640
00000190: 615f 0f1b d76e 1840 35c5 e7ba 883b 1740
000001a0: bd10 d195 e9a7 1ac0 8ebe 2c9a e0cc 1740
000001b0: b158 b536 c0a0 15c0 5480 c0dc 6f0f 1640
000001c0: 4be9 0040 3c77 1540 f83b f862 981a 1440
000001d0: b39a dba9 b731 1940 5267 b2c6 9357 ef3f
000001e0: 0e7a a294 d482 1b40 f517 cd3d 130c 1740
000001f0: 7ba2 94e2 4126 19c0 b695 ec5d 9299 dc3f
00000200: 0a59 f617 8bca 1a40 f924 5d92 91ed 1740
00000210: b94e c3a8 b276 f83f 8e65 473d 5a82 16c0
00000220: a0b2 5c80 6093 f03f d41e 7a7c 525d 19c0
00000230: 4ac4 5bf5 f837 1ac0 8f6e 43d7 8532 1940
00000240: 4ed3 5673 5511 d53f e088 8818 097c 18c0
00000250: dbe1 8194 4db4 19c0 478c 4f45 ed57 13c0
00000260: 0a76 71f7 ef50 1840 578e 1073 519a 1740
00000270: b1e9 77a2 6ea8 1040 1333 d044 9292 1940
00000280: 8c7c 66de 29be 1ac0 7a40 d0ea b9e5 1740
00000290: 2f5e 37d9 58ac 18c0 7ad3 93d4 0479 18c0
000002a0: 6f08 e20c c80c 1940 895f ceaf 6b69 1ac0
000002b0: 0456 775c a64b 1a40
6.31016598371632 6.645859146091691 -6.855222650889791 5.949592038131859 6.067470533278597 -6.280770628798963 -6.452376161267766 -6.1943268828833835
-6.170944714236667 -5.445358878598347 -6.26261438254233 -5.8991719277857495 5.279895420121683 6.564890000083299 -5.950639370654504 6.8858574000202
-5.503717141163007 6.0258250808023535 6.529102813330946 6.3706779242147515 1.2116513962217932 -5.416657989125972 6.028538543244235 5.973943093516918
4.251348895473983 -1.454521868642624 -4.703648102009398 -6.758897876318836 5.767280262292931 -6.3200877940333875 -5.6658713479857825 -6.427057420011183
6.18746450264518 -5.372104726529319 3.1312768921390406 -6.506035398956811 5.905116360138882 1.5995085500972261 0.45070851062965855 6.136519385310258
1.4436200354652629 -5.562043912804987 -6.52488635480403 1.7451407722116556 -5.740054684959463 6.323866872725931 -6.237275656859496 -6.2305998532565985
6.015931290037223 5.740799045644887 6.108242438138263 5.808138771434916 -6.6639769944051155 5.950075539570788 -5.406983237093457 5.515075158356996
5.366440773063299 5.025971933747307 6.298552183178503 0.9794405823515524 6.877764055649562 5.761792150156897 -6.287360706636373 0.4468732754924888
6.697796224985959 5.982000624594769 1.5289789764691888 -5.627297360880574 1.035980702795463 -6.341134972528113 -6.554660638547896 6.299338687411036
0.3291829706534387 -6.121128447850623 -6.426077194621452 -4.835866053562376 6.079040399837604 5.90070133007574 4.164484537667179 6.393136096198549
-6.685706591611176 5.974342030487714 -6.16830768013419 -6.118182488939846 6.262481881423908 -6.602949854823131 6.573876805099193
