Data/Heisenberg1DFM/Energy/Q45/Trial1.pt (torch_old, 1360 bytes, 3 tensors)

weights f8 [1, 45]
00000000: 7140 9477 e346 c33f c0a6 f83f 5097 9b3f
00000010: 838c 72af 5f02 c7bf 3b37 2315 c0b7 aebf
00000020: 8fd5 2366 8f6f b0bf 3150 d6d1 cb62 d03f
00000030: 3dd5 699d 7110 c13f 3738 bcd4 3151 c23f
00000040: 1c10 de7e 9bd0 d33f 3532 20d9 ffce aebf
00000050: aed6 cc3c c7a8 83bf 4ff7 1b0e b248 c6bf
00000060: 99fd 0733 ee95 d5bf 3fb2 a675 793b c5bf
00000070: 2490 6379 6a77 b7bf df07 a38a c119 d7bf
00000080: 7c7f ca33 38da d0bf 594c e364 d47a bfbf
00000090: ad0b 24c0 46e9 84bf 3920 efa4 c38b b5bf
000000a0: b1d1 6e89 ab46 b4bf 65bd 2e21 9f85 d0bf
000000b0: cac3 f0e0 7918 c1bf db58 9bb2 d905 9d3f
000000c0: 0975 61a8 9b64 9bbf 67e5 a18a b62e b03f
000000d0: 42b6 f584 c4e2 d13f c4d3 8dbf a381 bdbf
000000e0: 748b c1fe e52f a0bf e784 6054 cc4a c53f
000000f0: cb1c 8f8d c811 d1bf 7d93 ab39 0f55 cabf
00000100: 0b48 66a9 1163 c5bf 1687 e128 209f c8bf
00000110: 61ed fc5f 4a13 9e3f a669 ea88 ac19 bebf
00000120: 2b8d 8bff 9039 c73f 1ac7 44be ae55 c23f
00000130: b375 095d 55ab bbbf 442d dc54 9b67 96bf
00000140: 96cc cc7c 26ee c93f 984f 36fb 991b 9b3f
00000150: f366 f6c1 e4df c23f 3ac7 3ad1 8bfa 68bf
00000160: 3adc c7d7 c7ca bc3f
0.15060084666083953 0.026944402603624296 -0.1797599417378458 -0.05999565370585321 -0.06420227283145706 0.25603003971014276 0.13331432520105038 0.14310286414587534
0.30960738553426537 -0.0601730301424123 -0.009599262755368567 -0.174093491448668 -0.33727602942959717 -0.16587751621900002 -0.09166589225384364 -0.3609470228076343
-0.2633190637370644 -0.12296798194010829 -0.010210564364120456 -0.08416388298712797 -0.07920333962721916 -0.2581556152390106 -0.13355945094511262 0.028342629934592672
-0.026750976707593774 0.0632127846200966 0.2794657991824786 -0.11525939394580492 -0.031615435932301234 0.1663451587674338 -0.2667104132091935 -0.2057208091347568
-0.16708584567510373 -0.19235612865582458 0.029370462521212008 -0.1175792536036285 0.18144428708829116 0.1432398251577574 -0.10808309098634687 -0.02187960343785035
0.20258027166128006 0.026472478826306295 0.14745768996072392 -0.0030491572195722435 0.11246918695529554

visible_bias f8 [45]
00000000: fca9 f1d2 4d62 503f caa1 45b6 f3fd a43f
00000010: fc7e 6abc 7493 a83f f67e 6abc 7493 883f
00000020: 9399 9999 9999 99bf ab9b c420 b072 b8bf
00000030: b01e 85eb 51b8 8ebf 74aa f1d2 4d62 403f
00000040: f6d2 4d62 1058 a9bf 478b 6ce7 fba9 b13f
00000050: 6064 3bdf 4f8d b73f e57a 14ae 47e1 c23f
00000060: 618f c2f5 285c c73f bf49 0c02 2b87 c63f
00000070: 1cd9 cef7 53e3 c53f 88c0 caa1 45b6 cb3f
00000080: 2c5c 8fc2 f528 d03f a31a 2fdd 2406 d13f
00000090: 33dd 2406 8195 c33f be1e 85eb 51b8 ce3f
000000a0: 2c31 08ac 1c5a cc3f 01aa f1d2 4d62 d43f
000000b0: 4560 e5d0 22db d13f c6ca a145 b6f3 cd3f
000000c0: 0fd7 a370 3d0a d33f 4f37 8941 60e5 d03f
000000d0: ce76 be9f 1a2f c53f fc53 e3a5 9bc4 d43f
000000e0: f27c 3f35 5eba d53f 6a66 6666 6666 d23f
000000f0: d722 dbf9 7e6a dc3f 9397 6e12 83c0 da3f
00000100: 5462 1058 39b4 dc3f b672 6891 ed7c db3f
00000110: c49f 1a2f dd24 da3f 500c 022b 8716 dd3f
00000120: a51a 2fdd 2406 d93f 916c e7fb a9f1 da3f
00000130: f751 b81e 85eb dd3f 8e18 0456 0e2d e03f
00000140: 8695 438b 6ce7 d73f ec7c 3f35 5eba dd3f
00000150: 35dd 2406 8195 db3f 7a4b 3789 4160 e13f
00000160: d1ab 1c5a 643b df3f
0.001 0.040999999999999995 0.048000000000000015 0.011999999999999993 -0.024999999999999977 -0.09550000000000007 -0.014999999999999986 0.000500000000000013
-0.04950000000000003 0.06900000000000005 0.09200000000000008 0.1475000000000001 0.18250000000000013 0.17600000000000013 0.17100000000000015 0.21650000000000014
0.25250000000000017 0.2660000000000002 0.1530000000000001 0.24000000000000016 0.22150000000000014 0.3185000000000003 0.2790000000000002 0.23400000000000015
0.29750000000000026 0.2640000000000002 0.16550000000000015 0.32450000000000023 0.33950000000000025 0.2875000000000002 0.44400000000000034 0.4180000000000003
0.44850000000000034 0.4295000000000003 0.4085000000000003 0.45450000000000035 0.3910000000000003 0.4210000000000003 0.46750000000000064 0.5054999999999994
0.3735000000000003 0.4644999999999999 0.4310000000000003 0.5429999999999915 0.48799999999999694

hidden_bias f8 [1]
00000000: 0b7f 7fdb fbe9 c8bf
-0.19464061944653852
