Data/TFIM1D/Energy/Q20/Trial20.pt (torch_old, 2447 bytes, 3 tensors)

weights f8 [10, 20]
2.4025677060658808 5.446918511018665 2.199718672984517 -0.10292868125320065 0.02167298933761184 -0.07278923818016096 0.03816076657809333 -0.03251400820056942
0.010325276727067983 0.02104419028282822 0.0289130123935055 0.4160091247226477 -0.34270206988104285 -0.1125404830122831 -0.052985776310942506 -0.006103740328029941
0.06000715335433201 0.05039316827265613 0.10344261703616327 -0.07860086566980153 -0.01789313075574026 -0.02431698484374825 -0.07438443687620122 -0.10538981044387812
0.00585782045916876 0.19522697637665784 0.03768375122349771 -0.15731678553463035 0.017307840911804123 -0.22097132214176587 0.15123764970584525 0.31363298760610236
-0.07832392082863629 -0.02273227334012494 -0.1822380325405604 0.06776602963774161 0.0008416256433839043 2.2607268648965735 5.782984134127886 2.297893097205831
-0.06657475797359233 -0.4829195407997498 -0.012214557431075653 0.25628589609816976 0.13345115070501032 0.03282878214564823 -0.08736382104849223 -0.3449045334348736
-0.016137596575654015 0.6454272442815014 2.4344490198045796 4.2115609789125665 1.4095220483466147 0.16604727082504786 0.007189103616373227 0.05797064766287298
0.22851635993394287 -0.14842926462278416 -0.3750608449275921 -0.022284203185029137 -0.2888483276544753 -0.7765299768851429 -2.4445428400848543 -5.3618705538308316
-2.4939688869789247 -0.20799182253626905 -0.16947448031397155 0.08426190657096723 -0.13199557585761185 0.11972837822461893 -0.03586031290706932 0.28167976475970585
-0.06286912647270407 -0.02426612316583567 -0.1129089974693319 -0.22375804673780242 0.12545058008817878 -0.04340097514468591 -0.037161472152609516 -0.15549402154590083
0.08478651516567569 0.3017274528708019 0.21828543384779597 0.44658847799750884 2.350625540686612 5.74320777995776 2.375087398422553 0.5869400267162381
0.30024944914891294 -0.055566801269612824 0.1771862448591379 0.14166313727071647 0.09528206269111034 0.16846992645947942 -0.10494108260542909 -0.017349718638358606
0.061525467917128 0.11780031926168626 -0.14673851106560876 -0.027971574150752947 0.0744483686480136 0.08292109212371958 0.1450753472777626 0.2833427963671892
0.2072221526379733 0.036790235950917544 2.07390364794312 5.477788896206492 2.2231966993160572 0.3956940097198342 0.3555093796210132 0.5213151044354928
0.16993346189040812 -0.12891517036935157 0.03461914874780165 -0.04857844167089644 -0.19525982952187165 0.010278779590320839 0.12002757360262126 0.06221372287014777
-0.11182490421226884 -0.5433979964934693 -0.10027117490146363 -0.05546763458951744 0.14999280051962555 0.22912948070840497 -0.1755702272705924 -0.12675376060234678
-0.271032990416268 -0.018770319683345145 -0.19088268469721487 -1.4255495942731728 -4.152919686789282 -2.4954285963628036 -0.2535723868670208 -0.19962725909380938
-0.20812411702004432 -0.3741404354213465 -0.11760791578601475 -0.13641666995050264 -0.005671107368463829 0.12798616722507963 -0.1799807447101178 0.045051472228789
-0.017102415274740213 0.10447970315731046 -0.1712308661740077 -0.1964082900087961 -0.049698546759426095 -0.02590743152243499 -0.05197478587631368 0.03312854594278993
0.08548905832864853 -0.3599823220554302 -0.6753426499207937 -2.453100623765846 -5.757465428017679 -2.375084188630662 -0.6529353885346175 -0.3483976772387485
0.03513938354621309 0.06130714227118998 -0.08541658581372259 -0.028665742284570188 0.052946100951255626 0.1728148316306686 -0.05287453079457477 -0.05985756147497138
0.12991791304386635 -0.1136816407448543 0.19120884243519562 0.17233574068863192 0.4328489213069241 2.2027431656054524 5.238771268261984 2.2629316730375484
-0.02695864602981035 0.24848511657755787 0.28714780002216084 0.12236083933324607 0.04054023705549707 0.08051926061420094 0.1541734230326473 0.006406967375555544
0.18584205811718363 0.014069187907421572 0.4312022773830779 0.26830265330380837 2.3668848124658837 5.4723090076775085 2.1565296057196304 0.14718236252927985
0.10205543740099231 0.2604968093811765 0.22844914999646607 0.16998590646253944 -0.02533443028076852 0.06517022763950024 0.2741129764687991 0.029996413628317287
00000000: 60d4 df6a 7538 0340 6f35 9301 a5c9 1540
00000010: c0f3 861a 0699 0140 308b cdb7 8859 babf
00000020: 5b7a a5b1 7131 963f 330b 7cc5 50a2 b2bf
00000030: 33eb e2d8 ce89 a33f b642 c413 ada5 a0bf
00000040: 5054 eb2e 6b25 853f bf66 24b4 9b8c 953f
00000050: 7ac3 a26a 5f9b 9d3f ea5d 61bc e49f da3f
00000060: 0947 9aa9 d4ee d5bf 5d88 03fe 73cf bcbf
00000070: 243d d1a0 f320 abbf e981 7951 3c00 79bf
00000080: bba6 5df2 41b9 ae3f 1b84 5823 22cd a93f
00000090: 5dd7 2e21 377b ba3f c934 7db3 2f1f b4bf
000000a0: d902 adad 9352 92bf a89d 903a 8de6 98bf
000000b0: 00f4 b6c3 db0a b3bf 0b27 309d d3fa babf
000000c0: b27b c4b4 5efe 773f c7d7 6a93 32fd c83f
000000d0: 58e8 30de 484b a33f acd5 7dd8 f422 c4bf
000000e0: 38e7 b88a 25b9 913f 35f4 f9cc c948 ccbf
000000f0: 928b b45b c15b c33f 48c2 2d18 9012 d43f
00000100: aa17 7456 090d b4bf bcff 3c0a 2147 97bf
00000110: 01af ec6a 9353 c7bf f2e8 1251 1d59 b13f
00000120: a549 914e 1194 4b3f eb5a 6ff7 f715 0240
00000130: ef76 c597 c621 1740 24a0 b1c6 1562 0240
00000140: 7656 3c18 0b0b b1bf 9164 955c 27e8 debf
00000150: ebd7 9c25 f203 89bf 7cbb 8af5 fc66 d03f
00000160: 831f f263 ed14 c13f 12bb 5d23 efce a03f
00000170: 45c2 41b2 795d b6bf 2e13 d676 ea12 d6bf
00000180: b428 1dc6 5f86 90bf d05d 4409 57a7 e43f
00000190: 2bb8 5e68 c079 0340 2928 f670 a3d8 1040
000001a0: f83b cafd 668d f63f 2b4e e476 0941 c53f
000001b0: 5ad2 b74e 5272 7d3f a211 ae27 54ae ad3f
000001c0: 3a35 422a 0640 cd3f fc7e a9ea baff c2bf
000001d0: 3d58 be33 ff00 d8bf 69a6 968f abd1 96bf
000001e0: d8ef 31b2 7d7c d2bf fbba e264 55d9 e8bf
000001f0: eaae fe79 6c8e 03c0 f65a c831 8e72 15c0
00000200: 2c87 b6f5 a5f3 03c0 9d79 d0dd 799f cabf
00000210: d640 3afb 56b1 c5bf 795a 0535 3092 b53f
00000220: 7637 c324 3be5 c0bf 3abb e0dc 84a6 be3f
00000230: 5904 526e 485c a2bf 51a0 6590 0a07 d23f
00000240: aadb 20ea 3018 b0bf 0586 97f5 37d9 98bf
00000250: b70f 8ea3 9ae7 bcbf 6854 7a8a 1aa4 ccbf
00000260: 3419 5fbd c30e c03f 74cc b811 a738 a6bf
00000270: e922 2217 d406 a3bf 57af a164 3ae7 c3bf
00000280: 3f44 c7ad 91b4 b53f a1ab 98a9 804f d33f
00000290: e8e3 c8ef c6f0 cb3f 0743 f1d6 e794 dc3f
000002a0: 6a21 73c3 14ce 0240 9334 d475 0bf9 1640
000002b0: c5ee 6ad2 2d00 0340 1eb5 6e73 36c8 e23f
000002c0: 6424 2f77 4937 d33f d783 6474 4073 acbf
000002d0: 374b 7cf3 09ae c63f b130 d086 0422 c23f
000002e0: 8c5b 27bf 6764 b83f f361 402c 6c90 c53f
000002f0: 2e12 cc35 6bdd babf b111 96e8 1fc4 91bf
00000300: a27b 2621 4480 af3f fbf2 af66 2928 be3f
00000310: 4896 0bd9 53c8 c2bf 4bce c790 94a4 9cbf
00000320: f671 955c 0c0f b33f 21ea d112 513a b53f
00000330: 48c5 0138 d491 c23f ae12 fdd2 4922 d23f
00000340: c51c 4b68 4186 ca3f 1c50 7178 2bd6 a23f
00000350: 32c4 b7cb 5a97 0040 3165 0e7e 41e9 1540
00000360: d419 e159 1bc9 0140 1b11 bef7 0c53 d93f
00000370: 1d2f b969 aac0 d63f b1c2 8e03 9dae e03f
00000380: e35d a832 61c0 c53f bee9 58d4 4a80 c0bf
00000390: 69d4 5fdf 99b9 a13f 13c7 8804 46df a8bf
000003a0: be6d 022b 46fe c8bf 323c 7771 0a0d 853f
000003b0: 5ed2 3d87 20ba be3f 1aec 2d22 7ada af3f
000003c0: b653 7892 8ea0 bcbf 0dd8 f431 8463 e1bf
000003d0: 97eb ee28 5fab b9bf 32cf 18f9 4066 acbf
000003e0: d601 6fce f632 c33f 7f95 1865 1d54 cd3f
000003f0: 4aa5 23d0 1579 c6bf d04e 379c 7739 c0bf
00000400: 9f65 7ec1 9a58 d1bf 92a4 b3d4 8638 93bf
00000410: 06d8 1204 d86e c8bf 67ab 6317 0dcf f6bf
00000420: b8b2 76fa 969c 10c0 290d 9744 a3f6 03c0
00000430: 09cd 30ad 873a d0bf 0b59 99d2 628d c9bf
00000440: 6913 0ea2 cfa3 cabf 8dbc 8fb9 eaf1 d7bf
00000450: 4b39 0d68 8d1b bebf 7d87 08f8 1976 c1bf
00000460: c6df df4a 963a 77bf b53a 49c9 d961 c03f
00000470: 7747 38ea 9b09 c7bf 4cf6 b78f fc10 a73f
00000480: e085 26a9 4b83 91bf 370c 288c 2ebf ba3f
00000490: 233d 249d e4ea c5bf d322 2027 e823 c9bf
000004a0: d11d fb81 1672 a9bf 37e9 724c 7a87 9abf
000004b0: 7359 1c6b 709c aabf 63d1 c68a 39f6 a03f
000004c0: 42f8 af65 9ce2 b53f 0570 174b f309 d7bf
000004d0: 041f 6030 689c e5bf daf8 4638 f39f 03c0
000004e0: 0dbf 6404 a507 17c0 b752 9b23 2c00 03c0
000004f0: 1308 85c1 d8e4 e4bf d889 6fc5 254c d6bf
00000500: 47e2 430e cafd a13f 26c8 2156 a663 af3f
00000510: 511d 9b82 dcdd b5bf 3edc 8266 8d5a 9dbf
00000520: 709d 1258 c01b ab3f 3109 0fe1 cb1e c63f
00000530: 98ab 1bd9 5e12 abbf 7518 e879 a6a5 aebf
00000540: a80f d871 26a1 c03f 079f 2771 3d1a bdbf
00000550: 178b 7b06 8879 c83f 2945 18f9 180f c63f
00000560: c2d0 47f6 cbb3 db3f 7b1a 0ecf 379f 0140
00000570: 7fa3 9174 80f4 1440 0e3b c6eb 7b1a 0240
00000580: c07e 2b1c 0c9b 9bbf 5f26 9f3c 5cce cf3f
00000590: 75aa 8d2a a160 d23f c255 3f3b 0a53 bf3f
000005a0: 06a1 a6a0 b0c1 a43f 733d 0907 e99c b43f
000005b0: 4236 eb68 f4bb c33f df46 8335 313e 7a3f
000005c0: 52d5 ea2c acc9 c73f a49a 8c6f 4ed0 8c3f
000005d0: ec8b d46f d198 db3f 2bac 57e4 de2b d13f
000005e0: 4085 f74d 61ef 0240 0f53 f6f8 a4e3 1540
000005f0: 695f 0b98 9240 0140 303e ce24 dfd6 c23f
00000600: 1f28 041e 4e20 ba3f b649 40cf faab d03f
00000610: 3954 045e d23d cd3f 85cd 8422 19c2 c53f
00000620: 3b24 13d6 44f1 99bf 7b70 62fc feae b03f
00000630: f5ee 5527 118b d13f 40a7 1f3e 61b7 9e3f

visible_bias f8 [20]
-1.095899999999985 -2.027699999999799 0.08770000000000418 2.383899999999789 -0.277299999999983 -3.0431000000000257 -2.175899999999854 -2.7280999999998405
-2.254399999999834 -2.995100000000081 -2.554299999999886 -2.3118000000000016 1.2485999999999873 0.1888000000000103 -2.0762999999999243 0.2756999999999852
3.000300000000242 0.13380000000000428 -2.4340000000000632 -0.8445000000000439
00000000: 3bfb 3a70 ce88 f1bf 65c9 10c7 ba38 00c0
00000010: b5f5 dbd7 8173 b63f cc77 c729 3a12 0340
00000020: 0891 cb7f 48bf d1bf 64a9 13d0 4458 08c0
00000030: 1aed 5a42 3e68 01c0 3ebc c117 26d3 05c0
00000040: 41d0 00de 0209 02c0 e5ff 21fd f6f5 07c0
00000050: e460 a1d6 346f 04c0 7824 97ff 907e 02c0
00000060: 9891 5cfe 43fa f33f 600f be30 992a c83f
00000070: ce79 a52c 439c 00c0 ec74 e09c 11a5 d13f
00000080: cb84 5149 9d00 0840 7d37 1ac0 5b20 c13f
00000090: d4b6 f3fd d478 03c0 2b1c 2fdd 2406 ebbf

hidden_bias f8 [10]
-5.180828325417235 -5.315466549359556 -4.162298401050905 6.073190193531788 -6.509962262500755 -5.988681432800964 5.332368782269954 6.633971015480611
-5.571656323535631 -6.36402306827742
00000000: 0d6e 7f0f 2bb9 14c0 d0ec c1a9 0943 15c0
00000010: b1d3 528d 31a6 10c0 826d be5e f24a 1840
00000020: 268a 1e8c 330a 1ac0 952b d0e7 68f4 17c0
00000030: 423e 687b 5854 1540 9067 a8b2 2f89 1a40
00000040: 6c8c 7846 6049 16c0 e1f6 9476 c274 19c0
