Data/TFIM1D/Energy/Q50/Trial3.pt (torch_old, 12432 bytes, 3 tensors)

weights f8 [28, 50]
-2.4437394352714863 -4.197227984304823 -0.5019146687313795 0.07967295842118884 0.02572209154068505 0.11796808625824576 0.03394007196369993 0.10999456500108225
0.06933408845545937 0.07156382661466598 0.020627946736268613 0.012029644902724936 0.2521243491752897 0.0471790870638813 -0.010343221747277809 0.021448203985694057
-0.14656379561053787 -0.02145204396654075 -0.14391269723832703 0.05775886043174553 -0.0067550080674918436 0.05376532578543659 0.020846405355888126 0.022315533815700415
0.00022543518046003842 -0.03594478675435549 -0.01317874496372584 -0.06893314050240788 -0.029207333665800937 -0.020357646875545022 -0.03874712926993932 -0.15263873086773352
-0.18187385828186545 0.018715300514749657 0.049014490490057225 0.0545109806263023 -0.01953891538329259 -0.01563896887478965 0.050751536888954805 0.16241036949565704
-0.1121938763686291 -0.03068578490057288 -0.010759795372283611 -0.0008883652707802612 0.11317997461527704 -0.04254857303102833 0.03592961099546421 0.005102546008546284
0.012159466227896902 0.037823163523897536 0.06948391414093756 0.21173653447423343 0.06328728034747912 0.1384846161369513 0.2049408352405563 0.15541142616821602
0.2061764759103341 0.350292176488102 2.8029791868354614 3.3428891446295474 1.2078799296023317 0.41358746506969374 0.4319118567819717 0.32232126224025553
0.291190167671394 -0.008512696065023789 -0.21768350285029275 0.043961226346535334 0.1653644853012125 0.016886321676100706 0.08803970081924228 0.06705664573659126
0.0030093437599416945 -0.1472047443351851 -0.07889880683575165 0.17725625226657313 0.04293384099313586 -0.2810361550589485 0.01903176999252896 0.35768551878123034
0.12353215364131548 -0.22984835225550457 0.019201851446024883 0.1610869339103161 0.066220078492449 -0.29999687074003534 0.06989712002219726 0.07347459662298528
-0.044539788104040495 -0.07794998287134208 0.04616713641608933 -0.026065639901938616 0.0939992063835438 0.04761906936989106 0.19045111305372667 -0.024999158830718873
-0.20621880556228278 -0.08111294734013216 0.1694209767672569 0.020677535584765153 -0.026365246864951244 -0.0449320874141118 -0.0699945011897679 0.023047938264907218
0.0833539256839284 -0.18452792778817056 -0.07884914066706607 0.07187639904845526 -0.04795821985353913 -0.012599070463486108 0.03282933575565161 0.023082858782313084
0.021672649609933606 -0.1479648298853259 0.018751968284027958 -0.022902615536087894 -0.16334179175650662 0.017648700720878915 0.297102706669643 0.09418806992890884
-0.061895405217222976 -0.06707280992627253 -0.01530117288564846 -0.061680228201273 -0.08421465703734626 -0.020255553048371573 0.0028405317091961184 -0.00569168709988189
-0.021086765809741462 0.06578807379153151 -0.0230390137135303 -0.021745578575524848 -0.0666627483350893 0.07077049701471959 -0.013550021938213688 0.0267223734584001
-0.05253653951197683 -0.01873863802311958 -0.0034159358959746974 -0.09818214289674738 -0.01786876407473465 -0.11394607814241713 -0.25823159910738747 -2.360936887328044
-5.1332880817891775 -2.271855119030495 -0.2934311635279762 -0.1803312991365772 -0.17927578285388424 -0.08027282249722259 -0.00907665727555398 0.036123297391947536
-0.0340919402953241 0.010036527714129146 0.02303898048284475 -0.043812167052225924 -0.05157800002202615 -0.01625148645780387 0.040393682718856995 -0.003100725956198806
-0.1531403838502262 0.022419004543298284 -0.06913409785811282 0.011737337584363306 -0.02936712838581875 -0.02389575498701407 -0.025191581397449533 -0.04601822381804769
0.04590139994192094 0.0382993946203409 -0.014109046551785772 -0.014331266000462377 -0.04274130802078361 -0.03288459427566646 -0.0744409534069996 -0.04440950159597994
0.040030527102502336 -0.06477574690357012 0.00673943371121682 0.058683214829643865 -0.014765601082934813 -0.0005498080553002238 -0.07461566944568708 -0.014204521005482293
-0.01407963107547272 -0.0013863693328237043 -0.03073718745466082 -0.001173730325869603 0.07359243243909254 -0.012453071890884446 -0.1246388007448336 -0.15881253218397243
0.05603492433911253 -0.11662503724374022 0.04489851270662837 -0.11647340661454046 -0.13866799069154426 -2.3089836210805816 -5.387110758233828 -2.4205585501765188
-0.09515228630470868 -0.06340265337969989 0.11745106106018022 -0.13013157882451332 -0.13101789099943104 -0.3521372240512995 -2.2609108940894784 -5.104310041089814
-2.325589713593844 -0.5020112695939871 -0.06892407822343688 -0.1363497078484985 0.05005759326234502 0.006240336840216904 0.14370898118675923 -0.010076769526605075
0.011966584630101359 -0.14527310995117235 -0.08326904572750167 -0.01407778136486868 -0.03508356433080227 0.004448020038311641 -0.000566028289938538 -0.09269387278370583
-0.047199181283349996 0.044547102601979194 0.021510119155645775 -0.08852351953571515 0.021737017656888426 0.1229163587661908 0.025969598057970306 -0.07469123625930828
-0.0128700245469543 0.03975043160172736 0.007084256754718812 -0.10491025629218731 0.10081362303851547 0.053180570370229205 -0.0873745278065019 0.02181221961948802
0.09663518963343137 0.06330505582395482 0.028993063070037427 0.0009738645370252316 -0.03441383250296054 0.006539300206613442 -0.05939893915071432 0.011185821821388518
0.013992517033369832 -0.007869296675064877 -0.08333630728484967 -0.20313375982624166 0.04385009947454339 0.010109905663846534 0.011652119861385202 -0.04414937873740494
00000000: 0a7e d342 c78c 03c0 e7c7 f921 f6c9 10c0
00000010: b5af f259 af0f e0bf 3169 cb6e 7265 b43f
00000020: bfce ce57 e456 9a3f 626c 7310 2833 be3f
00000030: da48 37d6 9760 a13f 5dda 6a93 9a28 bc3f
00000040: fd06 6afa e0bf b13f 88f8 e2c6 0152 b23f
00000050: 71af 7612 7e1f 953f b47f 849b ffa2 883f
00000060: feeb 8e2a ce22 d03f 0030 fd77 db27 a83f
00000070: 6061 1eb9 d32e 85bf 89ba b49a 84f6 953f
00000080: bf62 763a 9ac2 c2bf 1b18 134d 86f7 95bf
00000090: e512 0f34 bb6b c2bf 3597 37c1 9192 ad3f
000000a0: f6d8 beab 23ab 7bbf 3281 d0f7 2087 ab3f
000000b0: 0586 f894 c258 953f 8690 b91f e2d9 963f
000000c0: f280 7374 598c 2d3f 6aaf 24e7 5a67 a2bf
000000d0: 3fe3 f834 75fd 8abf a383 1130 9aa5 b1bf
000000e0: b686 97fb 86e8 9dbf 2d47 378e a2d8 94bf
000000f0: e579 0eea a9d6 a3bf b105 977a aa89 c3bf
00000100: 9db2 a880 a447 c7bf 5a28 958e 1a2a 933f
00000110: 0eab 5e63 6d18 a93f ec2e 20fe dce8 ab3f
00000120: 0a3f 486a 0202 94bf 5d08 716f a903 90bf
00000130: 1bd1 51fe 1afc a93f 8def c1ec dcc9 c43f
00000140: 1892 d0e5 bcb8 bcbf ce73 662a 186c 9fbf
00000150: a187 e249 3b09 86bf feb6 77e4 251c 4dbf
00000160: bee3 88e1 5cf9 bc3f b1c8 5133 edc8 a5bf
00000170: 70f6 5db0 5d65 a23f db89 ba43 68e6 743f
00000180: 4ffa 48ee 0fe7 883f c998 bbc4 8e5d a33f
00000190: 9f59 d5a2 b2c9 b13f efb4 77c9 2e1a cb3f
000001a0: 715f 585f 9833 b03f 4056 a728 ddb9 c13f
000001b0: fd8e 7c54 803b ca3f 389a 6888 85e4 c33f
000001c0: 36a5 9ea2 fd63 ca3f 61e8 83e0 2f6b d63f
000001d0: a89d 165a 806c 0640 d5b2 f2a9 3cbe 0a40
000001e0: 5230 b2e7 7953 f33f d3a1 208f 3778 da3f
000001f0: 6b86 e8a0 71a4 db3f 4b26 085c e9a0 d43f
00000200: 692f c415 dca2 d23f b6bb 99b9 1a6f 81bf
00000210: 1674 cf92 0ddd cbbf d29d e6fa 1582 a63f
00000220: 34f0 24d8 a92a c53f 5ef4 64dd a54a 913f
00000230: 58ad c413 c589 b63f bc09 6bd4 9f2a b13f
00000240: 49fe 0021 0da7 683f 262a 5ee5 9ad7 c2bf
00000250: be8f 0d53 b632 b4bf eb8b 3f37 55b0 c63f
00000260: d913 eaa5 6cfb a53f 7631 be11 7ffc d1bf
00000270: 9ac6 cf76 107d 933f 6ec3 5acd 51e4 d63f
00000280: 74d6 e49f cd9f bf3f 670a fdb9 ab6b cdbf
00000290: 52ed ee6f a6a9 933f 9a96 7a24 7f9e c43f
000002a0: e5af 768f ccf3 b03f 48c5 2e13 2633 d3bf
000002b0: e775 9414 c7e4 b13f a01f 952d 3bcf b23f
000002c0: b424 8e4a ebcd a6bf 0cfb 27b3 87f4 b3bf
000002d0: d838 1d0a 38a3 a73f 126a b67b f3b0 9abf
000002e0: 236c 44fd 5410 b83f 6622 38d3 8661 a83f
000002f0: 1dba 06bb b360 c83f 57fa 6b26 6199 99bf
00000300: 6ce7 dab8 6065 cabf 5ea8 1b70 d1c3 b4bf
00000310: 1d62 3c29 96af c53f 21ce 64ec 7d2c 953f
00000320: 64cb 24c4 7dff 9abf 8f20 f8ab 5601 a7bf
00000330: e787 82dd 28eb b1bf 961d 5af4 e099 973f
00000340: 7f41 ced0 ae56 b53f 7640 8673 9c9e c7bf
00000350: a995 7b10 752f b4bf c371 44df 7d66 b23f
00000360: e5ce b0d3 fa8d a8bf 542d ce9c 8acd 89bf
00000370: b000 d7b6 01cf a03f bfdb 456e 08a3 973f
00000380: 1459 2be5 5a31 963f 2468 a8f4 82f0 c2bf
00000390: ebe6 0f4a b733 933f cba5 e182 c873 97bf
000003a0: c305 d542 62e8 c4bf ecfa a641 8012 923f
000003b0: a8bf 2c12 bb03 d33f 419d 0498 b51c b83f
000003c0: e87c 5c2a c1b0 afbf d18b 1505 af2b b1bf
000003d0: f90c 13a9 3856 8fbf 885a de05 8d94 afbf
000003e0: ecba d17d 178f b5bf 62df 9e27 dfbd 94bf
000003f0: 6f7b 6ad9 0645 673f 8ab9 3f9f 2a50 77bf
00000400: 2400 20e6 c497 95bf 40c6 66b9 7cd7 b03f
00000410: b411 ba09 8a97 97bf 6306 4213 7944 96bf
00000420: 95ef f553 cf10 b1bf bf2b 33ea 031e b23f
00000430: 9b7c ad28 1dc0 8bbf 7b22 4d20 1c5d 9b3f
00000440: 4610 19be 11e6 aabf fd6b ecb5 3830 93bf
00000450: 4c92 ab9e bcfb 6bbf 45f0 ca04 7722 b9bf
00000460: 92a0 4875 304c 92bf 730f 21f7 912b bdbf
00000470: d670 3dd4 dd86 d0bf aff3 f7e0 32e3 02c0
00000480: a3ec c0ab 7c88 14c0 aae3 6b60 c22c 02c0
00000490: 73b6 be80 93c7 d2bf 344f 1e94 1815 c7bf
000004a0: d83e 2944 82f2 c6bf 5a18 627b c28c b4bf
000004b0: 4e79 3e51 c896 82bf 111d d8b9 c07e a23f
000004c0: da4e 40b1 7f74 a1bf d772 61f2 078e 843f
000004d0: f0f7 d3ce 8797 973f 53f9 4f61 8c6e a6bf
000004e0: 0d4c 937e 6e68 aabf 8bff 63cb 3aa4 90bf
000004f0: cd27 7c14 7bae a43f ef65 6c92 b166 69bf
00000500: acb3 2aa6 1a9a c3bf e713 4aed 01f5 963f
00000510: 85cc 56b1 c5b2 b1bf 271e 89c8 be09 883f
00000520: b664 fa9f 6a12 9ebf 4fd5 baf8 2078 98bf
00000530: cf3e f268 d2cb 99bf 7515 a35c b38f a7bf
00000540: 68ad 2e67 6380 a73f 5bb1 b36e fa9b a33f
00000550: b12b 242c 34e5 8cbf e912 42f6 b559 8dbf
00000560: 156a 4650 30e2 a5bf 2d95 e9e1 3fd6 a0bf
00000570: 3eba 5df4 8f0e b3bf 9708 f999 d7bc a6bf
00000580: 4268 7e99 e17e a43f bf59 86b2 2495 b0bf
00000590: 3bbc 21f6 ce9a 7b3f dcf0 08f1 b90b ae3f
000005a0: 4f4f 0e6e 6d3d 8ebf 147b ecce 1f04 42bf
000005b0: c7d2 0934 031a b3bf 3821 6489 4217 8dbf
000005c0: 803a 1218 c8d5 8cbf df3a 75bc dab6 56bf
000005d0: e31e 8ebb 9179 9fbf 2eaf 4a57 fb3a 53bf
000005e0: 191a 8f22 f4d6 b23f 9876 0c04 ff80 89bf
000005f0: 2200 0315 54e8 bfbf f969 f613 f853 c4bf
00000600: 24ce f00e 9cb0 ac3f 2b4d db70 23db bdbf
00000610: a092 6d17 f0fc a63f 8b5e 4380 33d1 bdbf
00000620: f1d7 826a dfbf c1bf 7753 9c67 cc78 02c0
00000630: 1c2d 3ac3 668c 15c0 977d 18cd 4d5d 03c0
00000640: 8c7f d175 e65b b8bf d2d4 be02 283b b0bf
00000650: 104c 22d2 4511 be3f 6433 9dcd 26a8 c0bf
00000660: 0f48 84ba 31c5 c0bf a54a 4091 6a89 d6bf
00000670: 8346 6a73 5816 02c0 2c80 5c40 d06a 14c0
00000680: 8365 9ec7 ce9a 02c0 cc25 24f0 7910 e0bf
00000690: 5469 e025 02a5 b1bf 6fa4 0340 e873 c1bf
000006a0: 1cdc f41b 26a1 a93f 3aeb 50aa 778f 793f
000006b0: 9457 2b4f 0e65 c23f 7e5e 871c 21a3 84bf
000006c0: fe7e 0ccd ef81 883f 673f 1d2c 4f98 c2bf
000006d0: 1533 2bc4 1e51 b5bf f3b0 7fd4 cfd4 8cbf
000006e0: be16 db12 79f6 a1bf ce44 8b49 1638 723f
000006f0: df02 387f 308c 42bf 1c46 2520 c9ba b7bf
00000700: f119 05b8 7d2a a8bf 9836 9db9 e0ce a63f
00000710: 52eb 39a9 bf06 963f b92c 5535 7aa9 b6bf
00000720: 27af cb8f 3a42 963f 3150 0b4d 7277 bf3f
00000730: 28a1 6539 c697 9a3f e712 0801 f71e b3bf
00000740: 431c 3974 995b 8abf 776d 7627 2b5a a43f
00000750: 906c 3fb1 6104 7d3f 6038 ca07 66db babf
00000760: ff12 f1ed ebce b93f 56a7 0bd5 7b3a ab3f
00000770: b0af 6e53 2d5e b6bf 6bec ac47 f155 963f
00000780: ec4b 1e73 15bd b83f 7672 6f98 c234 b03f
00000790: 7665 c986 5bb0 9d3f 6441 2b2b 5ee9 4f3f
000007a0: 78ae 429a b09e a1bf 1b08 6b08 f4c8 7a3f
000007b0: f989 23aa 8969 aebf 0cc7 3697 97e8 863f
000007c0: d959 60d8 1ba8 8c3f 0839 e51e c71d 80bf
000007d0: 229b 5b3a 8755 b5bf ae67 957b 4900 cabf
000007e0: 19ca 562e 8573 a63f 0ff1 8891 80b4 843f
000007f0: 60a9 de0d 11dd 873f f9b9 a153 bf9a a6bf

visible_bias f8 [50]
1.633699999999888 2.726300000000026 2.233499999999992 2.0482999999999763 0.9438999999999874 -0.5342999999999988 0.14999999999995128 1.724099999999948
0.7006999999999971 0.6915999999999951 1.7498999999999112 2.0448000000000883 2.0723999999998775 1.7923999999999594 1.7442999999999236 1.1490999999999785
0.060999999999987196 0.6820999999999875 2.0480999999999514 1.875199999999952 2.172899999999906 2.0682000000000524 2.190200000000041 0.34289999999996545
0.1299000000000243 1.5297999999999252 0.006100000000015639 -1.268499999999945 0.18359999999999874 1.5552999999999646 -0.012399999999989616 -1.218699999999953
0.11329999999999432 1.4101999999999717 -0.24589999999999532 -1.3854999999999618 0.004599999999995424 1.363899999999919 -0.010699999999965914 0.38089999999997515
1.9497999999999163 2.014199999999954 2.00109999999989 2.1117000000000026 1.8339999999998924 0.1820000000000065 -0.9157999999999845 0.26030000000002074
1.5992999999999402 1.2509999999999823
00000000: 7398 779c a223 fa3f e6ad d85f 76cf 0540
00000010: 7fed 7c3f 35de 0140 702c 431c eb62 0040
00000020: 1538 d6c5 6d34 ee3f e516 4850 fc18 e1bf
00000030: 582c 3333 3333 c33f b688 b0e1 e995 fb3f
00000040: 7bd4 0968 226c e63f 0a3c bd52 9621 e63f
00000050: ff51 7424 97ff fb3f b2e3 361a c05b 0040
00000060: c8d6 8173 4694 0040 869a 559f abad fc3f
00000070: 7c99 e61d a7e8 fb3f 0c56 7dae b662 f23f
00000080: d3a4 1c5a 643b af3f de3f 1361 c3d3 e53f
00000090: c77f b740 8262 0040 0a58 17b7 d100 fe3f
000000a0: f0d2 2b65 1962 0140 0cb3 0c71 ac8b 0040
000000b0: 5298 dd93 8785 0140 8e16 73d7 12f2 d53f
000000c0: 8710 e02d 90a0 c03f 48ba 9690 0f7a f83f
000000d0: 7536 1748 50fc 783f ba9c efa7 c64b f4bf
000000e0: 0bd6 c56d 3480 c73f 957f b740 82e2 f83f
000000f0: b149 c3d3 2b65 89bf f428 3a92 cb7f f3bf
00000100: ba03 a392 3a01 bd3f f21a 0de0 2d90 f63f
00000110: 7f0e 0bb5 a679 cfbf b2b9 490c 022b f6bf
00000120: ac3b fc18 73d7 723f 8f39 70ce 88d2 f53f
00000130: 6653 89b0 e1e9 85bf 78f6 c264 aa60 d83f
00000140: d8d8 1b7c 6132 ff3f f3d2 bce3 141d 0040
00000150: 7633 80b7 4002 0040 a8b4 37f8 c2e4 0040
00000160: 0dd1 4d62 1058 fd3f 9c9e efa7 c64b c73f
00000170: cda7 35cd 3b4e edbf 6687 c954 c1a8 d03f
00000180: 75e1 c798 bb96 f93f 1bbc 7493 1804 f43f

hidden_bias f8 [28]
3.3865629346673316 -5.475116774881713 5.734340935525346 5.515448040673461 5.508914736487502 5.641724927946027 5.961725787248359 -5.9843094794035325
-6.032215701786684 -5.373874093367815 2.3848915728020454 5.97782711466633 5.466118836979839 4.591252776860885 -5.843974092805739 5.689603764187802
-5.9934525041556395 -5.225494602982037 4.951066415717778 5.510435576803498 5.8119742043794655 5.378969885727102 5.792392782326415 -5.084204757208292
5.184683029933165 5.561379712256504 -6.1731901361973165 5.704127376472285
00000000: 90ef d14e ae17 0b40 8197 0703 85e6 15c0
00000010: 18c8 f811 f7ef 1640 4feb 759c d10f 1640
00000020: 45aa d6f1 2009 1640 7d39 ea56 2091 1640
00000030: 65ce 0fa5 ced8 1740 4db9 fcd2 eeef 17c0
00000040: b15d 2627 fd20 18c0 7d58 afd9 d87e 15c0
00000050: bc86 6d08 4214 0340 2589 da82 4be9 1740
00000060: 0983 a341 4edd 1540 9125 315e 715d 1240
00000070: 7216 9dbe 3a60 17c0 598a 397d 27c2 1640
00000080: 3ee9 fd9c 4bf9 17c0 eeed a40e e8e6 14c0
00000090: c353 bf5a e4cd 1340 fb57 b49f af0a 1640
000000a0: 8e05 742a 763f 1740 9077 85ae 1084 1540
000000b0: aeb6 7603 692b 1740 4a82 99c5 3956 14c0
000000c0: acc1 568c 1dbd 1440 491e c352 da3e 1640
000000d0: 3cd4 4bc1 58b1 18c0 bfaa 58c4 06d1 1640
