Data/TFIM1D/Energy/Q50/Trial2.pt (torch_old, 12024 bytes, 3 tensors)

weights f8 [27, 50]
000000 96 a1 08 68 cb b7 a1 3f fb e9 34 5e 2d 38 9b 3f
       0.034605366181781935 0.026581486582680097
000010 5c 4a cc 51 1d ed aa 3f b6 5f 54 04 51 41 c4 3f
       0.05259029029379711 0.15824330054669894
000020 95 01 3b c5 f3 1c a1 bf 21 ed d3 65 c3 c6 b8 bf
       -0.033424012971866514 -0.09678288684874704
000030 9d 7a 9e ee b3 aa ba bf 05 49 71 30 71 29 5d bf
       -0.10416721892986876 -0.0017799001086769583
000040 56 89 c9 e3 4c 75 9b bf af 6e 03 23 24 50 ae 3f
       -0.026814652827291972 0.05920517852220308
000050 1e d2 2f 12 03 23 b7 3f 13 54 9c d4 9d 68 b2 bf
       0.09037799066556615 -0.07190882149400606
000060 0e 2e d8 5a 6a 13 b5 bf a9 bd e7 a7 b2 f6 bc bf
       -0.0823275062359061 -0.1131393108296296
000070 40 04 c5 02 4d db 9b bf 46 3b 92 26 55 d2 bf 3f
       -0.027203753751795512 0.12430317107849218
000080 0a ff 08 5b ec e2 c6 3f a6 1f 90 77 07 92 b2 3f
       0.1788001484401252 0.0725407282735647
000090 5d 55 ee d3 2c 5a b0 bf 4a 87 a6 f2 3d 24 b3 bf
       -0.06387596296402394 -0.07477175878605383
0000a0 c5 7b 6f c9 19 dd be bf 6b 37 02 83 dd 0a 98 bf
       -0.12056122939928489 -0.02347894775498764
0000b0 2b d7 a1 86 f9 2d 8f 3f 02 84 ae 1c 84 12 a8 3f
       0.015224408551357612 0.04701626634710722
0000c0 58 26 7e 7f d9 6a a9 3f 78 e8 b3 5b 33 68 c0 bf
       0.04964332276638278 -0.12817995050119513
0000d0 8d fa 49 1d 6b 62 b5 bf 16 ff 96 c0 5f 52 bb bf
       -0.08353299584448788 -0.1067256779851927
0000e0 a5 a9 f2 ac 4b 2d c0 bf 13 61 f0 36 16 57 bf bf
       -0.12638231224748356 -0.12242258874210092
0000f0 13 89 8e 7b 4f bb d8 bf c3 a8 ef 97 02 5e 02 c0
       -0.38643252435771663 -2.2959033842099372
000100 dc f3 65 dc 55 0c 15 c0 5f 35 66 33 1a 6a 02 c0
       -5.262046283457462 -2.301807786518722
000110 bc fc fb 7e 0c b8 d6 bf f7 7e 8d b8 6d 09 c5 bf
       -0.3549834480363179 -0.16435023795474255
000120 36 6d 4f 8a 99 31 b7 bf 62 48 2b b1 bb e9 bb bf
       -0.09060058237758004 -0.10903523517052485
000130 14 2c 61 25 c7 f0 ab bf 45 c6 1c 42 4d 67 a3 bf
       -0.05457136470121085 -0.037897505112038966
000140 bd 4f cd dd cd 68 97 bf 9a 21 86 93 84 e8 b3 3f
       -0.022860733664245226 0.07776669122370664
000150 fd 93 f7 f2 73 50 9e 3f 42 31 54 6e 54 e4 9a bf
       0.02960377855733397 -0.026261634096088622
000160 69 4d c1 4d ba 7f a3 bf e0 86 7f 5d 72 88 8d bf
       -0.03808386038931639 -0.014420407751404907
000170 35 ae db 3f 5b 45 a2 bf 90 ea 35 4d ea 42 ac 3f
       -0.03568539766805793 0.05519802277099928
000180 cd ab 57 43 e7 b6 b1 bf eb f3 04 0b 68 22 95 3f
       -0.06919713396170764 0.020639062569205818
000190 5e 69 9e 12 70 6b ab bf c3 a9 55 17 e3 8e b2 bf
       -0.053554060242464216 -0.07249278373425398
0001a0 90 a6 3c ad 41 a7 97 bf f9 35 4d 3c ea bc b0 bf
       -0.02309897060255267 -0.0653826138706889
0001b0 08 e3 b1 ab a8 b9 d0 bf c4 bf 48 28 69 a6 cd bf
       -0.2613317181308479 -0.23164095370293414
0001c0 43 af 8d b5 d9 ec d0 bf 29 08 28 b2 63 9a e0 bf
       -0.2644562027914967 -0.5188463668457689
0001d0 0f 4b 6a 2e 47 91 04 c0 a1 2b 3a da bf 5c 10 c0
       -2.5709365488231763 -4.090575609016839
0001e0 c7 a1 59 cd 16 55 fa bf e7 1b 8c ad 3a de c0 bf
       -1.6457736989487886 -0.13178189729680342
0001f0 d3 a9 0c 55 45 5b c7 bf 59 22 6e 67 1f 65 cb bf
       -0.18247286465459797 -0.21402351904204656
000200 aa e0 d4 24 a1 ec c1 bf 77 2d a9 64 bd 6d b0 3f
       -0.1400338582841461 0.06417449672260554
000210 30 33 af af 49 0f b1 3f 3f 62 f9 62 36 d2 a8 bf
       0.06663952387971217 -0.048478793699079585
000220 de 62 2e 68 7e 0e ab bf ba 97 69 86 7b 3e ab 3f
       -0.05284495374434582 0.053211078794262304
000230 65 dc b0 b4 d2 6b b8 bf 80 1e e5 59 3e 65 c0 bf
       -0.09539524947546026 -0.128089708227197
000240 da 36 46 2b 45 52 9e 3f ac 23 5f dc 2f a7 bb 3f
       0.02961071087479792 0.10801982050101228
000250 ab b4 b9 0d 87 ca a3 bf f8 0b 69 19 96 bc 6c 3f
       -0.03865453760668321 0.003507893717399121
000260 76 03 44 43 0d 71 b0 bf 58 c8 83 24 9c 1c 8d bf
       -0.06422503368595564 -0.014214725365011713
000270 b3 06 39 14 11 27 68 3f 58 8b 89 1a 8d ac 72 3f
       0.0029483159612773923 0.004559088884522243
000280 c5 1d 81 33 e7 a8 c5 bf b3 88 d1 73 9e 44 a2 bf
       -0.16921701445447304 -0.03567977107810929
000290 d5 23 34 a9 01 64 9f bf b2 1e ad 8e 34 a6 a3 3f
       -0.030654931976673645 0.03837742082265318
0002a0 89 0e 17 b0 bd 62 a6 bf e7 28 e6 ef b0 c9 b4 3f
       -0.043722083802575425 0.0812025628748959
0002b0 d9 99 39 31 15 aa 72 bf 2d 30 3a c7 2e 6b a3 3f
       -0.004556734831203412 0.03792711431478355
0002c0 39 66 be 9c 06 0f b8 bf 1e 86 77 30 35 31 9f bf
       -0.09397927595855372 -0.03046115024870321
0002d0 00 39 16 2b 8f fa c1 bf f1 f6 5a 11 d7 c6 b0 3f
       -0.1404589615235139 0.06553405927385449
0002e0 c8 c2 33 71 66 4f a4 3f 65 a2 76 85 aa d1 89 bf
       0.03966827518332178 -0.012606937597255905
0002f0 fc 8f fc 13 2d 73 aa bf e0 fb 6a 2d 99 80 b3 3f
       -0.05165997380234441 0.07618100508533088
000300 e2 90 d7 50 f0 75 92 3f bf 72 4f a1 4b 87 b3 3f
       0.018028025564391544 0.07628319442978702
000310 a6 28 7a e0 41 71 92 bf 3e 87 b6 a3 a8 e3 0d 3f
       -0.01801016743278496 5.700930020259433e-05
000320 8c 12 30 45 87 9b 81 3f a0 e4 86 a5 26 48 95 3f
       0.008597428130096028 0.02078304658218555
000330 15 81 8f 74 57 df a6 3f 30 87 cb e1 21 bd ba 3f
       0.04467271135195198 0.10444843065809262
000340 11 1a e2 a0 8e 1c af bf 78 f4 4b ab f7 8c a0 bf
       -0.06076474870592475 -0.03232549634956511
000350 7c 22 5e d6 7d b6 b5 bf ee 47 9c bc 56 fc 90 bf
       -0.08481585010134468 -0.016587596189374602
000360 38 de ed 87 41 27 91 3f 07 af 97 eb 1d 9b 54 3f
       0.01675131218095613 0.0012576858701959807
000370 1d 3e 6b 6b e4 f4 ae bf 35 f5 01 9e bb 63 b1 bf
       -0.06046212970033713 -0.06792805297478284
000380 b3 44 db 3f 1f b4 c0 bf 07 13 66 ff f7 65 9e bf
       -0.130496889285984 -0.029685854876805553
000390 83 75 c0 29 88 ab a8 3f ec aa 22 dc 99 f1 de 3f
       0.048183684441236906 0.4834961557159392
0003a0 5a 93 fc 58 a6 8b dd 3f 93 5e b6 3a b2 5a c3 bf
       0.4616485470781321 -0.15120532862487276
0003b0 c1 8c 16 b9 0f c2 c2 bf 96 11 1a 9e 7f fc b7 bf
       -0.1465472844839493 -0.09369657144458751
0003c0 3f 1d 75 f9 c1 0b c0 bf cd 4f 56 a5 f1 96 bf bf
       -0.1253588169149484 -0.12339697157432213
0003d0 a4 8d cf f9 71 df c3 3f 6c fb 50 8b dd 95 cd 3f
       0.155256506898792 0.23113602926784027
0003e0 12 c8 4c 06 0f 91 66 3f 02 e5 42 03 7c e7 b5 bf
       0.0027547162484546995 -0.08556342200872183
0003f0 8a a8 22 17 1e 28 b1 bf 68 1a 57 ae bd 50 ae bf
       -0.06701839508846966 -0.0592097544973072
000400 49 31 5e 9b 48 b8 90 bf 0e 5a 6d 6f c7 de 99 3f
       -0.016327986224085298 0.025263897109960402
000410 ec 8c 0b 6e 42 f2 ba 3f aa 21 51 e4 31 58 86 bf
       0.10525908648155607 -0.010910405903033677
000420 9c 86 46 81 e8 db 6f bf 5c d9 a4 d6 d5 94 a5 bf
       -0.0038890400994241025 -0.04215114827313712
000430 f3 00 7c 9f 6f 79 be bf fb ab 8e e0 c7 74 74 bf
       -0.11904046672498562 -0.004994183321211483
000440 3a 0c 36 47 47 7b c0 bf 58 69 17 34 e5 81 8a bf
       -0.1287621591291968 -0.012943068172650271
000450 9c 4e ef 9f 51 27 cb 3f 30 24 4d f5 8e 2a a6 3f
       0.21213741597477032 0.04329344505692523
000460 aa d0 18 c3 95 9b ff bf 2a 5d 9c 53 0f 55 13 c0
       -1.9754846211408599 -4.833066278856942
000470 99 78 58 53 57 87 00 c0 21 f2 8b 91 64 74 c0 3f
       -2.0660845290540917 0.1285520277669017
000480 5f 8a db c7 55 f4 b2 3f c4 4b 72 f5 8e 04 b9 3f
       0.07404075745902493 0.09772580616326737
000490 5c 98 e0 b3 6a be b4 bf b1 18 2c ce e0 61 a2 bf
       -0.08103052989517451 -0.035903000991355134
0004a0 01 4b ed 65 9c b4 b0 3f be f0 95 7b 28 2d a6 bf
       0.06525590408754668 -0.04331327923407134
0004b0 b9 5a c3 7d c9 1e 93 3f 59 f5 94 06 78 9b c0 3f
       0.018672130871744772 0.12974453278904255
0004c0 61 e6 5b 2d 48 65 9d 3f 4e 7f 34 a9 41 82 c8 3f
       0.028706672447674445 0.19147511255232036
0004d0 7e 99 8b f8 2c d9 b2 3f 11 12 61 7f f5 33 c8 bf
       0.07362633769989732 -0.18908566207586877
0004e0 7c 33 8e 0c 94 1e b3 bf 02 d3 b0 54 1d 10 c0 3f
       -0.07468533808260064 0.12549177775658654
0004f0 f4 23 62 26 44 8d b8 3f 60 fc c1 40 07 68 7f 3f
       0.0959055513104799 0.007667568523287732
000500 d3 77 2c b9 a1 90 92 3f 36 57 c0 2e 2f a9 94 bf
       0.018129851271730345 -0.020176636913752342
000510 da e7 eb e0 04 da d1 bf ee 3a 7f 64 77 38 bd 3f
       -0.27893182721129295 0.11414285853900782
000520 43 c5 f4 5c 6e f8 cb 3f 29 f9 7d cf 61 2b a6 3f
       0.21851901568292406 0.04329972894537299
000530 8d 8d 6b e7 52 16 b7 3f fc a3 9f 91 fb 7b 6b bf
       0.09018438482194409 -0.003355017991442553
000540 b4 33 93 76 01 df ca bf c6 19 4c 76 8e d4 ca bf
       -0.20993059434695527 -0.20961170936807444
000550 07 32 1f 2e 22 6d b2 3f f9 e6 cd 8c fd b9 c0 3f
       0.07197774530431654 0.13067597747049556
000560 a8 4e c7 36 9d 08 b6 3f dc df 41 8e b3 f7 af 3f
       0.08606894099585338 0.06243668662585808
000570 a6 20 cd 73 9e 77 b9 3f 1f fe c4 c4 a0 6e 8b bf
       0.09948149039439844 -0.013394599919251125
000580 c4 af b4 6d 36 f0 d4 bf 73 ff cf ef 70 62 b0 bf
       -0.3271614142747661 -0.06400209288403662
000590 d2 0d 7c 32 6d d9 98 3f e7 4c de 0b 17 fe b6 3f
       0.02426691647180041 0.08981460609202295
0005a0 8e e9 f5 21 20 ee b5 3f 5b b1 40 61 90 8a ad 3f
       0.08566475705257501 0.05769778430144142
0005b0 07 f4 62 26 9d 90 c5 3f 9b 57 bd a5 37 b7 c0 3f
       0.16847576498358327 0.13059135048632417
0005c0 35 c4 0f f3 d7 5d b6 3f cb ce 34 08 c6 f0 aa bf
       0.0873694389736251 -0.05261820650266954
0005d0 2f 01 12 95 dc 0e bd bf 47 54 39 b2 ef cc b4 bf
       -0.1135080207768666 -0.0812520799748465
0005e0 49 e6 2b f4 34 bf c5 bf 10 05 21 c7 aa 65 c1 3f
       -0.16989767000613856 0.13591513369650743
0005f0 0b d1 0c 9e 20 f3 ce 3f 6f 45 c9 90 fc c0 e0 3f
       0.24179465977943723 0.5235579326492096
000600 73 0c 5c 27 19 ee d2 3f eb 17 c8 a9 07 d3 e2 3f
       0.2957823643084289 0.588260490040509
000610 4b 10 f6 c8 ad f0 05 40 9e e8 15 aa 08 f0 0e 40
       2.7425189685909905 3.86720402602539
000620 5f 45 b3 21 c4 37 f7 3f cc a8 4f 94 d0 ee d8 3f
       1.4511147800843316 0.38957609637749324
000630 06 8d 3b 6c 6e 79 de 3f 99 78 d1 27 51 30 c1 3f
       0.47616158074943404 0.1342870182442695
000640 54 d2 97 d2 66 69 03 c0 10 e9 67 e2 92 72 16 c0
       -2.426465649851062 -5.611888444511592
000650 a4 6c 62 b5 0e 64 02 c0 24 11 96 85 b5 9b d5 bf
       -2.298856179300474 -0.3376287273934102
000660 7c ca 15 da af 9d ca bf 8a 48 10 13 ee 83 90 bf
       -0.20793722294509454 -0.016128272927808975
000670 b4 62 15 bf 67 c9 c4 bf 5a 85 17 db 5d 0a ab bf
       -0.1623964007401547 -0.052813466066946105
000680 43 29 6f c4 7d 88 9f bf 1e e0 0a 8d 0e 0f 7b 3f
       -0.030794110407250896 0.006606156196248518
000690 50 ac fb 43 6b f8 9c bf 50 8e ec 75 52 75 a3 bf
       -0.02829139330325986 -0.03800447167875787
0006a0 5f ce 1c 5b f4 55 95 3f 43 44 d8 3e f4 53 9c bf
       0.020835702954356324 -0.027664009414426493
0006b0 10 3a d1 60 a7 a0 b3 bf ab ef e6 29 c2 e6 bb 3f
       -0.07667013276770995 0.10898984454155307
0006c0 c4 9d 46 0f 3f 98 9e 3f 82 14 d9 98 0d 84 b1 bf
       0.029877648646701407 -0.06842122060432312
0006d0 37 c0 0c f4 c3 60 b5 bf 74 8b 78 ed ee 9a 8e bf
       -0.08350777347800507 -0.014943949338947361
0006e0 40 eb ea 25 e4 96 a5 bf 82 d7 e5 88 a6 56 ae 3f
       -0.04216683352338757 0.05925484105220759
0006f0 48 d2 04 86 bd 33 b2 3f 4b 8b 35 61 5d 9f 51 bf
       0.07110199472374135 -0.0010755931769714396
000700 e9 67 36 9c 92 39 91 3f 7c 98 7f b4 04 b1 9f 3f
       0.0168211849064405 0.030948709027051255
000710 10 cd d3 1f b2 f2 a7 bf 35 39 82 0e ee 53 ac bf
       -0.04677349699513844 -0.0553278343878553
000720 ec 94 a4 9a 71 08 7d bf 9c f4 f8 b8 b4 e1 ac bf
       -0.007088130727685309 -0.05640949972119211
000730 93 cf 02 65 05 0e b0 bf 60 f2 73 50 fd 79 ab 3f
       -0.06271394458855033 0.05366508109179757
000740 c7 56 4d 89 7f 43 b9 bf e2 08 1e 52 bf 0b 8f bf
       -0.09868619062521154 -0.015159125035783597
000750 bc 68 fb 96 82 ed b4 3f 06 d1 72 4a a6 3b 9b bf
       0.08174911676488511 -0.02659473256490321
000760 bf 2b d8 32 6d 16 95 bf e9 98 2c fd 7c c8 aa 3f
       -0.020593363025948493 0.052310853867583
000770 3f 98 38 db 72 91 9b 3f 3c fe cc 8c 67 45 80 3f
       0.02692203009623761 0.007944878563306827
000780 0c 7c 6c 7a e2 32 93 bf 19 13 dd cb a0 e8 82 3f
       -0.018748797151712224 0.009232765408918863
000790 ed 69 ec b7 98 ee ad 3f 73 eb 64 ef 11 83 8b 3f
       0.05846097226295286 0.013433590048057309
0007a0 18 08 40 ad 3d b3 b1 3f 36 fa 81 92 72 3b 90 bf
       0.06914124946345657 -0.015851774398919903
0007b0 36 6c f3 73 86 f1 b3 bf 56 fb 3f 98 0f c0 a1 bf
       -0.07790413218337808 -0.03466843350906028
0007c0 41 6f 4a 2d 45 06 9a 3f 9b 0d 07 e1 a5 53 85 bf
       0.025414543999985332 -0.010413452081485633
0007d0 64 92 b2 92 c7 d9 96 bf 17 38 93 7f 5a 99 a0 3f
       -0.02231513817663923 0.03241999442398951
0007e0 d0 bd 8a 22 c2 6f b1 3f 31 1a 78 1d 6e 38 c0 3f
       0.06811154692945043 0.12672211111949275
0007f0 59 57 4a db 87 19 9f bf b7 a3 c1 9f d8 69 c3 bf
       -0.030370829352782767 -0.15166766930204087

visible_bias f8 [50]
000000 24 03 78 0b 24 28 f5 3f b8 ae 03 e7 8c 28 02 40
       1.3222999999999923 2.2697999999998864
000010 53 bb 27 0f 0b b5 01 40 4a e0 58 17 b7 d1 fd 3f
       2.2134000000000156 1.863699999999897
000020 66 c9 98 bb 96 90 df 3f 48 e6 6a 2b f6 97 d5 bf
       0.4932000000000215 -0.33739999999997794
000030 79 19 73 d7 12 f2 ef 3f 54 a0 f8 31 e6 2e 04 40
       0.9983000000000138 2.5228999999999733
000040 c5 90 5c fe 43 7a 02 40 28 d2 91 5c fe c3 04 40
       2.309699999999881 2.5957000000000967
000050 a6 d4 e7 6a 2b 76 02 40 8d 95 18 04 56 0e e3 3f
       2.3076999999999144 0.5955000000000595
000060 dd 66 44 69 6f f0 ef bf ea 37 67 44 69 6f e6 3f
       -0.9980999999999899 0.7010999999999943
000070 7f 5b 4b c8 07 3d ff 3f 41 12 58 39 b4 c8 e0 3f
       1.9523999999998691 0.5245000000000531
000080 81 18 04 56 0e 2d e8 3f 6d 99 99 99 99 19 02 40
       0.755499999999998 2.26249999999998
000090 82 d7 f0 f4 4a 59 e6 3f 8c 98 bb 96 90 0f f4 bf
       0.6983999999999784 -1.2537999999999867
0000a0 e6 93 f6 06 5f 98 e4 3f c0 24 e4 83 9e cd 00 40
       0.6435999999999893 2.100399999999894
0000b0 6d 52 96 21 8e 75 e1 3f ae 81 e2 c7 98 bb e0 3f
       0.5455999999999911 0.5228999999999837
0000c0 b8 27 7e 8c b9 eb 01 40 cf 2b 65 19 e2 58 ef 3f
       2.240099999999952 0.9795999999999995
0000d0 4d eb 51 b8 1e 85 ed bf b9 94 90 0f 7a 36 db 3f
       -0.9224999999999938 0.42519999999997143
0000e0 03 8f 31 77 2d 21 01 40 bb b9 49 0c 02 2b 01 40
       2.141199999999914 2.1459999999999275
0000f0 75 68 00 6f 81 04 02 40 5f c5 dc b5 84 fc 00 40
       2.2521999999999545 2.1232999999999005
000100 21 de 71 8a 8e 64 02 40 e9 c5 ba b8 8d 06 fd 3f
       2.2990999999999677 1.8140999999999343
000110 86 39 92 cb 7f 48 fa 3f 36 a6 b4 37 f8 c2 dc 3f
       1.6426999999999636 0.449400000000057
000120 53 5b b1 bf ec 9e f0 bf 0e 55 0e 2d b2 9d f6 bf
       -1.038799999999999 -1.4134999999999454
000130 ce 56 8f c2 f5 28 ac bf 1d 31 e6 ae 25 e4 fa 3f
       -0.05499999999999049 1.6806999999999512
000140 54 4f 1e 16 6a 4d f7 3f b6 eb 2f bb 27 0f f5 3f
       1.4563999999999924 1.3161999999999643
000150 c1 97 dd 93 87 85 f9 3f 9f 80 51 49 9d 80 ff 3f
       1.5950999999999882 1.968899999999884
000160 81 10 3f c6 dc b5 d8 3f c3 74 e0 9c 11 a5 dd bf
       0.3860999999999493 -0.4631999999999829
000170 ca ad 25 e4 83 9e f7 3f 7a fb 18 73 d7 12 01 40
       1.476199999999937 2.134199999999905
000180 99 35 cd 3b 4e d1 01 40 6f 9a 77 9c a2 23 f3 3f
       2.227199999999993 1.1962000000000008

hidden_bias f8 [27]
000000 36 e3 63 d5 00 24 17 40 44 74 f1 58 72 8a 15 40
       5.7851594297615545 5.385201825844948
000010 5e 37 44 78 57 8b 0f 40 79 84 68 b1 13 4c 17 c0
       3.9430379291360813 -5.824293872837296
000020 80 e9 ad 26 82 de 16 40 a9 bb 52 42 88 1b 19 40
       5.717293362011674 6.276886974620461
000030 98 84 d5 2f 3c 87 10 40 d6 7a ff c4 da 24 18 c0
       4.132065532118894 -6.035990789502383
000040 b7 e4 15 8d cb 26 16 40 6b 6f 45 c5 3f 63 f5 3f
       5.537885860883015 1.336730738249538
000050 e4 c7 4c 33 0f b4 15 40 48 65 c6 72 2f e4 15 40
       5.425839234887437 5.472837251052006
000060 84 3f 3a 36 e7 19 18 c0 3c a5 04 03 3a 59 18 c0
       -6.02529606562155 -6.08713535991529
000070 ac 16 54 10 d1 13 1a c0 82 d9 df 93 5f 91 16 40
       -6.519352202541693 5.641966162240694
000080 a2 8f 61 0f b9 16 15 40 f9 df b5 de 0d 09 14 40
       5.27219032319036 5.00884197220875
000090 41 49 7f 6f 87 26 18 40 72 18 11 24 fe 0e 1a c0
       6.037626020568781 -6.51464134554236
0000a0 03 6f e2 2b 6e 13 1a 40 21 85 73 c7 66 ac 18 40
       6.518974958129323 6.168360821176322
0000b0 cb 1b 76 32 75 aa 05 c0 84 df b9 65 f1 1f 18 c0
       -2.7082313482564806 -6.031194295377535
0000c0 07 b4 bd d4 6c 8d 16 40 60 ff 27 f2 c3 05 17 40
       5.638110469893042 5.75563028687597
0000d0 29 67 db 0e 14 66 19 40
       6.349685890332503
