Data/TFIM1D/Energy/Q50/Trial30.pt (torch_old, 12432 bytes, 3 tensors)

weights f8 [28, 50]
-0.07556088574360979 -0.1916023179668944 -0.034305593268258286 0.06423769307437864 -0.002452129962219504 0.06112345646302048 -0.06776278765861384 0.16210703642541188
0.012026497066805789 -1.6012356347831218 -5.311228247619575 -2.0079457393734703 -0.28190064639760587 -0.0760448722971338 -0.04699737383625463 -0.000809774547659778
0.24059461148881053 -0.052097142657248664 0.04146143450503862 -0.07151988663645081 -0.062291578603401496 -0.1285999124684643 -0.14397916610532582 -0.0239831997976564
0.1623646692565786 0.10774602361240596 0.051767675236630374 0.01690201804663385 -0.020056682796393915 -0.03448196099675136 0.2715837288680802 -0.06240270127664599
0.008116475253123725 0.30709834255549423 0.14598111481763681 0.11061730271532408 0.13555999082498768 -0.024194998461535198 0.0856384918045905 -0.08373322860090016
0.08954830989106784 -0.2663415823215429 -0.031232316325912286 0.22022235631246875 -0.17851208581261716 -0.1558984320741072 -0.024849212935264386 0.025782434466214157
0.13452324256960138 -0.01193627104611454 0.08409368410631021 0.05967509874838754 0.11139666277720821 0.30406414329816633 0.11428424325729386 -0.16961707524492464
-0.07705104073915818 0.20547155424946906 -0.07087417413035885 -0.08436155234629762 0.2964239065281149 0.07185620892385497 0.11043325205499158 -0.06693835355430298
-0.21141859616591205 -0.16348109406030026 0.22070402414582005 0.08224765798415892 -0.01023229622065125 0.09047426979610255 -0.10952174939216708 0.3105219627671521
0.673976218652644 2.287523382015369 5.556331645860446 2.3641486920498624 0.44941503613510647 0.29847800141759123 0.3306412915103032 0.15857142352690967
0.062642549265882 0.05524535559123007 -0.0900535382780804 -0.012616255066272293 0.1655440060610081 -0.0488895000077969 0.04526503555713915 0.003407485975596328
0.021157747945184463 -0.07016600766941357 -0.015677865558892234 0.09610227805364202 0.037930148302715745 0.03580991355738223 0.04061932105749282 -0.0201392167420374
-0.05524117191605173 0.14599746110867515 0.047513994273251425 -0.08384678224510402 0.0010616084132566153 -0.07616381534023822 0.0840889574049955 -0.05011006040030495
-0.00930158367649887 0.005535047803359067 0.002404981938804396 0.12107305634341457 -0.16545924790686753 -0.026938027052988596 0.0064545720286123005 -0.17793755003711373
-0.03145054170084454 -0.1790208042220735 0.1057400784487407 -0.2847891447378886 -0.2699144846293057 -2.2662949799555205 -5.302604085668533 -2.1668477341356187
-0.34993994398042993 -0.11425484795163275 -0.1437539243191982 -0.2567788510585928 0.016292773327062714 -0.04502936393095924 0.06673837750382253 -0.07220299500216722
0.09253946207058145 -0.1115955787693331 -0.04338093652129105 0.07228929934234332 -0.003907477634923951 -0.22500621124114917 -0.021826908372346857 -0.40872764579814713
0.044081354568769035 0.1645696254431623 -0.028351369200894348 0.23357842546691496 -0.09679333560595985 0.15824454373156108 -0.044008127094916825 -0.09288578733906061
-0.09912397450866961 0.10519845561496194 -0.08152875615258832 0.11635934969181483 0.0123760856893043 0.015061326485415185 -0.030497964140818824 -0.06853929697322587
0.002331109879571349 0.15013334908054465 -0.023569337701582885 -0.06049680340566811 -0.026729230844406406 0.07157660086562534 -0.02676363019213634 -0.01631924384004913
-0.13866088010244695 0.00503186031512391 0.018464200127923675 -0.0761733211727447 0.17731307247622097 0.06910827650133176 -0.21192458383247606 -0.09595677996318659
0.08363550827108986 0.04711745690206048 0.04027026946783034 -0.024565548734622612 0.14562495579328041 0.002945059997068536 -0.13191495927726635 0.08239228631266987
0.2473381463075463 -0.008636984879348122 -0.07548222097713594 0.02201553787501771 -0.11387120667456435 0.057225298977925505 -0.06164003462729983 0.16683863564050883
0.022092322899137925 -0.06664871452146393 -0.04593913982654918 0.4022495372810043 0.003528050691432423 -0.04793092278928526 -0.015598415768105124 0.2953893873212427
0.09011247366226138 0.02919226072212272 0.5326147246258982 2.3548217624492263 5.4913064769679805 2.4543381675107527 0.4021373785299638 0.21071162703252547
-0.027629021403250645 -0.11623588861057065 -0.0009759435480446441 0.010639224266595625 -0.052181193608542446 0.049045981836572286 0.10109219213878175 -0.13627716758037187
0.12876955944331847 0.08641371473374326 0.033594197906080744 -0.13945226419687604 0.24942992481830184 0.027788473601528127 -0.16063871469919788 -0.010341426442334184
-0.052025036640912715 -0.07264490045463345 0.19666121482995302 -0.03334341134623348 0.0043973139620086974 0.17365094127465103 0.04719469721877211 0.04436887161320117
-0.13154005457997178 0.06758424962947285 0.4202723948542056 0.16930917315835278 0.2912396673773182 0.402139034257584 0.7856291068490524 3.434411325363
3.1258978134485433 0.38298099742733854 0.22616349766762672 0.24513515268819308 0.28440419893738966 0.34654866961419845 0.16149113520406452 0.011982901950128515
-0.2197930870433442 0.07382557524521322 -0.05248081502976994 -0.025367131744947917 -0.00581664868221641 0.14872744098138216 0.00970673751480566 0.05556837892558796
0.18534874568206008 -0.027510527108824446 0.09026606648833425 0.09468850675647214 0.14214313296533557 -0.015254396392170208 -0.07079337960649419 0.10002222291398574
00000000: 1b27 204d f557 b3bf a7b7 c0bc 6c86 c8bf
00000010: 7a68 50b2 8090 a1bf ffc8 eca6 e171 b03f
00000020: 93e7 c83f 7d16 64bf f9e6 0ddd 924b af3f
00000030: 7529 e1ec e658 b1bf 2306 f361 ecbf c43f
00000040: 75ef b21c 59a1 883f 3b55 c941 a99e f9bf
00000050: 4978 249e b23e 15c0 4403 16db 4510 00c0
00000060: 3fef 3f02 a90a d2bf 8c70 8b3f ad77 b3bf
00000070: 88cb 3f2f 0a10 a8bf 81b5 8399 e188 4abf
00000080: 2319 f8e1 cdcb ce3f 9519 db07 7aac aabf
00000090: 4520 7de2 6e3a a53f c0ff 1d96 204f b2bf
000000a0: deec d589 aee4 afbf b206 2941 f675 c0bf
000000b0: 2126 ddc8 e86d c2bf 6131 234b 0d8f 98bf
000000c0: 6ace 3d90 5dc8 c43f c277 b04f 3e95 bb3f
000000d0: ad36 43f0 4a81 aa3f 679d fc3a c34e 913f
000000e0: f8ff b432 bd89 94bf ade4 909d 9ea7 a1bf
000000f0: ff4d 67b8 a061 d13f e89b 5432 3ff3 afbf
00000100: eeec 2ade 5e9f 803f 33a0 7bce 7fa7 d33f
00000110: f6d8 fc58 82af c23f 6eb7 8861 6a51 bc3f
00000120: 13a4 9e9f 075a c13f e9eb 79dc 92c6 98bf
00000130: d158 9479 67ec b53f 68ea 6d76 8a6f b5bf
00000140: edea 6456 a3ec b63f e4b2 6890 bd0b d1bf
00000150: 02e0 ca44 5dfb 9fbf f7e4 1a05 3f30 cc3f
00000160: 85c2 40e9 7bd9 c6bf 8ec3 a0d5 7af4 c3bf
00000170: b39e 8d73 1272 99bf 94e6 5fe3 b566 9a3f
00000180: 3db4 b1bf 0e38 c13f 57e9 3b2e 0b72 88bf
00000190: ee68 09e7 2987 b53f f610 050b bc8d ae3f
000001a0: 7bfb 82df 7d84 bc3f 3c85 d673 c975 d33f
000001b0: bcf9 3c6f bb41 bd3f 6093 8227 03b6 c5bf
000001c0: 5bf2 18f4 9db9 b3bf cc3f e152 e44c ca3f
000001d0: bc59 0554 cf24 b2bf e9fc 5dfc b798 b5bf
000001e0: b49c 12fa 9bf8 d23f 1cae 5723 2b65 b23f
000001f0: c294 f785 5a45 bc3f 1723 5d37 df22 b1bf
00000200: d73f 26ba c30f cbbf ca6b 40d0 f2ec c4bf
00000210: 61a4 e68a 0740 cc3f 22ed 36b9 2e0e b53f
00000220: c1a2 0b8d abf4 84bf 935b e75d 5229 b73f
00000230: 880e d70b 9e09 bcbf d593 b182 97df d33f
00000240: 9fa2 2c93 3691 e53f 08bb 140f d94c 0240
00000250: 48cd c200 af39 1640 f7e1 19ca c6e9 0240
00000260: eefa a148 37c3 dc3f e97e aa79 431a d33f
00000270: f49c 6f17 3a29 d53f 3c6a 1083 114c c43f
00000280: 425e 6f94 5709 b03f c95a 0a87 1e49 ac3f
00000290: d91e cba9 bf0d b7bf 84d5 4217 8dd6 89bf
000002a0: 7a59 0ac6 8b30 c53f 7f74 4d67 0b08 a9bf
000002b0: 8489 bd8e fa2c a73f a1db 741a 04ea 6b3f
000002c0: e822 ed6d 60aa 953f e523 3b44 66f6 b1bf
000002d0: f3d7 62bf db0d 90bf e0bd 4fad 289a b83f
000002e0: 4935 fc94 946b a33f 89fd 334f ad55 a23f
000002f0: e728 0e3f 0ecc a43f 53af 18f5 5f9f 94bf
00000300: 0358 8b25 9248 acbf 9f61 6178 0bb0 c23f
00000310: 600b 0317 c153 a83f 1918 9e93 fb76 b5bf
00000320: 814f a15a b564 513f 4260 06c8 787f b3bf
00000330: 745a 029a da86 b53f cd62 3d9d 06a8 a9bf
00000340: e655 886d b50c 83bf c76d c114 ebab 763f
00000350: 80d0 c9d8 9cb3 633f 8ff6 6bd1 a4fe be3f
00000360: 1956 4ac5 c42d c5bf f26b d864 a495 9bbf
00000370: 626e 5cfc 1b70 7a3f e3e3 115b a8c6 c6bf
00000380: 77dd 1710 491a a0bf 86fd b759 27ea c6bf
00000390: 3a56 d022 c811 bb3f 35ec b93f fc39 d2bf
000003a0: a2c5 0c67 4746 d1bf c6fb 2f43 5f21 02c0
000003b0: 4f54 6ed8 dd35 15c0 8831 cc43 b455 01c0
000003c0: f270 bd81 6a65 d6bf 5f99 5c43 ce3f bdbf
000003d0: dcb1 cf51 8766 c2bf 9b78 e68f 106f d0bf
000003e0: e64b 6782 0daf 903f d0e4 e2ba 160e a7bf
000003f0: 6a5b c42c c415 b13f a122 353e e57b b2bf
00000400: 8cbd 2e8b aab0 b73f 3646 3121 8791 bcbf
00000410: b0f1 41af 0636 a6bf baaf 8630 8d81 b23f
00000420: 0dfa 6d8a 4901 70bf b4bb 56e7 00cd ccbf
00000430: d12f 8706 cb59 96bf ae24 ebff 9728 dabf
00000440: def4 78d0 d491 a63f bfbf 9813 9e10 c53f
00000450: c903 0f2e 2408 9dbf cb3d 37d9 e5e5 cd3f
00000460: 42fa e5b2 72c7 b8bf c57a 0c72 5b41 c43f
00000470: 9b02 43b5 3b88 a6bf 086d e2ea 5cc7 b7bf
00000480: 70a7 c354 3060 b9bf 64ba 7436 49ee ba3f
00000490: 8de2 5b8d 11df b4bf a89a 82f1 b9c9 bd3f
000004a0: 16f0 4d1a a258 893f 9b8e 8305 79d8 8e3f
000004b0: 9a4d 51ba db3a 9fbf 7da7 fd96 ca8b b1bf
000004c0: 6bca 4616 b118 633f 8c81 2bd0 9137 c33f
000004d0: 847a 777a 8f22 98bf 229f 47e0 6ff9 aebf
000004e0: 2abc 4b51 e85e 9bbf d06f e017 d852 b23f
000004f0: bf00 97d1 ec67 9bbf 6295 5aea fdb5 90bf
00000500: a925 a3c4 a3bf c1bf 6d2c ddb7 499c 743f
00000510: d5f0 c87e 47e8 923f a2bf 4343 1880 b3bf
00000520: 9425 b8db 31b2 c63f efc5 747b 14b1 b13f
00000530: d5b2 6342 5820 cbbf 7d77 c59f 9f90 b8bf
00000540: e504 cffc 2269 b53f 9f19 ee80 c71f a83f
00000550: c61a bb04 4e9e a43f 8aa9 b111 b627 99bf
00000560: f589 4eab d6a3 c23f 3acb e80b 3d20 683f
00000570: d779 f9e1 96e2 c0bf 74d4 272f a917 b53f
00000580: b6da b8c0 c6a8 cf3f 6826 be7c 44b0 81bf
00000590: eeb7 8686 cd52 b3bf b34c b5bc 3d8b 963f
000005a0: 4c91 9fd4 a926 bdbf d15f 3a67 a24c ad3f
000005b0: 8076 b259 488f afbf ec82 e4e9 f75a c53f
000005c0: 8fbc 60b1 5e9f 963f 38ac 30e1 e30f b1bf
000005d0: 00a3 52be 5585 a7bf b6fe dcd7 74be d93f
000005e0: 909e d3ca dbe6 6c3f a4b4 b1e3 668a a8bf
000005f0: 2754 bfec 0ff2 8fbf 6f55 88e3 a8e7 d23f
00000600: a050 576f 9c11 b73f 902b 6474 93e4 9d3f
00000610: 655c f408 2e0b e13f 2f07 cdca acd6 0240
00000620: d38f 8b0b 19f7 1540 1a44 960c 7ca2 0340
00000630: 7443 526a 9ebc d93f 45ee 7e3d 99f8 ca3f
00000640: c4c8 633d c84a 9cbf c732 349c a2c1 bdbf
00000650: fe63 90cf cefa 4fbf 991b 3d82 04ca 853f
00000660: 6fa5 0750 7eb7 aabf e200 fa0f 8e1c a93f
00000670: c1f4 1d8b 2de1 b93f ab7f f9bc 8771 c1bf
00000680: c0c2 435b 857b c03f a811 b58e 351f b63f
00000690: 7e16 af3a 4233 a13f f713 0a61 92d9 c1bf
000006a0: 1882 dedc 51ed cf3f 3c1b 4ce5 9474 9c3f
000006b0: 3861 0d35 cf8f c4bf d017 e9c2 e22d 85bf
000006c0: dd4f e48d 06a3 aabf e07f ac2f db98 b2bf
000006d0: 2c0b 0bd7 312c c93f c9cd 893a 6312 a1bf
000006e0: 735d 83fa ea02 723f f2dc d8ac 313a c63f
000006f0: afd0 3242 e729 a83f c507 1449 84b7 a63f
00000700: fd7b 44f4 4dd6 c0bf 081f e28d 334d b13f
00000710: c9dd d32f bee5 da3f e35f d048 ecab c53f
00000720: 76be abb3 aba3 d23f ca34 255c a5bc d93f
00000730: d079 16a7 df23 e93f 9d91 1ba5 ac79 0b40
00000740: fa31 7bb6 d601 0940 fb26 bcba c282 d83f
00000750: de05 04ed ecf2 cc3f 20a8 f2b3 9660 cf3f
00000760: a2fe 51ab ad33 d23f 55c7 9d78 da2d d63f
00000770: bbce 25d4 bdab c43f fc53 e5df 7d8a 883f
00000780: 3f78 5e0c 2e22 ccbf 2c5d 499f 3be6 b23f
00000790: 7ac9 70f0 c3de aabf 6e95 f364 d7f9 99bf
000007a0: e98e ccbd 32d3 77bf 0133 8433 8009 c33f
000007b0: fe62 6a41 20e1 833f 8fb1 5a64 7573 ac3f
000007c0: 958f 87f8 81b9 c73f ed98 e938 b82b 9cbf
000007d0: 6986 814b ad1b b73f ca7c d387 813d b83f
000007e0: c1f2 b705 bf31 c23f cb29 ff6c b23d 8fbf
000007f0: 95e6 2ed2 831f b2bf 2eee 4970 0e9b b93f

visible_bias f8 [50]
1.1912999999998968 3.3759000000000983 1.7125000000000175 3.4122000000001034 2.5119000000001668 1.340699999999951 -0.01680000000000572 -1.7365999999999235
-2.090999999999863 -0.6421000000000209 1.7824999999999274 1.7271000000000498 1.2902999999999838 0.588200000000017 -1.9929999999998889 1.1855000000000262
2.7139000000006015 2.772299999999894 2.3232000000000887 2.6514000000000557 2.5940999999999645 1.5923000000002294 2.02389999999993 0.9573000000000331
-2.1947000000000587 0.42069999999998897 1.7500999999999312 2.5125000000002724 2.145599999999807 1.5091000000000918 2.822800000000354 -1.0118999999999487
-1.0640999999999758 -2.4517999999996456 -2.252699999999991 -1.8831999999998887 -0.3437000000000156 2.7141999999999995 2.497099999999912 3.4877000000001455
3.3503000000002636 2.6670000000002054 -0.6222000000000082 -0.7177999999999485 1.9572999999998977 0.07590000000001396 -2.080900000000126 -0.7012999999999281
1.5604999999999067 1.276500000000026
00000000: f796 bb96 900f f33f da88 f4db d701 0b40
00000010: b566 6666 6666 fb3f 0c4b 7b83 2f4c 0b40
00000020: be95 f606 5f18 0440 abf3 dbd7 8173 f53f
00000030: 8692 4aea 0434 91bf 7bbb e314 1dc9 fbbf
00000040: b97b 3f35 5eba 00c0 c35f 984c 158c e4bf
00000050: 3eea 51b8 1e85 fc3f c0bf 0e9c 33a2 fb3f
00000060: ae75 e09c 11a5 f43f 953b 70ce 88d2 e23f
00000070: 22d7 cef7 53e3 ffbf a187 16d9 cef7 f23f
00000080: 95ef 0434 11b6 0540 4e9a 559f ab2d 0640
00000090: 688a b0e1 e995 0240 c8ea 0434 1136 0540
000000a0: 766d 3480 b7c0 0440 a2bf 9690 0f7a f93f
000000b0: 28fe b27b f230 0040 0ac0 0e9c 33a2 ee3f
000000c0: 6a40 a4df be8e 01c0 7856 5bb1 bfec da3f
000000d0: 3bab 8bdb 6800 fc3f ff9b 9999 9919 0440
000000e0: ca5f 3255 302a 0140 cd4d a60a 4625 f83f
000000f0: db33 992a 1895 0640 a627 ed0d be30 f0bf
00000100: a4c6 bab8 8d06 f1bf 75a6 8251 499d 03c0
00000110: e297 dd93 8705 02c0 413a bd52 9621 febf
00000120: 37a8 e848 2eff d5bf f36c 567d aeb6 0540
00000130: d3ba 9690 0ffa 0340 1f14 f241 cfe6 0b40
00000140: c851 1e16 6acd 0a40 8b76 9318 0456 0540
00000150: 8f47 72f9 0fe9 e3bf cc31 a2b4 37f8 e6bf
00000160: a35d 07ce 1951 ff3f b836 c4b1 2e6e b33f
00000170: bcf9 31e6 aea5 00c0 5ae7 95b2 0c71 e6bf
00000180: 8785 16d9 cef7 f83f 7b81 9543 8b6c f43f

hidden_bias f8 [28]
4.3463149325431925 -6.912721949862973 6.121738861389062 -6.32037294980634 -5.478556930394731 3.2669015321427817 -5.304808483027019 6.300618711921746
6.191740279031373 -6.571642379203041 5.567160104806696 5.753960039847842 5.773861337427764 5.791886792097721 6.382836030032557 6.307966369920627
5.167031550578878 5.675908083034191 -5.44767772588454 5.405275381109574 -6.556721977610432 5.562306050245658 4.788978889800734 5.258206313365533
-4.856624888038564 5.659925796916718 -1.9804019887083355 -5.85848995963022
00000000: ce8e b561 a062 1140 e302 3495 a0a6 1bc0
00000010: f045 b11c a97c 1840 dfc3 b7d8 0f48 19c0
00000020: 3047 f5d3 0aea 15c0 bf71 3e45 9d22 0a40
00000030: e293 08b7 1f38 15c0 0314 4164 d533 1940
00000040: 0a10 4f90 57c4 1840 20bd ae9e 5c49 1ac0
00000050: 78f6 569e c544 1640 a28c c619 0e04 1740
00000060: 7490 3f1b 6f18 1740 b8c6 085f e42a 1740
00000070: 98e1 122b 0688 1940 c74e 3c89 5b3b 1940
00000080: ba8b 9c51 0aab 1440 84ef 9e3f 21b4 1640
00000090: 7949 9f07 6cca 15c0 4ef5 6e82 009f 1540
000000a0: 7b34 7b53 153a 1ac0 9697 4028 cd3f 1640
000000b0: d3b6 0315 ea27 1340 4f1a 5e3c 6708 1540
000000c0: dc42 1c13 2f6d 13c0 192d 8e96 c3a3 1640
000000d0: 79f8 e6fe b9af ffbf 8139 f2fd 176f 17c0
