Data/TFIM1D/Energy/Q60/Trial2.pt (torch_old, 17192 bytes, 3 tensors)

weights f8 [33, 60]
0	0x3fa14f96ada5a83a	0.033810337731509724
1	0x3fa5e4e725360e30	0.042762015621545024
2	0xbf833989443dae34	-0.009387085337684821
3	0x3fa4c4c5727a44cb	0.04056374571258344
4	0x3f83b4a712246b8d	0.009621911278875373
5	0xbfa39d7fd97b8164	-0.03831100015463809
6	0xbfaa6c1ef6ebbd58	-0.05160614742441777
7	0xbf79f8c5e58026f3	-0.00634076407733074
8	0x3f86848895a13d6c	0.010994975153294027
9	0xbfb752bba7cb9532	-0.09110615583957296
10	0x3f9e6d0a4fa083b1	0.02971283064846703
11	0x3fcabae0c865583c	0.2088280657287117
12	0xbf8dee0c4fd13161	-0.014614196954561622
13	0xbfc6ff93a529f0e3	-0.17967458309784154
14	0xbfa2a30acef6f769	-0.03640016342568126
15	0xbfa00040dbd5d176	-0.031251932940821556
16	0x3faf5e8e96debd83	0.06126828757930538
17	0x3f94a6af26a85bb9	0.02016709969947403
18	0x3fa8951b94b2f00c	0.048012601758699786
19	0x3f9da20b03754188	0.02893845757108829
20	0x3fa9aeb3de9702ba	0.050161000177018036
21	0xbfab981414f225af	-0.05389464145361999
22	0xbfc152e1ae00773e	-0.13534184452231018
23	0xbfb0c899f30104d1	-0.06556093390192365
24	0x3fb1cd8134a85f58	0.06954200301731583
25	0xbfa8e0ebad56a5b3	-0.0485910081000144
26	0x3fb616160435ce0f	0.08627450564181792
27	0x3fb42730bf8faccb	0.07872299839771128
28	0x3fa94b5459839d71	0.049402843405739534
29	0x3fb312a00c886cc3	0.07450294786433447
30	0xbf863f19467cf7b4	-0.010862538779857413
31	0xbfb7bcbbfd21b3a9	-0.09272360734912745
32	0x3fa1a66c14ba01ba	0.03447282555589788
33	0xbfae5dd37d97de09	-0.059309586602406546
34	0x3fb0259fcb6a4ae5	0.06307409969512497
35	0x3f98cbd0847cfd29	0.024214990698280623
36	0xbf9c5cac380ca398	-0.027697268410665637
37	0xbfa76906662957e9	-0.045723152132879204
38	0x3f7edf26b003647d	0.007537032244919859
39	0xbf9b8fd45fc71d5b	-0.026915853830158692
40	0x3fa0caf14d09e5e0	0.03279832902348878
41	0x3f957c90dee36fab	0.020982993701963142
42	0xbfb04ac0af7ccb3f	-0.06364063534128393
43	0x3f9a2c97d0f7a7d5	0.025560733918531604
44	0x3fadb7473f912187	0.058038927564271474
45	0xbf9366b26bdb8e1b	-0.018946445305927023
46	0xbf70215be88ccd78	-0.003938063637906601
47	0xbfa4631acdba2aed	-0.03981860886877606
48	0xbfbc3529e753ba43	-0.11018621347077677
49	0xbfcd6c2888abe077	-0.2298632304516592
50	0xbfcdd7c2032b9a5b	-0.23314690737534502
51	0xbfdfcd50cfb1459b	-0.4969064739462625
52	0xc002f30d27b63349	-2.3686774351575974
53	0xc014cad6d62eea7b	-5.198085161794206
54	0xc002a3849ac1a9d2	-2.329842766795289
55	0xbfde3f0201aaaf0c	-0.47259569323317474
56	0xbfbfda867fe1b89a	-0.12442818281280879
57	0x3fa3bd134dabcc5e	0.03855190585263622
58	0xbfb1b570f1b79c7e	-0.06917482281970597
59	0xbfbf15cc67249f80	-0.12142636793271144
60	0xbf8ad628deada4d5	-0.013103789611437136
61	0xbfa209b74fb64811	-0.035230377655480656
62	0x3faf79a6ffd9b48f	0.061475008708705585
63	0x3faf03f14f74d77b	0.06057695479323307
64	0xbf9e780c7ec20e68	-0.02975482486409789
65	0x3f86ff7e7957a45c	0.01122950370604963
66	0x3fb55202b49ac4b6	0.08328263196269145
67	0x3fc0743ad44a5b19	0.12854705205673936
68	0x3fcd4171857a76e9	0.22855967538355706
69	0x3fbd035ecd82b3b9	0.11333267705295115
70	0x3fcd3e55a4e959ef	0.22846479942627648
71	0x3fd5d920a41a7c01	0.34137741113403314
72	0x40023551a8c8e6b1	2.2760346590337908
73	0x40143b9c1c1b5e3a	5.058212699098982
74	0x40023ed904eddad3	2.280687368878128
75	0x3fd9801e6df519da	0.39844475496320586
76	0x3fc6b065db79da66	0.17725823608971608
77	0x3fb553a15793d14d	0.08330734623070164
78	0x3fb8be75fc72db12	0.09665620244309661
79	0x3faf6cac6f0d3af3	0.06137598853694284
80	0x3fc3c1981bc1ece6	0.1543455253157397
81	0x3fc1e01f54454c62	0.1396521722295772
82	0xbfbf032beecdd0fe	-0.12114214496779493
83	0xbfc79ff2f65b942e	-0.18456875828920388
84	0x3fa32017081bfb80	0.037354202022462424
85	0x3fd4779a6cd01305	0.3198000013947396
86	0x3fc6f618447ca01c	0.1793852171333591
87	0xbf82f302c4927027	-0.009252568839933485
88	0xbf997331eb95d11c	-0.024853496555310092
89	0xbfbec3c56fcb5a38	-0.12017473201135764
90	0xbf7f55813f0c3071	-0.007649903171806569
91	0x3fa637683fd81a89	0.04339147357318491
92	0xbf444c1acc838a3d	-0.0006194239477078156
93	0x3fb5e370eb49e76c	0.08550172561981889
94	0x3fa09c5781b0312d	0.03244279344662213
95	0x3f5582f313d554a8	0.0013129590800720434
96	0xbf7453b118970ad5	-0.004962627202476273
97	0xbfa4c444350a0f85	-0.04055989406063446
98	0xbf62c8493e0dc038	-0.0022927694812367137
99	0x3fbd404b0feb5c86	0.11426228655487777
100	0xbfa2925e313b0189	-0.036272948751050534
101	0xbf92e8d21223f4a2	-0.01846626506538896
102	0x3faafaac4c85d416	0.05269373354068578
103	0x3fba179f4d519d8e	0.10192294728914517
104	0x3fa8ecb1579a465b	0.04868082231872669
105	0x3fb9f54c16e71922	0.10139918860577216
106	0x3f8df0ad62254e74	0.014619211728734906
107	0x3faf1effd4e70e86	0.060783381213267026
108	0xbf8c3a6acd1a8ba3	-0.013783296951549511
109	0xbfc67b8adc311bdc	-0.17564521552614465
110	0xbfb92bef9c93be2f	-0.09832665989574062
111	0x3fc8cb79d7976c1e	0.19370959307602303
112	0x3f9357043c4533cb	0.01888662927494859
113	0xbfbfb74e6ad262a1	-0.1238907824321225
114	0x3f7735622059ec28	0.005666144662991569
115	0x3fbabd1658c44f12	0.10444774310263608
116	0xbfa707243493b550	-0.04497635976609138
117	0xbfb75644841b9c3c	-0.0911600897339761
118	0xbfafbe2cd2044aae	-0.06199779571229179
119	0xbf72f5a70557601b	-0.004628803658725668
120	0x3faf054ae6ec3f4e	0.060587254227469786
121	0xbfa96e90c6055762	-0.04967167298552401
122	0x3f8543109dc7ae2a	0.010381822409690395
123	0x3fac199eef69fc9b	0.05488297150167761
124	0x3fa7aaaa186e81ed	0.046223941309339135
125	0x3fb556cbf6a1994c	0.08335566302557601
126	0x3f99cc44f7031159	0.025193288399138456
127	0x3fa0e58169d560c4	0.03300098816788613
128	0xbf988dbd90924c76	-0.0239781970490864
129	0x3fb0e6b5af27a774	0.06602035070650719
130	0xbf4f475e68b221c4	-0.0009545527440347136
131	0xbfad82f56e7ae0a0	-0.05763976071961108
132	0xbfb3eb04a5e16d00	-0.07780484247034636
133	0xbf83a7b790493748	-0.0095972386272042
134	0xbf8ae2f395fc1217	-0.013128188147228532
135	0x3fab8291486ab2fa	0.05373052605623303
136	0xbf8b106974599977	-0.01321489702531829
137	0xbf97b3d7d91eebae	-0.023146984698296506
138	0xbf9bf6a4b26eac95	-0.02730805720390757
139	0xbfae00526c0ef41a	-0.05859620637009062
140	0x3fa6ad6cd479ad1f	0.0442918786401043
141	0xbf95fad7a06081dc	-0.021464699901231885
142	0xbfa4278b54050cfb	-0.03936419869071447
143	0xbfac6e5afad35461	-0.05552944480738443
144	0x3f8a17f90bf11eb8	0.012741037060677626
145	0xbfb9ddb89285ffc8	-0.10103944375259666
146	0x3fa4cd89080c1e9a	0.040630609733907266
147	0x3f9d388d49d49ca5	0.028536040908104927
148	0xbfaa2f7d94bbec06	-0.05114357414819186
149	0xbfc5eb4b2f791b19	-0.17124309366246207
150	0xbfc8e2ccc6e75b16	-0.194421383973087
151	0xbfd63cd9b46f5abd	-0.3474640142498336
152	0xc0027fedd0c0cab8	-2.3124653157077226
153	0xc014234e4b5b47cf	-5.034478356787033
154	0xc002aba313bb44f6	-2.333807138588436
155	0xbfd6bfd7e1cd9c8c	-0.35545918513384644
156	0xbfbc1e62680d813f	-0.10983862915373253
157	0xbfa88cd6d234f4d5	-0.04794951740266532
158	0xbfba226319d81c52	-0.10208720570527532
159	0x3f95bb4d38a18dfb	0.021222311574446078
160	0xbfb6a76fee01bdaf	-0.08849238930428414
161	0xbfba9f19a276ffd2	-0.10399017540385039
162	0xbfaa1434dff8ab24	-0.05093541368508728
163	0x3f9addaf86a98f3a	0.026236288637291973
164	0x3fa11e9f0c1a01c3	0.033436746814007566
165	0x3f97d10ac3cc6b85	0.023258369637101168
166	0xbfbc3701df7894da	-0.110214345033984
167	0x3f8363fe369b10f5	0.009468065301355891
168	0xbfa4abb73c473881	-0.04037258730714744
169	0xbfb49aeb717f83be	-0.08048888703298382
170	0xbfa0095c0c45cb84	-0.031321407793163863
171	0x3fac382b994c044b	0.055116045439725335
172	0xbfa1ac73212a1ec5	-0.03451881198730925
173	0x3f9794148fb61f80	0.023025819083641874
174	0x3fb112a9196fc91c	0.06669098731052653
175	0x3fb3cefb0119ec8b	0.077377021569122
176	0xbf1d635b4bdc72de	-0.00011210674980728248
177	0xbf9e192456990024	-0.02939278391409074
178	0xbfb09e5f244e79ca	-0.0649165595664051
179	0xbf89a74ef3239081	-0.01252614669324026
180	0x3f86dc5eaaf6c759	0.011162509529501529
181	0x3f9f35fa5cf1d3ff	0.030479347155466737
182	0xbf96ff662b90e608	-0.022458645257051685
183	0xbfa98de5be2ffe50	-0.049910716501469055
184	0xbfa4c4dc303ede90	-0.04056442345557543
185	0xbf9092323840e324	-0.01618269413322361
186	0x3f814e7c62d2daef	0.00845048119150024
187	0x3f789b40265e7e56	0.006007433495966183
188	0x3f9578da60387dd5	0.020968830225795394
189	0x3fb4ee38be83dafb	0.0817599740147265
190	0xbf9a8518460d0b79	-0.02589834144169909
191	0xbfa97cae58b3ff07	-0.049779365852371575
192	0xbfaad715546d216e	-0.05242220550150277
193	0xbfae6c52d61c1fec	-0.05942019332547929
194	0xbfc297a604a1ea4a	-0.1452529451961076
195	0xbfb3bf8a386439bf	-0.07714141728158717
196	0xbfc3e1fbab5816d1	-0.15533395639811556
197	0xbfb4de80c00e3160	-0.08152012528279817
198	0xc002439d25015900	-2.2830145731960556
199	0xc0137bdacc0f42b4	-4.870951832229071
200	0xc00268bba32e9e97	-2.301139139995779
201	0xbfe10aea39c14383	-0.5325823905969717
202	0x3fc272b7ee44be5f	0.14412593015866812
203	0x3fbbf6ed90906eee	0.10923657206916079
204	0xbfc607fafba49650	-0.1721185425496281
205	0xbfbe8a63b3586738	-0.11929915550754522
206	0xbf9a3e996237d52f	-0.025629421825177075
207	0x3fb30d755f22a4f3	0.0744241101516712
208	0xbf8cff49687abedb	-0.014158795834503681
209	0x3f8ace2deb29e8fd	0.013088568438651022
210	0xbfa5d19a20ce3d0e	-0.04261476183375566
211	0xbfb15d1866187581	-0.06782677166525809
212	0xbfa2530bc526780d	-0.03578984052295207
213	0x3fa9b478c7402686	0.05020501549013283
214	0x3fb00548ec9ba46e	0.06258064056932408
215	0x3fa24dd4b38ee2f4	0.03575005237457232
216	0xbfb001281e8f3ae1	-0.06251765009003975
217	0xbfb249bd9f7366da	-0.07143769400445468
218	0x3fa1f19a83939180	0.035046413957192435
219	0xbfa2a30f1fc14e5d	-0.03640029204020998
220	0x3fb54bd0a9d6628c	0.08318809648916153
221	0x3f9a970c187c8627	0.02596682452634105
222	0xbfb404d13fc55521	-0.0781985073748115
223	0x3fae3f0a3facd070	0.059074707291444706
224	0x3fbdc2e072087ae6	0.11625483306896064
225	0x3f80911a33843e97	0.008089260766183144
226	0xbf96aae16724f0ff	-0.02213623230021344
227	0xbfa7108eba0c8912	-0.04504819890122937
228	0xbfb7eef88e5cd15e	-0.09349015689514803
229	0xbf801a1210c076c2	-0.007862225662445769
230	0xbf9b1f8f914fcec1	-0.026487582439542082
231	0x3fc3e82aaa04eddd	0.15552266408654605
232	0x3fa0d461387a76f4	0.03287032904084511
233	0xbf87d3e15cc3658a	-0.011634598391924173
234	0x3f6d7de89b29f4fb	0.003600076969915931
235	0xbf91efb25a89fe66	-0.017515932823242507
236	0x3f8d0fd745737082	0.014190370375608777
237	0x3fa727633aa5376f	0.04522237864385558
238	0xbfbf0648b4e830c7	-0.12118963638949075
239	0xbf8a38c20a6f2dfe	-0.012803569739751271
240	0x3f9b5c62fb9ca0c1	0.026719614607970458
241	0x3fb4d1fa66e9cb50	0.08132901203661658
242	0x3fbe924394b4a74a	0.11941931133756359
243	0xbf8a0eb546814e4e	-0.012723365987915927
244	0x3fa4e332b94561da	0.04079588424309906
245	0xbfa05195e3e65ed3	-0.031872448034105404
246	0x3f695877c28a2ad1	0.00309394255265736
247	0xbf82f7aac3f24944	-0.009261449913797855
248	0x3fa50e8fbf51c639	0.04112672052805206
249	0xbfb64ed2d6c2aff9	-0.08714025252510273
250	0x3f9455be5b3e4d5c	0.019858335799267976
251	0x3fa3d2b2126d1135	0.03871685481002133
252	0xbf9200b21d9ec1f7	-0.017580779130811987
253	0xbfc27e83717ef40f	-0.14448588411133342
254	0xbfa4f6991ae6b359	-0.04094389394172166
255	0xbfa64adfbfa3b0a0	-0.04353999342296899

visible_bias f8 [60]
0	0x3fec1205bc01a38f	0.8772000000000036
1	0x3ffbd70a3d70a25b	1.7399999999999156
2	0x3ff1e0ded288ce04	1.117399999999976
3	0x3ff73126e978d44c	1.4494999999999605
4	0x3fe0a0902de00cbd	0.5195999999999895
5	0xbfe84dd2f1a9fabc	-0.7594999999999668
6	0x3fdd70a3d70a3bbf	0.45999999999997593
7	0x3fffae147ae145bc	1.9799999999998894
8	0x40003d3c36113354	2.0298999999999214
9	0x4001f381d7dbf3d0	2.2438999999999183
10	0x400015e9e1b088bb	2.0106999999998982
11	0x400085532617c0e1	2.065099999999902
12	0x3fefe353f7ced8c3	0.9964999999999907
13	0x3fb9e83e425ae8b8	0.10119999999997986
14	0x3fe98a0902de00e0	0.7981000000000016
15	0x3ffb26e978d4fc53	1.6969999999999075
16	0x3ffb6113404ea413	1.7111999999999667
17	0x3ffd9a6b50b0f13c	1.850199999999929
18	0x40015cfaacd9e818	2.170399999999983
19	0x40006e2eb1c431d4	2.0537999999998906
20	0x3ffae1b089a025e8	1.6800999999999195
21	0x3ffbc01a36e2ea1b	1.7343999999999429
22	0x3fe8bd3c3611339a	0.7730999999999881
23	0xbfdc9ba5e353f768	-0.4469999999999943
24	0xbfedb4a2339c0eee	-0.9283000000000052
25	0xbfd65604189374f6	-0.3490000000000032
26	0x3fe7aee631f8a07e	0.740099999999998
27	0x3ff6ef9db22d0ccf	1.4334999999999132
28	0x3fd7a43fe5c91bb5	0.36939999999998047
29	0xbfe3810624dd2fd4	-0.6095000000000206
30	0x3fdc91d14e3bcd82	0.44640000000000424
31	0x3ffb474538ef339b	1.70489999999993
32	0x3ffda3d70a3d6f51	1.8524999999999248
33	0x3fff47ae147adfb8	1.9549999999999113
34	0x3ffdc985f06f67e7	1.8616999999999224
35	0x3ffaf9096bb98b0e	1.6857999999999183
36	0x3fc9eb851eb85100	0.20249999999999346
37	0xbfe79652bd3c3571	-0.7370999999999822
38	0x3fd93f7ced9166bd	0.3944999999999757
39	0x3ffab50b0f27b9f8	1.6691999999999307
40	0x3ff0a8c154c98616	1.0412000000000083
41	0x3fee9930be0ded61	0.9562000000000063
42	0x3ffaf0068db8b994	1.6835999999999318
43	0x3ff9c91d14e3bbdb	1.6115999999999449
44	0x3ff70be0ded287e9	1.440399999999949
45	0x3ffa41f212d7721c	1.6410999999999438
46	0x3ffcbac710cb27f0	1.7955999999999186
47	0xbfb1de69ad42c25b	-0.06979999999999491
48	0xbfe74467381d7d6b	-0.7270999999999906
49	0x3ff125aee631f817	1.0716999999999695
50	0x400026e978d4fd30	2.018999999999913
51	0x3ff94bc6a7ef9c8d	1.580999999999935
52	0x3ffa694467381bbc	1.6506999999999001
53	0x3ffe4467381d7bf6	1.8916999999998985
54	0x3ffc13a92a305438	1.7547999999999444
55	0x3ffe46dc5d6386db	1.8922999999999124
56	0x3fe24a8c154c984b	0.5715999999999978
57	0x3fa7b4a2339c1721	0.04630000000001489
58	0x3ff60d844d0139ac	1.3782999999999488
59	0x3fee74538ef34e55	0.9517000000000261

hidden_bias f8 [33]
0	0x40176b43f059b424	5.8547513537169245
1	0xc018ad38b2e6dedf	-6.1691616013920045
2	0x4016e2838e8db327	5.721204974554701
3	0x4014ccf7ebd941ba	5.200164494643497
4	0x40170bd83a3a7a16	5.761567029780528
5	0x401119a1aaa734f4	4.275030771689888
6	0x4017832b2033854a	5.878094199318477
7	0xc01adb4b6e3398f1	-6.714154931926019
8	0x4016edbd29946014	5.7321669098673915
9	0x4015c1bc549d9a91	5.439194986457225
10	0x40163fdfb2b44227	5.562376777889347
11	0x4015ceb659137c90	5.451867477239958
12	0xc01b4ecfbf524bf0	-6.826964368246067
13	0x4015cc3dae9d6c51	5.449454048498482
14	0xc016b04535b9dfc1	-5.672139014692164
15	0xc008f926b09093bd	-3.1216558260079794
16	0xc018450aafedd77b	-6.067423581020075
17	0x3ffa352d6c219e57	1.6379827712898043
18	0x4016161b2e980f04	5.521588066130565
19	0x401758a4f6e22314	5.836566789200123
20	0x40178d0db1265aec	5.887747543302549
21	0xc0141b67376b001a	-5.026760927110468
22	0xc0183e12dd30eea6	-6.060618835555635
23	0x401402e2ffbcda16	5.002819057370763
24	0x4017ce031fddf8ce	5.951183793948259
25	0xc0160b71c7a863cf	-5.511176223423674
26	0x40171e7c66b8d8ad	5.779771428138855
27	0x40145a351fdc8b07	5.088093278728372
28	0x4017c6f49c82542c	5.944292493300093
29	0x4005eee1cb0f0f45	2.7416416038485374
30	0x4017905f932217c1	5.890989588695391
31	0x4015adaade92ccd0	5.419597127637829
32	0xc0196194ca8f938c	-6.345294156087117
