Data/TFIM1D/Energy/Q80/Trial11.pt (torch_old, 30408 bytes, 3 tensors)

weights f8 [45, 80]
00000000: db4d f60a cb21 a1bf 3348 73f5 bbb1 c63f
00000010: 7351 31c6 a69b 8f3f 0d54 3b96 5462 aabf
00000020: 0555 ee3e 785c a4bf c355 94b6 9c8c a2bf
00000030: 7a55 0ef4 852f c33f 82c5 3550 d5c3 b0bf
00000040: 23a2 4f1b 83b5 b1bf 7057 4ad5 71d3 96bf
00000050: 9192 7c96 399f ac3f 0007 52d1 0efb a23f
00000060: d069 59bf 73af 9a3f ce8f a9f9 5772 513f
00000070: 5bf2 e5ff c5d3 9dbf 78e4 3c73 ca3f b83f
00000080: 4277 a7f0 8303 aabf 3f16 57eb 4e8b bebf
00000090: 92b7 a85a 39d2 b6bf e728 cb66 7900 963f
000000a0: e8ee 224f dc74 c53f a0b3 dab2 80f9 b13f
000000b0: 9e66 414f cfef 9c3f 5796 828d 251b 66bf
000000c0: 613e a6f0 0dbc 853f 5087 94c4 c2b0 a3bf
000000d0: 8a4b dc3a 7a91 8ebf 7aaa f902 a5ec a03f
000000e0: fbbe 978c 88df a4bf eead d756 a910 733f
000000f0: 0d1b cafe 7a3b bcbf 9386 ab9e 2b67 c33f
00000100: 2af8 8daf b097 b83f 18b7 25b4 f6d4 b0bf
00000110: 15e2 a9a9 82f7 7cbf 9e05 27dd 161f a3bf
00000120: f4e0 14f3 419f 9f3f 2c6c febb f199 92bf
00000130: 3400 d6c0 ffe1 943f c6e7 5133 2364 a23f
00000140: b274 46cd 1929 9b3f 19d4 996d 0bee 463f
00000150: baf5 f765 d09d b1bf 93ed eb2b 57f8 873f
00000160: 516a e41c 8d2d ac3f 2db9 5d0a e3c6 a0bf
00000170: 33eb 08b1 de46 973f 31a2 f04e 3c5d 963f
00000180: c4c4 1c62 a838 a1bf 401d 8e4e b5b3 b7bf
00000190: 76ba c94b 8dfa 5dbf 964f 070e 2a95 c63f
000001a0: 2208 3c6e 8d68 7e3f 4787 da75 7476 a6bf
000001b0: 4933 91ea a6ef ac3f 2477 f058 2c8a c63f
000001c0: a728 35ba ad41 bb3f 89fb bec0 8e37 babf
000001d0: 521e 7ecd f1bc aa3f 0fbd 2cc4 55cd c13f
000001e0: 38dd 694b c715 ca3f 30f8 27c2 e48f df3f
000001f0: c27c 1a31 4f59 0240 26d2 3b58 d407 1540
00000200: 2c22 0a1a 2104 0340 7111 36fc e469 df3f
00000210: c758 22b5 f565 c93f 5723 bd29 6fba c43f
00000220: 902a add4 e0cb c43f cfe9 807a ae03 c0bf
00000230: 48ac 8e7b bb18 b53f 122c bb64 2803 ae3f
00000240: 886a 77db 3e1b a83f b853 df09 fd7b 70bf
00000250: 1671 d06b a92f adbf 6022 1bea 1cdc 93bf
00000260: 5b22 35da 9b5a c03f 4c6f 228f 620f 8b3f
00000270: 1026 ed38 0fb9 b5bf 0aed c4da 67d2 aebf
00000280: 88ae 29fe dea5 bebf 4688 1e55 9be6 d7bf
00000290: 1a6b 49d2 0493 dcbf 9c2a 4d96 148f fcbf
000002a0: 991b e1cf c691 10c0 986e 9702 396f 05c0
000002b0: 47dc fe1e b946 dcbf d75c 42dc fd5d cbbf
000002c0: 2a4f 79c0 a4f9 cabf 4fb3 e88c 8711 bdbf
000002d0: 6d1b ad66 7027 743f ff94 ac4b 9e85 b1bf
000002e0: 6a4b 513d 152b b63f a3dd a544 d37d a73f
000002f0: 2110 6b86 49a0 bbbf 8bb6 e010 a2bb 583f
00000300: 475f ec87 1ff5 bdbf 93b8 b38a e601 c3bf
00000310: 52d7 0ca2 33ac b63f 3cb1 7b76 ede8 b9bf
00000320: 003e 1369 889c 723f 2bce c134 a39e b33f
00000330: bc21 9799 b1a4 9dbf 44b5 f12e a022 acbf
00000340: 775e 7c22 a772 b33f e75b 77b3 5a7d a63f
00000350: c66f f55e 91b6 993f ea1f f8e2 f05c a73f
00000360: 2a10 f586 731a c6bf 2be4 0c4d da78 a9bf
00000370: 834e 37ad 0458 b3bf 220b 8933 5105 a53f
00000380: a6fa aec6 3924 a9bf 1d3a f579 c18a a0bf
00000390: daf6 2762 9350 c63f 81a3 df4e 6668 973f
000003a0: 276d 7b67 f38b 8b3f 07ed 703f d9dc a53f
000003b0: d06b d123 ce17 843f e5d7 dbd7 cb75 76bf
000003c0: 07a4 7aef 27f6 b53f 5586 5b48 95ce 7d3f
000003d0: b4b3 c537 1f67 c9bf 6a63 0326 8bdb b6bf
000003e0: 6a19 a6e1 d1fe 99bf dc47 28b4 5584 bdbf
000003f0: 75a2 691a 269d c93f f251 6236 476e 64bf
00000400: 3335 a23a b16a 3dbf 2d0f 62e1 dfe9 b4bf
00000410: d535 b569 abda 5f3f 7880 170a 304c a63f
00000420: 2b1c 7478 f680 853f a6f8 7d86 da62 9dbf
00000430: 2ad8 f813 773d a9bf 3e92 ee2b b373 6fbf
00000440: bffb 7818 15f2 b13f 8d29 b63d c068 96bf
00000450: 4bc9 2d29 1d52 aa3f f600 f4d5 e10e c23f
00000460: 2ef8 7a48 485c a23f 0591 8fb4 57d6 973f
00000470: 9084 fd9e bcf9 84bf 779c 604a b7a6 8abf
00000480: ccf8 deef 0d32 c1bf 7b9c 9d1c d222 91bf
00000490: 8017 8852 1830 9f3f 9341 de40 0ef9 b5bf
000004a0: 5d1e 7197 d0e7 a5bf a64e c376 a389 88bf
000004b0: 16b6 a831 f845 85bf a51f 204c f02c c23f
000004c0: 3360 e1f6 d4ef abbf 7519 a09e f476 bebf
000004d0: 4785 0897 1b53 53bf 3047 a358 b338 7e3f
000004e0: bdf7 a475 d0e6 c33f 1203 c46d 23b6 a0bf
000004f0: 6ec1 231c 2dae 7f3f 58c9 6867 9324 8b3f
00000500: 1da4 5810 4ba4 a7bf 4237 71b1 b807 833f
00000510: cd17 6d77 34bd b13f 7dcc dbe4 cf4c ad3f
00000520: 190a 16e0 958a b1bf c9fe 83e7 71a5 b1bf
00000530: 3e18 5bc8 1d7c ad3f 8d79 696d e653 a1bf
00000540: 3fe2 fdec a9ed b4bf a9bf 0271 9c45 3b3f
00000550: 51fe 8e87 fa6c b33f fb95 97a6 123e b73f
00000560: ae31 0dd1 5bae c13f 13ea 383c a9da c2bf
00000570: e0a3 a83e 4bae a0bf fd37 411d e303 b93f
00000580: d7dd 7255 f13f bb3f 5eac 14d7 6144 9bbf
00000590: f72c 1f90 d578 7ebf 6b3f a59c 07dc 9fbf
000005a0: 7e13 ddd4 102b b8bf 786b 674a 32a4 b1bf
000005b0: 03e1 82c6 a5c3 c33f 4b3a 80ee 8c0c bb3f
000005c0: 86ea 1995 ba47 c33f 5ef3 5c68 de2c 933f
000005d0: e2bb fb02 3264 a53f b31d 7db2 3a82 83bf
000005e0: e616 edea 66cd c0bf 25a9 25c6 ebcc ac3f
000005f0: 54c9 1dca 6e67 c1bf f42b ca41 779d ac3f
00000600: 4edb 7084 929e 933f d761 80ae 91ae a9bf
00000610: 0179 44c9 03b2 7a3f 5ea9 c50f bc0b c03f
00000620: 58ee 2ee8 14a4 c43f 46df db21 0776 c43f
00000630: 74fa 7795 e221 733f c78e 1d05 55d4 c33f
00000640: fe0e 9f5d d9dd cb3f 3bd6 cba8 a306 0240
00000650: fd90 f8b0 fbad 1440 6f78 b3c2 fc91 0140
00000660: ef68 1bb6 90fd c23f 5306 a9bd b69e c33f
00000670: 2d47 a48c 52e6 c83f efc6 3e0b c533 c63f
00000680: 2068 090b 454c b83f f9d7 e4a7 391f acbf
00000690: a4e6 668e e580 7f3f 7af1 13bc d762 bfbf
000006a0: 2f84 859d 081d 93bf ba86 7020 04a1 babf
000006b0: 97e5 a455 0aeb 9c3f 86cf 84e3 3f81 b13f
000006c0: c3de 370c bc9f 93bf 775e 0608 4ab9 93bf
000006d0: 8662 852e cf29 a63f 2222 9727 9493 d43f
000006e0: 274d be49 eee3 a23f 92db f1a8 402d c9bf
000006f0: 22aa 6be9 50a3 adbf 1d25 f657 4b60 7cbf
00000700: 949b 3d70 f6bf ab3f cce9 2cbf 1455 b13f
00000710: b511 7edd 5999 ad3f d5d0 7e79 e8d8 c73f
00000720: 3d23 ceaa 3656 ba3f 5594 b3e0 7bf3 bfbf
00000730: 7b1f 3870 e5f6 b3bf fff1 5f36 2f8e a9bf
00000740: 4ba4 6be7 f0f5 a73f 9ffb 16bf 87b8 5d3f
00000750: 3ce4 19a1 2363 bebf f885 e1ba 5b08 98bf
00000760: d7d3 ea75 6f14 c03f 32f7 e920 723b 8dbf
00000770: 93bf e070 d3c2 bd3f a108 8732 79b5 993f
00000780: b774 686d 530d 973f 76a4 995f 4ae2 bb3f
00000790: 4124 8c5f 9eb2 9c3f a12b 6c04 ef2f c7bf
000007a0: 3a8e 3cea 42d7 cb3f f939 6f34 6c79 b43f
000007b0: a0f4 896c 249c c03f 0002 3110 527d b1bf
000007c0: 2943 9430 e975 a8bf d910 0faa caee a6bf
000007d0: 33a8 b1e5 c7e5 a8bf c978 56fd ae8e a43f
000007e0: 38a0 59bd 6eb5 7f3f 8ce5 48e7 ddb3 a33f
000007f0: 3a47 2d2c d045 bd3f a75d 2fa6 9233 aebf
-0.03346094616713532 0.17729901776198317 0.015433600352630283 -0.05153145154842074 -0.03976798790169237 -0.036229035651711004 0.14988779465481256 -0.06548817833188106
-0.06917590538763156 -0.022290972369396866 0.05590228998179215 0.03707166962796116 0.02605992179301514 0.0010648593075979098 -0.029128164047039422 0.09472337068008752
-0.05080807030365843 -0.11931317563638631 -0.08914526427608241 0.021486184023879053 0.16762880195698604 0.07021335951385632 0.028258551800127145 -0.002698491425763543
0.010612591654335536 -0.03845795297298926 -0.014925913735657454 0.03305545483893453 -0.04076792446346463 0.004654561501847605 -0.11028259964414762 0.15158601043281247
0.09606460844040102 -0.06574956796768239 -0.0070719818128215555 -0.03734656762709253 0.03088095708992085 -0.018165375804169923 0.0203933679053991 0.03592023850883623
0.026523974565510762 0.0006997638513001086 -0.06881430139033898 0.011704140689736053 0.05503502824486318 -0.03276738645114317 0.022731284671162654 0.021840040510286044
-0.033635389305695124 -0.09258587997293422 -0.0018297557682235544 0.17642713246334257 0.007423927748961419 -0.04387248934405235 0.05651589978569988 0.17609171240558752
0.10647092624745601 -0.10241024213517681 0.052222782454063435 0.139078827656228 0.2037896269064079 0.49315756760177276 2.2936080776413243 5.257645968104532
2.3770162615149015 0.49083828573227267 0.19842406601373438 0.16193952119854302 0.16247187027541488 -0.12511235219592584 0.08240863577400248 0.05861784200313748
0.04708286694559144 -0.004024494583025388 -0.057004255686680036 -0.019394351757713202 0.12776516108194155 0.01321293830215322 -0.08485503330043564 -0.06019901795886014
-0.11971849160334547 -0.3734501200907555 -0.44647331748790153 -1.7849317427777924 -4.14235997020196 -2.679307956930483 -0.441816597241488 -0.21380589728207752
-0.2107435169042387 -0.11354872884903709 0.004920424524988626 -0.06844510409844771 0.08659489390383404 0.04588184559809896 -0.10791453868574809 0.0015095789599501054
-0.11702153271141667 -0.1484955003028899 0.08856508928587672 -0.10121044294982523 0.0045438126118848565 0.07663936651243179 -0.028948569297229318 -0.05495167325066544
0.07596821395815732 0.043925127418041936 0.02511050359804281 0.045630958276944814 -0.1726822289439281 -0.049750158219872574 -0.07556180218608159 0.04105619196027123
-0.0491045050653061 -0.0323086224913036 0.1743339757230647 0.022859190525113874 0.013450528712772481 0.04270056628635115 0.009811029880600147 -0.00548343302010854
0.08578729244858617 0.007277091155374634 -0.19845953200583966 -0.08928746870095741 -0.025386123082648572 -0.11530051849720685 0.2001083020179696 -0.0024939909809040756
-0.00044886423950958875 -0.08169364216342663 0.0019442247347173276 0.04355001567069022 0.01049988322348668 -0.028697409113640625 -0.04929706686782283 -0.003839349693821852
0.07010013434863448 -0.021883968130660448 0.05140772941276114 0.14107916781359336 0.03586030850191012 0.023278589625889818 -0.010241960145949386 -0.013013297993962987
-0.13434004032564528 -0.016734393116533113 0.03045690540059054 -0.08583153804489134 -0.04278423164992937 -0.011981274663788465 -0.010387362494920043 0.14199641911568253
-0.05456414712597315 -0.11900261757555149 -0.0011794824059808294 0.007378292628531999 0.15548139328342173 -0.03263960566437708 0.007734466753604214 0.01325335654573638
-0.04617533278025852 0.009292071261508664 0.0692932883804069 0.057226654707755543 -0.06852089615680547 -0.06893073942409979 0.05758755751371368 -0.03384323201747739
-0.08175146137171739 0.0004161364495400785 0.0758816319421325 0.09079090659323434 0.13813350398630803 -0.14729800644438792 -0.032579757117055186 0.09771556343295625
0.10644443832540361 -0.026628044846045966 -0.0074394552520502455 -0.031112784324533942 -0.09440713116516794 -0.06891168896201616 0.1544081897061532 0.10566025564933416
0.15062649040540438 0.0187258483122038 0.04178005491655036 -0.009525736400646112 -0.1312683722591636 0.05625092309749594 -0.13596901768648684 0.055888869076703346
0.019159592946574926 -0.05015998129983117 0.0065174243830183895 0.1253581120502742 0.16125737511707672 0.15985192445054447 0.004670987218104206 0.15491736173418344
0.21770779677728308 2.2532418429571215 5.169905438586508 2.196282883741382 0.14836319820353291 0.1532810617518857 0.19452888362189338 0.17345488595088152
0.09491378325893196 -0.054925729508269634 0.0076912848511995514 -0.12260197011705101 -0.01866544209895354 -0.10401941101056425 0.02824035785417819 0.06837844185503003
-0.019164026494734154 -0.0192615096471784 0.04328772967227672 0.3215074907898573 0.03689522409617956 -0.1966934990811891 -0.057886627668114934 -0.006927770911155731
0.05419893379330812 0.06770448367470933 0.0578106005550895 0.18630701000586805 0.10287801427888339 -0.12480901943088558 -0.0779860877011042 -0.04991290606264797
0.04679825615841845 0.0018140149735328193 -0.11870024378903649 -0.023469384461696635 0.12562363870315948 -0.014273540143445371 0.11625405793961212 0.025106328686668736
0.02251177172921778 0.1089216693304865 0.02802512605834218 -0.18115031925148364 0.21750675618487653 0.07997776298655158 0.12976508426428257 -0.06831848998354673
-0.04777458875662994 -0.04479058576501566 -0.04862808874970916 0.04015108911993221 0.00774138696360898 0.03848164985943034 0.11434651449715441 -0.05898721960664526

visible_bias f8 [80]
00000000: 91fa edeb c039 eb3f 61ce 66d5 e76a f33f
00000010: 1ddb 4603 780b b43f 30ef 3845 4772 d1bf
00000020: 5b31 e6ae 25e4 f83f d3c0 1726 5305 f93f
00000030: 3524 0681 9543 f93f c256 ca32 c4b1 f73f
00000040: 89ff 4c84 0d4f cf3f ab4f 1e16 6a4d f03f
00000050: f575 2d21 1ff4 ff3f 42c3 64aa 6054 0040
00000060: 6669 bc74 9398 0340 82a8 c64b 3789 0340
00000070: 3913 d044 d8f0 0340 565e ba49 0c82 0540
00000080: 4128 cb10 c7ba 0240 7a9f f831 e6ae 0240
00000090: 47b2 59f5 b9da ee3f 5eec c039 234a e53f
000000a0: c33e a4df be0e fb3f ecc8 c342 ade9 0040
000000b0: a1b1 59f5 b9da ff3f 0978 7aa5 2c43 0240
000000c0: 5bdd 9387 855a 0040 1ef9 edeb c039 fe3f
000000d0: c239 70ce 88d2 f93f 3138 8941 60e5 c03f
000000e0: 87db 4603 780b eebf 3dbd 5296 218e e7bf
000000f0: 4b59 17b7 d100 e6bf 38ec c039 234a e13f
00000100: 6235 cd3b 4ed1 f73f e994 b20c 71ac f83f
00000110: f3e0 5817 b7d1 f93f 7c40 f163 cc5d 0040
00000120: e955 9621 8e75 dd3f 4462 7fd9 3d79 e63f
00000130: 5447 2eff 21fd fa3f 6b5b 6dc5 feb2 fb3f
00000140: 7092 8785 5ad3 fc3f 632c e6ae 25e4 cb3f
00000150: 7d70 5f07 ce19 e7bf 1667 4469 6ff0 e9bf
00000160: 018b db68 006f f4bf a891 9999 9999 99bf
00000170: 78da f97e 6abc f43f 01f1 065f 984c b53f
00000180: ac14 ae47 e17a e2bf 76ba b88d 06f0 f03f
00000190: e334 3cbd 5296 f53f 331b ebe2 361a f83f
000001a0: 4fe9 e236 1ac0 e13f 0ebb 9690 0f7a e4bf
000001b0: e2de 0968 226c a83f 15a0 89b0 e1e9 f23f
000001c0: e843 0c02 2b87 a63f 5e64 3bdf 4f8d e9bf
000001d0: 8c02 3411 363c d9bf cffe d478 e926 e53f
000001e0: 860a 1214 3fc6 acbf a1bd 5296 218e e9bf
000001f0: 6c94 f606 5f98 f0bf 41d0 915c fe43 f4bf
00000200: 7660 1b0d e02d 80bf 04ae 25e4 839e f33f
00000210: 1a7e fb3a 70ce f33f 968f 0f7a 36ab f73f
00000220: 1087 a757 ca32 d43f f7d1 6f5f 07ce efbf
00000230: 3be5 ae25 e483 e0bf f18b 976e 1283 ea3f
00000240: 26ee 7c3f 355e e2bf ca27 ed0d be30 f7bf
00000250: 9e99 9999 9999 f2bf 6951 499d 8026 e4bf
00000260: 48e4 61a1 d634 ef3f 621d a7e8 48ae 0040
00000270: 4742 faed ebc0 fe3f 85d3 0968 226c f03f
0.8508000000000085 1.21359999999995 0.07829999999999555 -0.27259999999999973 1.555699999999965 1.563799999999948 1.5789999999999627 1.480899999999949
0.24459999999998797 1.0189000000000117 1.9970999999999297 2.0412000000000328 2.449499999999875 2.442000000000065 2.49259999999995 2.6885000000000145
2.341199999999873 2.3353999999998765 0.9641999999999563 0.6653000000000124 1.6910999999999354 2.114099999999885 1.9908999999998758 2.282799999999956
2.044199999999973 1.8890999999999347 1.6138999999999304 0.13200000000000636 -0.9388999999999762 -0.7361000000000001 -0.6876000000000116 0.5403000000000082
1.4885999999999844 1.542099999999943 1.6136999999999346 2.045799999999927 0.46030000000004506 0.7022999999999873 1.6867999999999101 1.7311999999999113
1.8015999999999188 0.21789999999996032 -0.721900000000019 -0.8105999999999962 -1.277099999999962 -0.024999999999992945 1.295999999999962 0.08319999999998019
-0.5775000000000055 1.058599999999982 1.349199999999933 1.5063999999999396 0.5546999999999488 -0.6398999999999846 0.0477000000000183 1.182099999999996
0.04399999999998966 -0.7985000000000004 -0.39429999999996634 0.6610000000000243 -0.05620000000000851 -0.7986000000000112 -1.0372000000000083 -1.2665999999999402
-0.007899999999992451 1.2261999999999498 1.2378999999999736 1.479299999999943 0.3156000000000043 -0.9938999999999955 -0.5160999999999726 0.828499999999961
-0.5740000000000165 -1.4493999999999567 -1.162500000000001 -0.6296999999999972 0.9751999999999805 2.085099999999941 1.9220999999999024 1.0263999999999396

hidden_bias f8 [45]
00000000: 7a28 080a 513e 19c0 716a 8108 83ab 1540
00000010: ce4f 8e47 9d31 18c0 1cf1 d3d0 8728 1740
00000020: a5cc 23ef 3019 1840 b2bf b38f 0aed 18c0
00000030: e7bc 433c cfda 1440 0b4f 1d74 b92b 1140
00000040: b575 ef72 9012 15c0 c725 81b4 ce2f 1440
00000050: 18e6 2572 5a67 f43f 58d6 5571 4756 e63f
00000060: 5691 41de 2b20 16c0 7e2c 31b6 c3cb 1540
00000070: f9df c706 5bce 1640 34e8 e1c6 34f1 1440
00000080: 422d c011 f1bb 18c0 7278 fa0c 1fcd 16c0
00000090: 49f6 d43d fd10 18c0 5a9b 8fdd ee8e 1740
000000a0: 5fe9 3ecf d60e 18c0 e7be db3e df18 1040
000000b0: d2d1 de2d a8b4 1740 82b3 5927 3087 1740
000000c0: ae66 766d 5f04 1840 3d38 cb6d 3e1d 1540
000000d0: 8555 22a0 e283 1740 301b c2c1 6dcd 1440
000000e0: 1099 7b5a 1f50 1640 e597 c040 58f0 15c0
000000f0: e84d 4693 16c3 15c0 dad3 3df0 97ea 1640
00000100: 0b32 bcc8 4cdd 18c0 175c d90b d9c7 1740
00000110: ce80 2259 d4ed 17c0 e14f fd00 fd0a 1740
00000120: 2435 8ead f1fb 1440 9384 e514 9280 1840
00000130: 9d2d 5fc7 6635 1640 3222 6745 66eb 1440
00000140: 4a49 0c68 f795 17c0 a45b 1ce9 2734 15c0
00000150: e8de 6681 7d56 1640 4d6e 4954 51cf 1440
00000160: 3216 84e1 3b57 16c0
-6.310856014964992 5.417492039584077 -6.048451536236781 5.789580595909026 6.024600731430074 -6.231485600801465 5.213681165346521 4.292699636734834
-5.2681291540770205 5.0466869548631115 1.2752327402980708 0.6980321134166827 -5.53141734385675 5.448988768340426 5.701519113492389 5.2355528903372495
-6.183536794046917 -5.70031376150847 -6.016591039775059 5.889583074464861 -6.014491308417148 4.024289114153112 5.926422802662687 5.882019629335334
6.004270277358655 5.278558459785981 5.878794195266328 5.2006140017245315 5.5782446039140865 -5.484711658244099 -5.440515805402789 5.729095224164633
-6.216113220678845 5.945163903371415 -5.982255356532006 5.760730758152904 5.246039115719473 6.125557257183703 5.55214988249227 5.22988232080438
-5.8964515931605295 -5.300933496814569 5.584463140395862 5.202458683950295 -5.585189365088398
