Data/TFIM1D/Energy/Q80/Trial32.pt (torch_old, 30408 bytes, 3 tensors)

weights f8 [45, 80]
0	0xbfb4c2613596ef21	-0.08109099920596609
1	0xbfa395c8d406b956	-0.03825213993273972
2	0xbfbce4c179d1d70d	-0.11286553596604794
3	0xbfc068405e899ee7	-0.12818150154202287
4	0xbfad09a70e4f28fb	-0.05671426820443234
5	0xbfcdbcedb8e4887a	-0.2323281433864997
6	0xbfd9d34082424b38	-0.4035187980709227
7	0xbfea18cab837aad2	-0.8155263517376972
8	0xc004bd5618adb4be	-2.592449372101867
9	0xc0162e961689d482	-5.545494415438158
10	0xc0039d7e18f23347	-2.4519006680406252
11	0xbfc4ae3a75fce4e5	-0.16156702767492628
12	0xbfcc0f1fd712c4a9	-0.219211559311167
13	0xbf94a5fe4083ff1b	-0.02016446369907419
14	0xbfba81ccc482e1da	-0.10354308889043953
15	0xbfba6f15cb1e222b	-0.10325752457550468
16	0xbfb04dbc395206e5	-0.06368614577698002
17	0x3fbd65538f8094b9	0.11482736829255459
18	0xbfa246fbd96db742	-0.03569781331212464
19	0x3fa315be4ad1df7d	0.03727526343658292
20	0xbfbe04581d3065d3	-0.1172537871610964
21	0xbfbb3cd268e5dbf5	-0.1063968187425955
22	0x3f94bcfb110851f4	0.02025215426881917
23	0x3fb7275f96d4edf2	0.09044454033294594
24	0xbf821931ca6549b2	-0.008837117184758412
25	0xbfb4a72968f4f674	-0.08067568600105252
26	0xbf84404890f6bfad	-0.009888235973306648
27	0x3fb7c90117058b37	0.09291083156635414
28	0x3fc6dcfff3b64548	0.1786193790435766
29	0xbfa2fd8020a4d1a8	-0.03709030531391316
30	0xbfc14ead548102d5	-0.13521353365106017
31	0x3f9023be51d2eace	0.01576135038770126
32	0x3f99ec0d88a2e2d8	0.025314532723060917
33	0x3fbdbcf571318037	0.11616453183660345
34	0x3fbe9727936db769	0.11949393605547488
35	0x3f72b982f703f81f	0.004571448880822642
36	0xbf911964fe1c3695	-0.016698434838920823
37	0xbf9e48cdc7a7cb53	-0.029574599562646253
38	0xbfcf330c3bec89cf	-0.24374535490012625
39	0xbf96d91d8a6e03f6	-0.022312604497987075
40	0xbfae353abeca7527	-0.05899985865583295
41	0x3fb603edefb80512	0.08599745848188814
42	0xbf8bb6b783ee4d97	-0.013532098497114826
43	0xbfb01ae69b50d524	-0.06291047374618991
44	0xbf99e8bcf892fb37	-0.02530188815284903
45	0xbfa9d73866febac7	-0.0504701257444729
46	0x3f6994dd2ef870e2	0.0031227416982472092
47	0x3fc41a06bff3f3b8	0.15704426167203933
48	0x3fbbd04fb851ca00	0.10864732980716241
49	0xbfaf702c7b7a7128	-0.061402692864449826
50	0xbfb7ee4521eea399	-0.0934794624178167
51	0xbf958166be65a508	-0.02100143944827429
52	0x3fbc92573a4ff287	0.1116079823841095
53	0xbf8a812c3c6bedc2	-0.012941690057678982
54	0x3f76febf3a24787c	0.005614039402898393
55	0x3fba8c7f32ecddce	0.10370631211559742
56	0xbf7deafff9ab902e	-0.007304191497244301
57	0xbfc4ca2b5f7eb418	-0.16241972124899529
58	0xbfa2427e4b11b9d5	-0.035663553870893296
59	0xbf7b281b34aa1ede	-0.0066300451968641354
60	0x3fb13f2782906c33	0.06736990869141905
61	0x3fbd57259e2b1f27	0.11461100684675483
62	0xbf9e7a4015f7601a	-0.02976322301933019
63	0x3fc44030bb7b7d83	0.15820893434918668
64	0x3fabc8bbbb304d82	0.054265848732167235
65	0xbfc466dfc2f3de37	-0.15938946742220292
66	0xbfc074fdfa69ec76	-0.12857031562075222
67	0xbfad41da940192f8	-0.057143049780995214
68	0xbfc1093f544b36a4	-0.13309470764072728
69	0x3f936c491d5aa980	0.018967764298090994
70	0x3fca7243fffe09be	0.2066121101343707
71	0x3fb0a678debc702b	0.06504016340153444
72	0xbfaf803ecc2b9140	-0.06152530901252584
73	0x3fabd7111eee72b7	0.05437520506459264
74	0x3fcab5db72792554	0.20867484178078632
75	0x3f998a15e9ca9bd0	0.024940817255494185
76	0xbfbb6cbaaaac4808	-0.10712782542057664
77	0xbfa50eeae6778587	-0.04112943709675237
78	0xbfb48ad5f37e3b20	-0.08024346537261495
79	0xbfa3841e012df719	-0.03811734928511452
80	0x3fa585027cecd3dc	0.042030408620497645
81	0x3fb0a4642d698386	0.06500841244407071
82	0xbfd34eade77c45e7	-0.30167720418930205
83	0xbfbdbf99cf15d82d	-0.11620484643739877
84	0xbf7d124085125e36	-0.00709748461772324
85	0xbfbe9b2fd6fbe359	-0.11955546377784056
86	0xbfa0d8bd57c9ce3b	-0.03290359207758483
87	0x3fd64caa828345a0	0.3484293245829466
88	0x3fd1706d85401f50	0.2724870492243001
89	0x3fcd05d06ec40fd3	0.22673993500222753
90	0x3fc4a07f9e4da533	0.16114802579549234
91	0x3fa87a74c140acee	0.0478092656997776
92	0xbfc94132e18f1869	-0.1973022080766811
93	0xbfcaa8041832d08a	-0.20825244123046033
94	0xbfc864d87c1d27f8	-0.19057756481407728
95	0xbfb7ed4a8c23e903	-0.09346452638047613
96	0x3fb969ac43ecf1f6	0.09926869066561736
97	0x3fb4422c93fe253e	0.0791347371397437
98	0x3f9ee3a6ed0c200c	0.030165298670027638
99	0xbfd3d4179879ac27	-0.30982007875599255
100	0x3fb6f16533add1b5	0.08962090026563525
101	0x3fa06bb524090eb6	0.03207174363026637
102	0xbf8063d9a7083133	-0.008002949151909
103	0x3fd1b6b3a6c9cdb8	0.27677623069686375
104	0xbfa2354230d2a4df	-0.0355625805471591
105	0xbfd5ae99bd75b12b	-0.33878177167823037
106	0xbf7719e01dd4fc6e	-0.005639911132049409
107	0x3fe21f400020bae2	0.5663146975037672
108	0xbfcd73fd98a2f66b	-0.2301022525115742
109	0xbfd115074a72526e	-0.2669084765450752
110	0xbfa6475dde7922ab	-0.04351323452698826
111	0xbf198609af5226a1	-9.736475097290666e-05
112	0x3fd8218d45a86a04	0.377047842049848
113	0xbfb3473d4d0ebfec	-0.07530577784814313
114	0xbfc82bacdbc13366	-0.18883286218842982
115	0xbfb005a4a5088753	-0.06258610753186859
116	0x3f690fa1e9b55997	0.003059211956194473
117	0xbfd1d309dad80efc	-0.27850576755029954
118	0xbff3aeb7c7b9bb56	-1.2301557351854249
119	0xbfd7ef4475cd2552	-0.37397872451818615
120	0x3fd58546121b4e60	0.33625938194493266
121	0x3fe3f1dc2c8ad1c5	0.6232739324537354
122	0x3fafcfabe9b718be	0.06213128307312975
123	0xbfe02af267f975c6	-0.5052425413847963
124	0xbfca87a37dc327d4	-0.20726436272371862
125	0xbfe164abb054be46	-0.5435388988461873
126	0x3ffbbca536caf481	1.7335559978812685
127	0x40073080df1d49bf	2.898683302956868
128	0x3fc87091a908c7c6	0.1909353328097138
129	0xbf9bc6a78951bb97	-0.02712499404554655
130	0xbfc734cd508f56da	-0.1812988894804935
131	0x3fb06dbd5909d9cb	0.06417449401656154
132	0x3fc6b90e603735da	0.17752246568708935
133	0xbfdf342152df67c1	-0.4875567731193052
134	0xbfd8d311ccdc4f2b	-0.38788266187588033
135	0xbfd52732a321d828	-0.3305174439514098
136	0xbfbcf52315746c88	-0.11311549447821012
137	0x3fba49dcf1a19a36	0.10268956088257472
138	0xbfb596cea189a7e4	-0.0843323845271296
139	0x3fd6f295bef18a56	0.3585562100107941
140	0x3f96984cca8bbb21	0.02206535326234438
141	0xbfd8c85188bb45b4	-0.38722647049606995
142	0xbfa4a440c1103e6b	-0.04031565052730176
143	0x3fc0bce330daa6a0	0.13076438794569345
144	0xbf84f307d91e4d3b	-0.010229169190813727
145	0x3fcded4d89736048	0.23380440913638467
146	0xbfc2cf4175ab7998	-0.14694994206997758
147	0x3fc606acfed82cea	0.17207872813774056
148	0x3fc3b6f17c356cd3	0.15402048649671105
149	0xbfb031b52adb81a9	-0.06325847908329386
150	0xbfd2dd4bab080bf7	-0.29475681021011674
151	0xbfacc135e24c9b49	-0.05616157901231717
152	0x3fc4ed928c678826	0.16350013595280294
153	0xbfb08a8c4396a376	-0.06461407327755161
154	0xbfe218da0c358809	-0.5655336607417222
155	0x3fbc973294f9c719	0.11168209206678305
156	0x3fdca1872ad8fbb1	0.447358886569357
157	0x3fb29358d75bc5ac	0.07256083734298241
158	0xbfc5ed8cf65f5438	-0.1713119700422412
159	0xbf9f20bec02a5fbd	-0.030398350218632453
160	0xbf999fbb4a49fdc2	-0.025023390206568193
161	0x3f91b4094a3f2a4f	0.01728834643999227
162	0xbfc7cff688732179	-0.18603402769646118
163	0xbfb72917b66b25f5	-0.09047077373102026
164	0x3fad0579565dbf24	0.056682388108013876
165	0xbf72a138ba262aea	-0.004548284140023931
166	0x3fd52b9b1e0348c0	0.33078649455013576
167	0x3fc0973536c7c8fa	0.12961449789833762
168	0x3fc4680325c219e5	0.15942420333540422
169	0xbfc8a2c97cc3b1d2	-0.19246786682141576
170	0xbf9ac062b6a6c2ac	-0.026124517820508217
171	0xbfa737fe5c416f22	-0.04534907222907082
172	0x3fb03196a383682d	0.06325665943168764
173	0xbfc06f7342553b60	-0.1284011911288543
174	0xbfbc1831d3e15d5b	-0.10974418089732778
175	0x3f988272109a7673	0.023935110343350673
176	0x3fa86fcc64cef261	0.04772795420237653
177	0x3fbb8250db5aa890	0.10745721202207137
178	0x3fc41d7085594514	0.15714842330138679
179	0xbfacdc32931a0c4b	-0.05636747403789196
180	0xbfb2afcd73ebb2c9	-0.0729950340280069
181	0xbf80df5b6b5c8033	-0.008238519872577487
182	0xbf87be6a820c2f35	-0.011593658536660814
183	0xbfa34a828933137b	-0.03767784046934871
184	0x3fb6e3e04407c5ee	0.0894146123971706
185	0x3faa3a854d7765bc	0.051227727609965495
186	0x3f26f824f7a8f85b	0.00017524195921398114
187	0xbfbf8e78ccff3cfd	-0.12326769833383718
188	0xbfc586d1e96b599c	-0.16817687890461464
189	0x3fa14de3ef0bfe4a	0.0337973813348041
190	0x3f9cfc3e6e59ca4b	0.02830598400619015
191	0x3faf5eb73479df85	0.06126949801995266
192	0xbfcafe78c448f62e	-0.21089086136082486
193	0x3fc0eb3796f06508	0.13217825765676872
194	0xbf842ea16db49ef0	-0.009854565773437213
195	0x3fad863013990d62	0.05766439666015334
196	0x3fc007e99bc1fbd4	0.12524147134169417
197	0x3fbeb3eb69c6f996	0.11993285496189396
198	0xbfb6831e46e381df	-0.08793820601159251
199	0x3fc9ce6976d4ece3	0.20161169340449367
200	0x3fb7b981403c4859	0.09267432993172643
201	0x3fb00dcd58d60fda	0.06271060389377628
202	0x40005a34c290ab84	2.0440459442519927
203	0x4015dda4777c0b80	5.466447703310109
204	0x4001dfb21c147df9	2.2342264360192954
205	0x3fc7e8567201a756	0.1867778832122961
206	0x3fdf41f6686bfd82	0.48840103337712304
207	0x3fe2a5341446ebb8	0.5826664348636461
208	0x3f82e2deb81c6931	0.009221782678242892
209	0x3f956c3d681d9292	0.020920714835841077
210	0x3fc71dfac5a08110	0.18060240411524164
211	0xbfab437aefeb6abc	-0.05324920824724219
212	0x3f61d8027704ea7d	0.00217819672994085
213	0xbfc30b8ef0256a2c	-0.14879023290525717
214	0xbfb2bf04482bc489	-0.07322718393312945
215	0x3fc5157e46cc8c36	0.1647184224794686
216	0x3fabaf655f893939	0.054072540199387516
217	0x3fbb4ccc6c96e19b	0.10664060259921941
218	0x3fb36e400c04b655	0.0759010342923941
219	0xbfbb6ed4205ccb20	-0.10715986051654314
220	0xbfbe2e687f217743	-0.11789563277986041
221	0xbf8b64ac61191550	-0.01337561293906711
222	0x3faf516a4f2fdfed	0.06116802422178567
223	0xbf6cc25185b3b0ec	-0.003510627005757985
224	0xbf8dc8b1e5ca1bf5	-0.014542951417082487
225	0x3fb6807c4dd0ddf4	0.08789803409387514
226	0xbf6447dcb15016d7	-0.002475672760286023
227	0x3f923e54a2681d67	0.017815897381323078
228	0x3fd074a8ca1113dd	0.25712032063557705
229	0x3fb748e35a55556a	0.09095593409923244
230	0xbfb1d43ad5054eb7	-0.0696446199484012
231	0x3fb19b2bcad2ce1d	0.06877397252792901
232	0xbfae02b1d3275db0	-0.0586143083816596
233	0xbf91a7d4e67670ad	-0.01724178940422465
234	0x3f82636e07973d17	0.008978709799434754
235	0xbfb081e8d65fd308	-0.06448226197955986
236	0x3fa32108333cd8d4	0.03736138940296177
237	0xbfa1fd011a03903d	-0.035133394647147466
238	0x3fbef2983b4d003f	0.1208892006661708
239	0x3f60e156c146406a	0.0020605749543350276
240	0xbf83ea76f66b6077	-0.009724549670338185
241	0x3fc23b11843a516f	0.1424276252406673
242	0xbfb0bb954aca2479	-0.06536229206007417
243	0xbf69788beed51800	-0.003109238916894519
244	0x3f993c901baa16f2	0.024645091713430163
245	0xbfb50f46702815bf	-0.08226433027456091
246	0x3fb3f86f6ff75a1c	0.07800957187223684
247	0x3fac62d76b1fcfb4	0.05544160063428141
248	0xbfa08f7d5fd77362	-0.03234473986569843
249	0x3fbe65b5199210e8	0.11873943208962923
250	0x3fb1c8947b59c2fe	0.06946685801973371
251	0xbfa793597f4f825d	-0.04604606322368874
252	0xbf859b68aa5e6d63	-0.010550325106854335
253	0x3fb02bceee52dac3	0.06316846197556018
254	0x3f694c09508cf30c	0.0030880147864124127
255	0x3f972a58254e97ad	0.022622468258894624

visible_bias f8 [80]
0	0x3ff27a786c2269bd	1.1549000000000966
1	0x3ff2c5d638865941	1.1732999999999978
2	0xbfc504816f006bc8	-0.16420000000002077
3	0x3f98793dd97f81e5	0.023900000000027694
4	0x40018db8bac7105c	2.1941999999999506
5	0x40045e69ad42c37a	2.5460999999999645
6	0x4006c87fcb923840	2.8478999999997825
7	0x3ffe525460aa6338	1.8950999999999123
8	0x3ffdad42c3c9eddc	1.8547999999999467
9	0x4000e2eb1c432bf0	2.1107999999999194
10	0xbfe0353f7ced904b	-0.5064999999999683
11	0xc004288ce703adb4	-2.519799999999771
12	0xbff982a9930bdefa	-1.5943999999998923
13	0xc0046f34d6a16374	-2.554300000000177
14	0xc001463f1412040f	-2.1592999999998095
15	0xbffe4189374bc422	-1.8909999999998566
16	0xbfb141205bc01a99	-0.06740000000000136
17	0x3ff72339c0ebecb8	1.4460999999999284
18	0xbfe39096bb98c7cf	-0.6113999999999978
19	0xbfd8a57a786c2229	-0.3850999999999965
20	0x3fe54c985f06f72d	0.665600000000017
21	0x3ffa40b780346cf4	1.6407999999999534
22	0x3fee52bd3c3611ca	0.9476000000000167
23	0x3ff8837b4a233827	1.532099999999909
24	0x3fcb6ae7d566d089	0.21420000000000908
25	0xbfead1b71758e2b9	-0.8381000000000177
26	0x3febc779a6b5082e	0.8680999999999182
27	0x3ff38e219652bcfe	1.2221999999999862
28	0xbfd1013a92a30561	-0.26570000000000077
29	0x3fe0a0902de00e32	0.5196000000000309
30	0x4000a4dd2f1a9f06	2.080499999999918
31	0x40025f06f69444d1	2.296399999999814
32	0x4002178d4fdf3d5b	2.261500000000223
33	0x3ffa92a3055325d1	1.6607999999999843
34	0x400080d1b717593c	2.06290000000004
35	0x400264c2f837b518	2.2992000000000523
36	0x40047a43fe5c9120	2.5596999999999213
37	0x3ff2e7d566cf4191	1.1815999999999784
38	0x3fcfae147ae14e54	0.24750000000004724
39	0x3fed9ce075f6fc24	0.9253999999999718
40	0x3fff5460aa64c15e	1.958099999999909
41	0x3ff67a786c2266fe	1.4048999999999405
42	0x3fd1d495182a9ad7	0.27860000000002344
43	0xbff0495182a9933d	-1.017900000000011
44	0xc002113404ea49d3	-2.258399999999918
45	0xbff304189374bbbd	-1.1884999999999615
46	0xbfd7c1bda5119e0c	-0.37120000000001663
47	0x3fe5e353f7ced81b	0.6839999999999721
48	0x400228f5c28f5d3b	2.2700000000001217
49	0x4005c01a36e2eb5b	2.718800000000028
50	0x400479db22d0e572	2.559500000000008
51	0x4002a7525460aa67	2.331700000000001
52	0x3ffa068db8bac59a	1.6265999999999168
53	0x3fe76fd21ff2e440	0.7323999999999913
54	0x3fcf93dd97f62a1f	0.2466999999999908
55	0x40031374bc6a7f62	2.3845000000000462
56	0x400274bc6a7ef8dd	2.306999999999887
57	0x4002fd566cf41f14	2.373699999999994
58	0x3ffb43958106236b	1.7039999999999178
59	0x4000786c2268094d	2.05879999999994
60	0x3fe0a64c2f837c30	0.5203000000000255
61	0xbff371de69ad41a1	-1.2152999999999354
62	0x3fbe48e8a71ded1c	0.11830000000002311
63	0x400089a02752522e	2.06719999999975
64	0x400013404ea4a922	2.009400000000043
65	0x40015f06f69445dd	2.171399999999933
66	0x3fc4bfb15b5745b1	0.1621000000000499
67	0xbfbdb8bac710c98c	-0.11609999999999426
68	0x3ff2f487fcb92354	1.1846999999999825
69	0xbfd8bac710cb2996	-0.3864000000000031
70	0xbffe6fd21ff2e270	-1.9022999999998795
71	0x3fac1bda5119cd2e	0.05489999999999849
72	0x3ff5b020c49ba452	1.3554999999999109
73	0x3fcd9e83e425b05e	0.23140000000001043
74	0xbfeffe5c91d14cf4	-0.9997999999999636
75	0xbfc346dc5d638d50	-0.15060000000003493
76	0x3ffd467381d7d9ef	1.829699999999885
77	0x4007c1bda5119ed9	2.969600000000224
78	0x4004f5c28f5c2a4c	2.620000000000152
79	0x3ff44dd2f1a9fcbd	1.2690000000000474

hidden_bias f8 [45]
0	0x401a2f08041ca139	6.545929016349242
1	0xbfe648eaaffa022f	-0.6964009701769721
2	0xc018c71a718216c7	-6.194436811032296
3	0x40176438c4c9314a	5.847872805385416
4	0xc016c2c394c3ece5	-5.690199207743011
5	0x40177e9ac08cf2bc	5.873637207606119
6	0xc0155a07d1db3905	-5.337920454983991
7	0xc0189ae4e5747193	-6.151263795120388
8	0x401420b2ae710225	5.031931615493282
9	0xc0184ff47ba8577d	-6.078081066274419
10	0x401882633fc2ac8a	6.127331730133969
11	0x401b6791605883ff	6.851140504267277
12	0x3ff998b08b60243f	1.5997777408940832
13	0x4018779be23021cd	6.116805586040255
14	0x40126103a3470470	4.594740439614824
15	0xc0197be228576d29	-6.370979910217366
16	0x4018330b133947ae	6.049846935626119
17	0x3feb2d77c258fb2a	0.8493002696849079
18	0x401597db0e4af564	5.398296569180591
19	0x40060b5824995e51	2.7555392131141976
20	0x3fdb81292e500c51	0.4297583534500449
21	0x4019c212cd487d65	6.439524848508289
22	0xc0189189fd2ed366	-6.1421279487447915
23	0xc01a09aad217c9ea	-6.509440691663693
24	0x4018a543b929f3d6	6.161391156373574
25	0x4019c5fe296433a1	6.443352362385583
26	0x401671cf47469af8	5.611142266926201
27	0xc01be6b7d1ab7c9b	-6.975310588924141
28	0xc019038043d9bcd1	-6.253418979801794
29	0xc015a2ec98ba88fa	-5.409105669388959
30	0x4016c891b14680d7	5.695868272712878
31	0xc0176887da0aa812	-5.852080733204291
32	0x401785663b974909	5.880272799595567
33	0x4019424b61e3e318	6.314740685972332
34	0x4019ce3269b4ed0e	6.451364185016486
35	0x40182995e1c461c0	6.040610816584774
36	0x401a057aece5cdc2	6.505351735616786
37	0xc01718903cc6a30d	-5.773987722038112
38	0x40169dee3ae58f63	5.654229088078725
39	0xc0194ab61ff9a31e	-6.322960376369137
40	0x4018f7a757195753	6.24184928981943
41	0xc018af4c7c043696	-6.171190202481418
42	0x400d90ab47a366a0	3.695639190363025
43	0x401aa58b62a198a3	6.661664525139858
44	0x40197cd66a7e230b	6.371911682080063
