Data/Heisenberg1DFM/Energy/Q40/Trial1.pt (torch_old, 1280 bytes, 3 tensors)

weights f8 [1, 40]
00000000: 59e9 3e15 7a56 bebf 475a a15b 9a21 c0bf
00000010: 798f e57f 66dc a2bf 7ed0 47b0 ed08 c6bf
00000020: a9e1 10bf 6fb1 b63f 1a9f 7b07 0482 b93f
00000030: 24f6 cd6c 1668 b9bf e9be 063b 8d5d a93f
00000040: a310 4d5a 5682 cbbf 2886 aac9 62fa a03f
00000050: f219 7ab8 bc35 9b3f 63b6 cb5b c294 903f
00000060: b741 5774 7a35 c7bf 9a99 da1e 7a2a b13f
00000070: ad12 306b d820 73bf 2a39 7892 3144 b2bf
00000080: 3339 b15b aedd c0bf 1a5a 9e4e db7e 9a3f
00000090: b0e2 802f 0142 ac3f 3548 a08e cb69 bbbf
000000a0: 3183 04c2 9469 c1bf d3b0 5aa4 6a7c abbf
000000b0: d6c3 10d1 b64b d0bf 5c97 a7b2 c176 a0bf
000000c0: 546b 4b4f f6a2 bd3f 4439 1ff7 32f8 a3bf
000000d0: 4c44 a393 0642 af3f 070b 6b2d 3e2e 9dbf
000000e0: 7504 9aa3 d3a2 c0bf 98a4 91a3 5ec2 ba3f
000000f0: 9508 73ba 8953 c33f f862 77ce 30bb aebf
00000100: 4577 139f ae27 bbbf 1eb5 8ca2 5d0c b6bf
00000110: 1962 a64d bc34 923f 3875 334f 835b d33f
00000120: 9708 c7bb d197 c0bf a462 6e14 4a84 ac3f
00000130: 8f27 8aaf 0684 abbf fe50 c89f 0524 923f
-0.1185070325726988 -0.12602548097739172 -0.03683777152289642 -0.17214747531363978 0.08864496626563913 0.0996401327389517 -0.09924450069771545 0.04954186769043451
-0.21491507920484762 0.03316029273743154 0.02657217861135481 0.016192471363800098 -0.18131952934937853 0.06705439809102245 -0.004669995675617028 -0.07135305238646042
-0.13176516987955153 0.02587454478597282 0.05519107537151535 -0.10708305580217899 -0.13603457902447638 -0.05368359810140224 -0.25462122360755524 -0.032156041201047286
0.115767855032954 -0.03900298372865277 0.06105061104029427 -0.028496715089896287 -0.12996907699929108 0.10452834599859029 0.15098687747928766 -0.060021901324665394
-0.10607425101940489 -0.0861261865472511 0.017779295195937992 0.3024605058142984 -0.12963315647909177 0.055696787828485556 -0.05374165432756605 0.017715537907933225

visible_bias f8 [40]
00000000: 93c2 f528 5c8f c2bf 836a bc74 9318 c4bf
00000010: fa28 5c8f c2f5 c8bf 3608 ac1c 5a64 bbbf
00000020: 4760 e5d0 22db c9bf 7412 83c0 caa1 cdbf
00000030: a645 b6f3 fdd4 b8bf 4535 5eba 490c cabf
00000040: 886c e7fb a9f1 92bf 1783 c0ca a145 c6bf
00000050: fd7e 6abc 7493 c0bf 0300 0000 0000 c0bf
00000060: 56e3 a59b c420 a0bf e57a 14ae 47e1 c2bf
00000070: 1bd9 cef7 53e3 b5bf 3233 3333 3333 a3bf
00000080: 52e3 a59b c420 a0bf 9041 60e5 d022 abbf
00000090: 6e39 b4c8 76be 8fbf 56e3 a59b c420 a03f
000000a0: a470 3d0a d7a3 a03f 45e9 2631 08ac 6cbf
000000b0: 2285 eb51 b81e b53f d0a1 45b6 f3fd a43f
000000c0: 3cdf 4f8d 976e 823f cea1 45b6 f3fd b43f
000000d0: 4c0c 022b 8716 a93f 5239 b4c8 76be 8fbf
000000e0: a545 b6f3 fdd4 c03f 94ed 7c3f 355e aa3f
000000f0: b81e 85eb 51b8 9e3f 823f 355e ba49 bc3f
00000100: a645 b6f3 fdd4 b83f 4235 5eba 490c b23f
00000110: b247 e17a 14ae b73f 7ba9 f1d2 4d62 603f
00000120: 9943 8b6c e7fb c13f 0c56 0e2d b29d bf3f
00000130: fe7e 6abc 7493 c03f f6d2 4d62 1058 b93f
-0.1450000000000001 -0.1570000000000001 -0.19500000000000012 -0.10700000000000007 -0.20200000000000015 -0.23150000000000015 -0.09700000000000006 -0.20350000000000015
-0.01849999999999999 -0.17400000000000013 -0.1295000000000001 -0.12500000000000008 -0.031500000000000014 -0.1475000000000001 -0.08550000000000006 -0.03749999999999999
-0.031499999999999986 -0.05300000000000005 -0.015500000000000038 0.031500000000000014 0.0325 -0.0034999999999999775 0.08250000000000005 0.041000000000000036
0.009000000000000001 0.08200000000000005 0.049000000000000016 -0.01549999999999999 0.1315000000000001 0.05150000000000002 0.03 0.11050000000000007
0.09700000000000006 0.07050000000000003 0.09250000000000005 0.001999999999999944 0.1405000000000001 0.12350000000000011 0.12950000000000012 0.09900000000000006

hidden_bias f8 [1]
00000000: 4016 d718 7bab abbf
-0.054042670042275365
