Data/Heisenberg1DFM/Energy/Q25/Trial1.pt (torch_old, 1040 bytes, 3 tensors)

weights f8 [1, 25]
0.24533241763937594 0.07198431154881985 0.08465770355048233 -0.31471982831777773 -0.07751716335577018 0.11303022358877765 0.14658810281737303 -0.26423192756115743
-0.23202582529816212 0.08420414872520102 0.26761992391105643 -0.20573474467763084 0.1174093443498876 -0.21454327086845473 0.10512546240068107 -0.31316285616047423
-0.16144028662892446 -0.2099140498624223 -0.1647045511838033 -0.09521817057711575 -0.6176585822150286 -0.09276357415083708 -0.2981841876530983 -0.3676046631013592
-0.29868763890707933
00000000: 2372 347b 0d67 cf3f ac60 ed57 906d b23f
00000010: a291 1a94 20ac b53f 09c4 81a2 5e24 d4bf
00000020: 87e1 7d31 2ad8 b3bf 6efb c579 8cef bc3f
00000030: a9a9 ca21 66c3 c23f 22ca db07 2de9 d0bf
00000040: 76d3 bdb1 05b3 cdbf 9256 f630 678e b53f
00000050: 092f 3d51 af20 d13f 734a 0520 8455 cabf
00000060: 0142 3aee 890e be3f 217b fa65 2776 cbbf
00000070: a6e0 fc96 80e9 ba3f 00ff 6138 dc0a d4bf
00000080: 12ff a947 13aa c4bf 66a4 90ad 76de cabf
00000090: 0b1c 6bea 0915 c5bf ed18 9dd0 3760 b8bf
000000a0: ffa1 56ee dbc3 e3bf 14e8 3c85 5abf b7bf
000000b0: 6ee1 8921 7315 d3bf e827 78b5 d586 d7bf
000000c0: bfd2 34c2 b21d d3bf

visible_bias f8 [25]
-0.5099999999999977 -0.45700000000000157 -0.4809999999999995 -0.3085000000000002 -0.4260000000000003 -0.6074999999999837 -0.5739999999999997 -0.49799999999999595
-0.4759999999999996 -0.6234999999999913 -0.7494999999999903 -0.5514999999999908 -0.7674999999999766 -0.6204999999999949 -0.780999999999994 -0.6359999999999839
-0.7499999999999799 -0.7174999999999843 -0.7434999999999914 -0.8049999999999851 -0.6484999999999908 -0.8019999999999797 -0.7494999999999863 -0.738999999999983
-0.7319999999999804
00000000: 3db8 1e85 eb51 e0bf 8f68 91ed 7c3f ddbf
00000010: 5910 5839 b4c8 debf 5c39 b4c8 76be d3bf
00000020: e324 0681 9543 dbbf de3c 0ad7 a370 e3bf
00000030: 8fed 7c3f 355e e2bf 631c 5a64 3bdf dfbf
00000040: 0958 39b4 c876 debf 72ca a145 b6f3 e3bf
00000050: 3e43 8b6c e7fb e7bf 86ce f753 e3a5 e1bf
00000060: bdc1 f528 5c8f e8bf 1460 e5d0 22db e3bf
00000070: 95a1 45b6 f3fd e8bf 9630 08ac 1c5a e4bf
00000080: 4bff ffff ffff e7bf 6828 5c8f c2f5 e6bf
00000090: 4a6e 1283 c0ca e7bf 3cf5 285c 8fc2 e9bf
000000a0: 3a97 6e12 83c0 e4bf 8d8a 6ce7 fba9 e9bf
000000b0: 1a43 8b6c e7fb e7bf 40ce f753 e3a5 e7bf
000000c0: 5680 9543 8b6c e7bf

hidden_bias f8 [1]
0.1808091167137712
00000000: 8459 8dcd c024 c73f
