Data/Energy/Q20/Trial1.pt (torch_old, 960 bytes, 3 tensors)

weights f8 [1, 20]
000000 47 70 ae 45 37 9e d2 3f 34 45 88 bf a2 c2 d1 bf
       0.2909067326052121 -0.27750462250067476
000010 87 57 c3 d2 01 6d b6 bf 1d 58 9e d0 76 f5 b8 bf
       -0.08760081668455487 -0.09749548524118308
000020 4b 82 35 9d ba 9e c8 bf 6d 3f 4e 59 15 30 c7 3f
       -0.19234402347776078 0.18115488873126698
000030 8d 19 39 a9 af e3 d0 bf e0 62 ef 5d 27 88 73 bf
       -0.2638968613213358 -0.004768518235288538
000040 c3 5d 30 f3 53 e8 ba 3f 36 bc f5 98 51 76 bd 3f
       0.10510754286985162 0.1150866506993545
000050 1c 11 f0 cd 94 31 8a bf 3c 60 f5 ce a0 b4 c6 bf
       -0.01278988126251384 -0.1773873339213895
000060 c9 b2 7d 9d e5 32 c9 3f fd 1a 89 9c 57 30 ba 3f
       0.19686575117102326 0.10230014392537252
000070 5a ae d3 91 1b 50 ac 3f 12 b7 09 87 33 d7 a2 3f
       0.055298673201687534 0.03679810546314689
000080 32 15 5b f1 ed 55 a1 3f 6d f4 d8 30 5c 3f ad 3f
       0.03385871478307435 0.05712402435572348
000090 ac 26 14 de eb 76 ac 3f c3 e3 b7 d1 69 b1 c3 3f
       0.055594797953813696 0.15385172596123028

visible_bias f8 [20]
000000 0e d7 a3 70 3d 0a a7 bf a3 1a 2f dd 24 06 d1 3f
       -0.045000000000000026 0.2660000000000002
000010 55 b8 1e 85 eb 51 c0 3f 75 3d 0a d7 a3 70 c5 3f
       0.12750000000000009 0.16750000000000012
000020 53 62 10 58 39 b4 c8 3f a4 99 99 99 99 99 89 bf
       0.19300000000000014 -0.012500000000000018
000030 36 08 ac 1c 5a 64 cb 3f 9a 43 8b 6c e7 fb b9 3f
       0.21400000000000013 0.10150000000000006
000040 b3 47 e1 7a 14 ae b7 3f 88 49 0c 02 2b 87 76 3f
       0.09250000000000007 0.005499999999999956
000050 28 5c 8f c2 f5 28 9c 3f d9 78 e9 26 31 08 c4 3f
       0.027499999999999997 0.1565000000000001
000060 7c 14 ae 47 e1 7a a4 bf c2 f5 28 5c 8f c2 a5 3f
       -0.04000000000000001 0.042499999999999996
000070 ee 7e 6a bc 74 93 88 bf 50 e9 26 31 08 ac 8c 3f
       -0.01199999999999998 0.01399999999999993
000080 57 b8 1e 85 eb 51 b8 3f 7c ab f1 d2 4d 62 40 3f
       0.09500000000000007 0.0005000000000000416
000090 4b 37 89 41 60 e5 a0 bf 4e 37 89 41 60 e5 a0 bf
       -0.032999999999999995 -0.033000000000000015

hidden_bias f8 [1]
000000 43 4a f7 82 f4 f6 b7 bf
       -0.09361198613559289
