Data/TFIM1D/Energy/Q15/Trial2.pt (torch_old, 1495 bytes, 3 tensors)

weights f8 [6, 15]
000000 fe e5 98 0e 7c ed 9c bf 49 7e 8b 4d b2 45 a1 bf
       -0.028249681845613488 -0.03373486706345525
000010 5f 95 6c d4 6a 9f a1 3f c8 cb b0 4a 9c 64 9f bf
       0.03441938250606812 -0.03065723615527441
000020 66 72 20 0e 14 73 c8 3f b8 d7 c8 21 89 8f c9 3f
       0.19101191224844455 0.1996928610766966
000030 f8 8c 4d 45 11 50 b1 bf 88 9f 0e 3b 8c 95 b3 bf
       -0.06762798253980751 -0.07650066797088872
000040 6a 6a bb 1e dd 52 e5 3f ed b3 f7 f1 a1 8c 01 40
       0.6663652038799459 2.193668260928908
000050 76 df 50 a7 e2 91 0c 40 22 0e 77 af 71 5a 0d 40
       3.5712330886416863 3.669162150212075
000060 54 8f c6 e9 0f e8 01 40 2b c2 d7 e1 79 23 db bf
       2.2383116019936242 -0.4240402894493253
000070 54 c8 31 84 f4 b0 b6 bf ee 70 3c 61 6d 6d a1 bf
       -0.0886376211872471 -0.03403798877681817
000080 2d b4 ef 21 67 09 a2 3f d2 bf c0 58 ae 9a a5 bf
       0.035227988140697476 -0.04219574769410851
000090 2a 47 6d f4 54 f5 8c 3f b7 bc d8 04 15 75 b0 3f
       0.014139808377567304 0.06428653114629666
0000a0 f6 93 1a 40 15 52 c4 3f b6 b9 22 cc 70 9b fc bf
       0.158754974651998 -1.78794936886298
0000b0 4e dc ad 77 28 3d 08 c0 ba 28 69 cd 85 af 10 c0
       -3.029862341874412 -4.171408853095437
0000c0 8c 98 fb 97 94 9a 05 c0 ef 21 4b 2e 88 a1 f2 bf
       -2.7004787324577304 -1.1644365127887075
0000d0 a2 54 95 af 32 cd d6 3f f6 ba 35 1d 1a 77 ca 3f
       0.3562742914849172 0.20675970484031553
0000e0 68 20 a9 62 96 57 96 bf c7 ca f2 97 80 44 bd bf
       -0.021818494579094155 -0.11432651242902657
0000f0 f4 23 ee d5 bc f6 cd bf 00 05 9c 9a 1b 40 d8 bf
       -0.23409233518421468 -0.378912831292908
000100 6e 34 9e 27 9a 9f 03 c0 11 93 34 61 76 39 15 c0
       -2.452930745616462 -5.306115645250217
000110 44 7b 72 c9 65 9b 03 c0 5e 30 af 50 6e 37 eb bf
       -2.4508777368604644 -0.8505164695611815
000120 ff 37 e5 6d db 63 a5 3f 1e 81 49 9a f9 25 b9 bf
       0.04177747456070335 -0.09823570267463252
000130 63 3b 2e 59 9c cf d3 bf 7e 64 bc 05 4f 72 bd bf
       -0.30954655369798995 -0.1150254620555575
000140 26 9e 82 22 96 5c be bf f9 02 8e 25 3b 8f ad bf
       -0.11860025732550436 -0.057733391126935936
000150 07 6f 7a 04 88 1d b7 3f 1b b4 53 84 25 3b b7 3f
       0.09029436215717733 0.09074625473631708
000160 5f ab c2 f5 30 7c b6 bf 63 a8 3a 01 7b 43 9e bf
       -0.08783250808725772 -0.02955429263116861
000170 e8 17 d0 64 54 60 bc 3f 05 ce ff e7 1e 8d 80 3f
       0.11084487401248533 0.00808166642671094
000180 6c 9b a7 47 fe 06 bb bf 0d 04 0b d2 6c 12 89 3f
       -0.10557545899756143 0.012242174301151843
000190 43 e3 f0 ba c1 d5 a2 3f ff 64 d8 04 23 b3 c1 bf
       0.03678708464617 -0.13827932106577376
0001a0 bb 1b 3e ed d8 c3 c2 bf 7e ec 4c f0 02 ef bb bf
       -0.14660178741561744 -0.10911577574454331
0001b0 9a bf d8 15 cb f1 c2 bf b1 46 b4 9c 01 c3 c6 bf
       -0.14800394598705396 -0.17782611991474576
0001c0 fc d9 ed 50 03 e3 f6 bf 98 4e 94 bb 51 62 05 c0
       -1.430423084382368 -2.6730074553141314
0001d0 b5 f8 27 e1 a3 67 15 c0 5f 85 ef 8a 4c 06 05 c0
       -5.351211088242214 -2.628075681147194
0001e0 c0 2e 1a 9d 19 7e 03 40 3f bc b5 b3 91 29 16 40
       2.4365722917189885 5.540594871489758
0001f0 bf ad da 20 dc ea 02 40 8b aa 13 b6 2f 0f d1 3f
       2.3646776739821855 0.2665519025892215
000200 50 e9 3d 78 d0 97 c8 3f 01 b8 b8 77 79 a3 cc 3f
       0.19213300582107218 0.2237388453081053
000210 70 7e 58 90 94 d1 c4 3f 6a 0b ec 95 a7 1d b5 3f
       0.16264588401917335 0.0824837437649372
000220 e8 d5 f4 7f a9 3a 95 3f 8e df 42 bd ff 1e b6 3f
       0.02073159068569011 0.08641050692210525
000230 9b 27 d4 ec 5d 50 b6 3f 54 33 a1 74 c8 b8 90 3f
       0.0871638014979496 0.016329891317855186
000240 29 0b a9 bc 89 5c ba 3f 1d b7 01 f4 23 cc bd 3f
       0.10297451835598949 0.11639618594355423
000250 ce 0d 74 0f c2 43 aa 3f 0b 74 65 19 5e b5 b9 3f
       0.051298202883142005 0.10042369956995871
000260 61 14 60 3f 0a 12 91 3f a5 82 78 94 f3 7d c5 3f
       0.0166703797513218 0.16790623426006338
000270 50 1b c2 b0 e4 28 c1 3f 00 a9 bc 13 11 73 03 40
       0.13406046515248216 2.4311849157285224
000280 5d 9f c3 a9 ce 53 11 40 5d 53 53 5c 86 39 08 40
       4.331843044819689 3.028088303845307
000290 e9 29 96 7e 4f e0 fc 3f 82 0e e0 5d 40 5f 91 3f
       1.8047633118427433 0.016964917878807835
0002a0 19 1a 03 67 c5 bc ba bf ba 80 60 54 09 c6 93 3f
       -0.10444291844314825 0.019310136580430216
0002b0 e6 3a 9d f7 39 62 cd 3f 58 3c 83 ab a7 14 c6 3f
       0.2295601328900922 0.1725053393806515
0002c0 b0 51 2e 19 db af bb 3f a0 00 0e 73 eb e4 76 bf
       0.10815209736603637 -0.0055894086116269615

visible_bias f8 [15]
000000 df da 1b 7c 61 32 f1 bf 1f 1c eb e2 36 9a 04 c0
       -1.0748000000000315 -2.575299999999984
000010 7f f2 ae 25 e4 83 9e bf 31 22 fd f6 75 60 04 40
       -0.029800000000010925 2.547100000000022
000020 8a 46 bf 7d 1d 38 c7 bf 4e 1e f4 6c 56 7d ff bf
       -0.18139999999998607 -1.968099999999953
000030 06 67 d5 e7 6a 2b e2 bf 12 cf 66 d5 e7 6a e9 3f
       -0.5678000000000061 0.7942999999999947
000040 5b 13 ae 47 e1 7a ff 3f 0a ad 1c 5a 64 3b db 3f
       1.967499999999936 0.4255000000000143
000050 06 c5 8f 31 77 2d f1 bf e2 b4 84 7c d0 b3 f5 bf
       -1.0736000000000003 -1.3563999999999443
000060 99 bf 4b 37 89 41 b0 bf 84 94 65 88 63 5d 06 40
       -0.06349999999997492 2.7955999999999808
000070 4a 79 36 ab 3e 57 f7 3f
       1.4587999999999561

hidden_bias f8 [6]
000000 e2 28 01 8c 28 5d 18 c0 bd db 1a d0 cf eb 18 40
       -6.0909749866206955 6.230284930838875
000010 bf d1 bd 5d 67 ca 18 40 13 b2 09 9a 46 c2 19 40
       6.197659935675289 6.439722449151776
000020 1e b0 27 04 e5 c1 17 c0 7c e2 73 5c eb 75 19 c0
       -5.939350190088616 -6.365155644009629
