Data/TFIM1D/Energy/Q25/Trial1.pt (torch_old, 3334 bytes, 3 tensors)

weights f8 [12, 25]
0	0x3faaed2486fcbdee	0.05259050510209905
1	0x3fc2148c19a8f25d	0.1412520528118816
2	0xbf8a681838b285a2	-0.012893857221856934
3	0xbfc111d5552e2269	-0.13335673007192675
4	0xbf6dc361bd4d3e09	-0.0036332043622804328
5	0xbf9735cf08bfdad9	-0.022666201504729287
6	0x3fb10424d97e025b	0.06646948156231629
7	0x3fc9a5ab15f56979	0.20036829540442705
8	0xbf8891312f8e716e	-0.011995682014280997
9	0xbfb2985ed49dcffd	-0.07263748827773493
10	0xbf9ae7d6bdd51b4a	-0.0262750199665576
11	0x3fb7dc4625819710	0.09320486465147959
12	0x3fb317495fdfd088	0.07457407560997542
13	0x3f9da39aa6f67eca	0.028944412651638975
14	0xbf87789a54f0d275	-0.011460500447449487
15	0xbfc178f9d4698ea2	-0.1365043914002984
16	0xbfaa113b6bd8b670	-0.05091272059904106
17	0x3faa045f5c646a05	0.0508146095546245
18	0xbfb262aa5970f10c	-0.07181801494238388
19	0xbfdc9ec836f076ac	-0.4471912895695407
20	0xc0024528530a3747	-2.2837683188908247
21	0xc013e7b9309df0c4	-4.9762923809432245
22	0xc00268ee10607428	-2.301235320991072
23	0x3fa6fe92736dc228	0.044910980787680466
24	0xbfb9fe07b4547e04	-0.10153244164074954
25	0xbfd122f7f1a9ddbf	-0.2677593097682482
26	0xbfdfb3f1ae427d06	-0.49535791413832475
27	0xc003dad864e7b9f3	-2.481858051606872
28	0xc014666f42d460e9	-5.100033802235182
29	0xc003319a8406d7fd	-2.39922049661527
30	0xbfe04e5ab551d5c1	-0.5095647374534381
31	0xbfc330f373012b85	-0.1499313651605371
32	0xbf8dde989afd2eee	-0.014584724645508609
33	0xbfb91161ffa28cf4	-0.09792149058425875
34	0xbfb5e21aa40c3852	-0.08548132424422875
35	0xbfb0013531990d55	-0.06251842938313719
36	0xbfac65ef7477bf07	-0.05546520516133851
37	0xbfa1d9f717b4c7be	-0.03486606754667275
38	0xbfb043f909f4279a	-0.06353718274126977
39	0xbfc1f96722c80a68	-0.14042367170630432
40	0xbf92f17ad241cf52	-0.018499297221253493
41	0xbf83e3f936b5c743	-0.009712168676489724
42	0x3f8536419ac42fde	0.010357391868204443
43	0xbfae5c8b9e952a46	-0.059299815281140186
44	0x3f8069aee1f22991	0.008014074583361704
45	0x3f9e848403462f8e	0.029802382182921465
46	0x3fc12f5c1f46e37b	0.13425780799095918
47	0x3f9b2cc2ff6e79fd	0.02653793987303209
48	0x3f9b889765433270	0.026888242297717857
49	0x3f99d20ab12ecbe3	0.025215308250789447
50	0xbfa069dd44ad97c4	-0.032057680734211697
51	0xbfbdaad464d5312f	-0.11588790380227885
52	0xbfa19389f3f24496	-0.03432875731335476
53	0x3fc0cb5eb529301f	0.13120635839220626
54	0xbfaf6b425fb38257	-0.06136519830920822
55	0x3fa305c5e4d7efb5	0.03715341967105649
56	0x3fa350442fbb4b91	0.03772175867711448
57	0xbf82ef2f0dba4b00	-0.009245269400059097
58	0xbfb7a45e757eb9a8	-0.09235182159930011
59	0xbfb94575b950b1a6	-0.098716123335811
60	0x3faa0a383e765873	0.05085922014693347
61	0x3fbdf92c62426565	0.11708333395872257
62	0x3fa6c29d19243b70	0.0444535344305369
63	0xc001caf4d83f67fe	-2.224099816737179
64	0xc00d47720a734a92	-3.6598854843553648
65	0xc00ae20dfaa41212	-3.3603782254524583
66	0xc00057a43c3efbef	-2.042793722793696
67	0x3f438d3d247022b0	0.0005966709658205751
68	0x3fbc9df35d3f58ea	0.11178513552235683
69	0xbfc0040c41525135	-0.12512353124169243
70	0xbfc53b31be0fae56	-0.16586896686873115
71	0x3fb87fc855acb900	0.09569980708758763
72	0xbfb148ed59b73ec1	-0.06751903000189953
73	0xbfb7fcae98caf9c8	-0.09369937162680408
74	0x3f78904441222b7c	0.005996958369119617
75	0x3f93f972618ea94b	0.019506251530097257
76	0xbfc554390259c633	-0.16663277258662532
77	0x3fab33b3d0be17ff	0.05312883303763271
78	0x3fa9b12a4052bab8	0.05017978701777309
79	0x3fab1ce2c0f8a526	0.052954755836547115
80	0x3fc08003b0386ca3	0.12890668968689054
81	0xbfa2c5346833d141	-0.036660802574177705
82	0xbfa2f4bdac41d100	-0.037023474957921465
83	0x3fb60e03d0873c91	0.08615135041258017
84	0x3f9386b8df37b30c	0.01906861174022638
85	0xbfa3bddf4719ea9d	-0.038557984761571996
86	0xbf88443869c4147a	-0.01184887001773859
87	0x3facf46fbc4cc169	0.0565524022443949
88	0x3fa8921377f9df5f	0.04798947181274004
89	0xbf75338978d48aaf	-0.005176102638219034
90	0x3f84cd4307b6e4d0	0.010157130883145987
91	0x3fba8e26d12f7830	0.10373156172815423
92	0xbfa1533617d64bb4	-0.033837976846505496
93	0x3fad5d44c646daa9	0.05735220833178307
94	0x3fbcedaee5104aab	0.113001757549038
95	0x3fd26a948b76c849	0.2877551423981726
96	0x3fe594ffd1adadf4	0.6744383902818627
97	0x4002f347d01aa184	2.3687893159987556
98	0x40161aa0d6fa5662	5.526004179982552
99	0x40039add6033e4f1	2.450617553313912
100	0x3f6820c2148b6153	0.002945307791702026
101	0xbfd46fb40d785a10	-0.3193178302330191
102	0xbfab7c2fc99bff7c	-0.05368184410144658
103	0x3fbe8c0f09f6e739	0.11932462685845459
104	0x3fadf8fe07a1f057	0.05854028552218498
105	0x3fc385e2ff14dd1e	0.15252339797164266
106	0xbfbabd99198c2d20	-0.1044555365917188
107	0xbfc8e84a553bd762	-0.19458893930248694
108	0x3fc9182ef15d5e8a	0.19605051789652733
109	0x3fc31471ec2a8402	0.14906143218561857
110	0xbf92df8d1ddbbe09	-0.018430905291948494
111	0xbfb77024f806fbd1	-0.09155493789056314
112	0x3f9ff4e613183618	0.031207652011337655
113	0xbfc905811b4934e4	-0.19548047859499385
114	0xbfc0c2ec3bcdf4b2	-0.13094857139723143
115	0x3ff8595a95c0a49c	1.5218149041850557
116	0x4007326abb498cdd	2.8996176368542437
117	0x40102da32281378b	4.044567622315195
118	0x400244eee4358e84	2.2836587742656906
119	0x3fb458e78599d490	0.07948157321682658
120	0x3fbf359a7fa8c750	0.12191167465860286
121	0x3fd1f3da7a26e7b3	0.2805086319818841
122	0x3fb81a3da722eee5	0.09415040331344533
123	0xbfbb19a602d945bf	-0.10586011476086464
124	0x3fb625c848a76216	0.08651401304030801
125	0xbfa9e97fb4c19b6d	-0.050609579863524747
126	0xbfaf1568e0564d8b	-0.060710217842962676
127	0xbf9d9b0355837bcb	-0.028911640257202536
128	0x3fc093f7b87018e8	0.1295156145644747
129	0xbfc2fc443e268de6	-0.1483235648603191
130	0xbfc8cecf72c4ade6	-0.1938113508598313
131	0x3fd1a1224a9bda03	0.2754598358727948
132	0x3fcc42b0150e16ed	0.22078515079572672
133	0xbffd02039e7da12c	-1.8129917326969673
134	0xc00926e19768ea53	-3.143984969033491
135	0xc01011c73fad985a	-4.017361636133581
136	0xc003a894bfdd388e	-2.4573149670969263
137	0xbfd7562b37a3ab6c	-0.36463432725456957
138	0x3fb3fc0369a621c0	0.07806416825599793
139	0xbfa92ac421012d36	-0.04915440466774117
140	0xbfce7ae8c625693f	-0.2381258933554111
141	0xbfd20169ca88d462	-0.281336257731999
142	0x3fc10b23af7f6275	0.1331524474069458
143	0x3fb15f511161adb0	0.0678606669841233
144	0x3fa408d344abeb9a	0.039129831440696
145	0xbf956bb402a11313	-0.020918667469476192
146	0x3fc557d51fc954ec	0.1667429356772695
147	0xbfa9ba0d5f87d36c	-0.05024759093422557
148	0xbf632da956154146	-0.002341109022985818
149	0xbf7d11908fdd2aae	-0.007096829123677635
150	0x4002d4ed9a2a71c7	2.3539688152506844
151	0x4015845a15effb35	5.37924989964704
152	0x40022ac458de7923	2.270882314957946
153	0x3fd04dec1f8525d2	0.2547560031713064
154	0x3fc74dd2ec67ce48	0.1820624975513161
155	0x3fc91f35538dec28	0.19626490192226353
156	0xbfa8a6acf112d850	-0.048146633556300444
157	0xbfc03fc11df4fd73	-0.1269456287645699
158	0x3fc37f73ca1b4b4e	0.15232703560340116
159	0x3fbc3c6929bd6d45	0.11029679554979051
160	0xbfbd674bbd9a8132	-0.11485741976730848
161	0xbfba1658f6152d25	-0.10190349586371335
162	0xbf95555e1cc20b21	-0.02083346415066523
163	0xbf9b38f159ed0682	-0.02658440696109788
164	0xbfb55216cc128f54	-0.08328382951964147
165	0x3fa0806f029a4bc4	0.03222987086078136
166	0x3fb6e17e23492ce1	0.08937824593992928
167	0xbfb83ecbe9eb34f3	-0.09470819912822374
168	0xbfc03606749cc663	-0.1266487187763686
169	0x3fb22e83860b417a	0.07102224371488389
170	0x3f9d5640f2116c81	0.02864934422937582
171	0x3fc30a573c1d7d83	0.14875307498276066
172	0x3f58b07cc116b828	0.0015069216063738986
173	0x3f984a10b0b8543b	0.02372003630269524
174	0x3f76d88714dec710	0.005577590620235787
175	0xbfae2116afdb6f74	-0.05884619614309275
176	0xbf92a8fd12d16afe	-0.018222765229761066
177	0xbfbc4fd12429e0c7	-0.11059291012668658
178	0xbfd59588f13ee4f4	-0.3372518878855566
179	0xc002ea74e1c21f8a	-2.3644807469717692
180	0xc0137ef5fe63d1e5	-4.873985266535304
181	0xc0048bbfa655210c	-2.568236636612829
182	0xbff09df2ad28ccc5	-1.0385615123785084
183	0x3f86ffad08a103f3	0.011229850602946434
184	0x3f8ad3c1e48c4720	0.013099207675199731
185	0xbfc44c2fd00dcf1a	-0.15857503565677505
186	0xbfaef7db730f5dd2	-0.060484750552571534
187	0x3fb2dcf78e9370cd	0.07368418913705739
188	0x3f9772b24494a297	0.02289846938689041
189	0x3fb315db80604194	0.07455226787738517
190	0xbfb5226035663ac4	-0.08255578330702479
191	0xbf984ab4e917c623	-0.02372248337446171
192	0x3f943c70f635d860	0.01976181509731878
193	0x3fa5387fe5aa5229	0.04144668272525493
194	0xbfb5ccb9bbb67de7	-0.08515511353333914
195	0x3f9981de0b704907	0.024909467170865642
196	0xbf7403d032ec798c	-0.004886449124369096
197	0x3f9085d0a9e1a443	0.01613546406625611
198	0x3fb1f511a7cbc731	0.07014570566732627
199	0x3fae7429b38874be	0.05948000256123852
200	0xbfbb595a57d053b7	-0.1068321670903306
201	0xbff1d6768b93394e	-1.1148591472770764
202	0xbfd11635df07fc4f	-0.2669806173361779
203	0x3fbbe7574f674535	0.10899873436507763
204	0x3fc0a1b95e94d116	0.12993542783954898
205	0x3fd362521c3f141c	0.30287602194249685
206	0xbff1cb343dcaa896	-1.1121103681312312
207	0xbff61f5d8f541b6f	-1.3826575850268588
208	0x3fd1110b69ddd6ad	0.2666653188565345
209	0x3fd5e8991a763363	0.3423216589370012
210	0xbfe7f5abc1422ec7	-0.7487391256886092
211	0xbfef0461fd63d7f9	-0.9692850064300266
212	0xbfe7e00830c353e5	-0.746097655525429
213	0xbfd0e6765c1e9949	-0.2640663051228285
214	0xbfd8ed55cdfb5dc6	-0.3894857894460667
215	0xbf8af4d212ea5977	-0.013162270738843003
216	0x3fb4b3680277fa6e	0.080862522700025
217	0xbff3b9fd5c0d993c	-1.2329076381516435
218	0xbfef341afd967536	-0.975110526360061
219	0x3fc97231cf1083db	0.19879744158336518
220	0x3f90588c40ea8b92	0.01596278330056184
221	0xbfd14b53d2695a1b	-0.27022262142182435
222	0xbfd576e48a66e971	-0.3353816367704417
223	0xbfdea72abe58bada	-0.4789530619481589
224	0xbfb19d0223b52c9c	-0.0688020074059516
225	0xbf90a14f25520509	-0.016240345623832506
226	0xbf8a19152070a69f	-0.012743153622142343
227	0x3fa73a82e50eeaf5	0.04536828085061543
228	0x3faa78c8ff39423e	0.051702767520172874
229	0xbfa0dab214083f84	-0.03291851515325475
230	0xbf978661c1da18ce	-0.022973563629897602
231	0x3fb84ca4ff2aba5f	0.0949195025411682
232	0x3f9792db7eb4cecc	0.023021154030358912
233	0xbfb856d21621c5fc	-0.0950747779877687
234	0xbfb5ec02b043dcee	-0.08563248446795388
235	0xbfa0c2b5681c12fb	-0.032735508879374785
236	0xbfae68a5b9f30968	-0.05939214606179882
237	0xbf9987f07d1d2459	-0.024932630192129632
238	0xbfc47d5f107bbed5	-0.16007602982380456
239	0xbfc7e1c616443bf1	-0.18657756888612156
240	0xbfa318accd626049	-0.037297630378077935
241	0xbfb146f259d5e368	-0.06748881047486821
242	0xbfed07f38836571a	-0.9072206173320609
243	0xc003ec26401007ea	-2.490307331551766
244	0xc0141559c922233f	-5.020850317677115
245	0xc003695ff81fec4f	-2.426452578043189
246	0xbfd26997d1a7f897	-0.28769488786918757
247	0xbfc7c76f5504d4b3	-0.18577376986801183
248	0xbfc12836c81ee14f	-0.1340397336150638
249	0xbfb13c9a86f24300	-0.06733098787868741
250	0x3fa7492c9a44ab3e	0.04548015006215288
251	0xbfc81ba3c20208ea	-0.18834349606556283
252	0x3fbf0221bee5dcae	0.12112627897828318
253	0x3fd1c3855be0b87e	0.27755865070765384
254	0x3fb9627ff4ffe5a9	0.09915923816142559
255	0x3fb14bc5b979fb32	0.06756244447931861

visible_bias f8 [25]
0	0xbfed73eab367a141	-0.920400000000008
1	0xbff5793dd97f620d	-1.3420999999999623
2	0x3fd1f3b645a1cb2e	0.2805000000000061
3	0x4001c1205bc01a57	2.2193000000000143
4	0x4001484b5dcc63c0	2.160299999999978
5	0x4002491d14e3bc92	2.285699999999971
6	0x3fe765fd8adaba28	0.7312000000000056
7	0xbfe43afb7e910048	-0.6322000000000196
8	0xbfecfaacd9e83da5	-0.9055999999999825
9	0x3fde05bc01a37044	0.4691000000000296
10	0x400286c226809d13	2.315799999999976
11	0x3fe9a5e353f7ceb9	0.8014999999999964
12	0xbffc3b645a1caac6	-1.7644999999999285
13	0xbfabb2fec56d5e48	-0.05410000000000231
14	0x3ffadb22d0e55f0d	1.6784999999999315
15	0x3ff3dc5d63886487	1.2412999999999401
16	0xbfd205bc01a36ed8	-0.2816000000000094
17	0xbfe7b8bac710cb77	-0.7413000000000086
18	0x3fe9930be0ded2c1	0.7992000000000062
19	0x4003e075f6fd21f5	2.4845999999999955
20	0x400163bcd35a8483	2.1736999999998843
21	0x3ffcbf487fcb9079	1.7966999999999003
22	0x3fd47ae147ae1408	0.3199999999999936
23	0xc0015cc63f141225	-2.170300000000014
24	0xbff2bd3c3611333f	-1.171199999999956

hidden_bias f8 [12]
0	0x4013925216403273	4.892891261738089
1	0x40179cd21b95d42a	5.9031452474783155
2	0x40179272865af9bb	5.893015002539353
3	0xc017d60668bf9f3b	-5.959008824058226
4	0xc016974d08a3e68d	-5.647754797939013
5	0x401813b472f3e273	6.019243045936139
6	0xc015264a8e065fea	-5.2873937789336
7	0x4016e8a4a838245d	5.72719061701454
8	0x401338437e0b1d78	4.804944962910092
9	0x4018547bfb57ee81	6.0825042030734275
10	0xc016a2b016aefa0c	-5.658874849729283
11	0xc01860cf7bffd3c1	-6.094541490067912
