tests/data/test_training_init_pos_params.npz (npz, 1678 bytes, 3 tensors)

weights f8 [10, 10]
000000 00 00 00 60 dc 46 b3 bf 00 00 00 80 7c d0 d3 bf
       -0.07530000060796738 -0.30959999561309814
000010 00 00 00 40 f8 c2 b4 bf 00 00 00 00 66 f7 d0 bf
       -0.08110000193119049 -0.26510000228881836
000020 00 00 00 80 6a bc f8 bf 00 00 00 e0 6f 5f ef bf
       -1.5460000038146973 -0.980400025844574
000030 00 00 00 c0 e1 e9 eb bf 00 00 00 e0 24 06 c1 bf
       -0.8723000288009644 -0.13300000131130219
000040 00 00 00 00 aa f1 f1 3f 00 00 00 00 22 fd b6 bf
       1.121500015258789 -0.08980000019073486
000050 00 00 00 80 41 60 03 40 00 00 00 c0 f3 fd dc 3f
       2.421999931335449 0.453000009059906
000060 00 00 00 60 6d c5 f8 bf 00 00 00 40 2e ff b1 bf
       -1.548200011253357 -0.07029999792575836
000070 00 00 00 e0 34 ef e8 bf 00 00 00 20 21 1f ea 3f
       -0.77920001745224 0.8162999749183655
000080 00 00 00 40 8d 97 e2 3f 00 00 00 40 77 2d b1 3f
       0.5809999704360962 0.06710000336170197
000090 00 00 00 40 ab 3e ed bf 00 00 00 40 47 72 d9 3f
       -0.9139000177383423 0.397599995136261
0000a0 00 00 00 00 20 d2 fa bf 00 00 00 e0 58 17 e1 3f
       -1.676300048828125 0.5340999960899353
0000b0 00 00 00 a0 92 3a f7 bf 00 00 00 a0 6e 12 ff bf
       -1.451799988746643 -1.9420000314712524
0000c0 00 00 00 00 c5 8f e5 3f 00 00 00 20 8c 4a e4 bf
       0.673799991607666 -0.6341000199317932
0000d0 00 00 00 60 6f f0 f6 bf 00 00 00 20 c2 86 e3 bf
       -1.4336999654769897 -0.6101999878883362
0000e0 00 00 00 e0 83 9e e5 3f 00 00 00 40 80 b7 f5 3f
       0.675599992275238 1.357300043106079
0000f0 00 00 00 20 1d c9 c5 3f 00 00 00 e0 d9 ac e0 3f
       0.17020000517368317 0.5210999846458435
000100 00 00 00 40 e1 7a f3 bf 00 00 00 e0 09 68 f3 3f
       -1.2174999713897705 1.2129000425338745
000110 00 00 00 60 6f f0 c5 3f 00 00 00 a0 b4 37 f0 3f
       0.17139999568462372 1.0135999917984009
000120 00 00 00 40 2e ff d5 3f 00 00 00 60 12 83 fa bf
       0.34369999170303345 -1.656999945640564
000130 00 00 00 c0 fc 87 cc bf 00 00 00 60 dc 46 ed 3f
       -0.22290000319480896 0.914900004863739
000140 00 00 00 20 a0 89 fe 3f 00 00 00 80 7a a5 fa 3f
       1.9085999727249146 1.6654000282287598
000150 00 00 00 e0 a5 9b c4 3f 00 00 00 20 e4 83 8e 3f
       0.16099999845027924 0.01489999983459711
000160 00 00 00 e0 38 45 e1 3f 00 00 00 00 44 fa f4 bf
       0.5396999716758728 -1.3111000061035156
000170 00 00 00 80 a7 57 ca bf 00 00 00 20 e4 83 e6 3f
       -0.20579999685287476 0.7035999894142151
000180 00 00 00 a0 13 d0 e8 bf 00 00 00 40 4e d1 d1 3f
       -0.7753999829292297 0.2784000039100647
000190 00 00 00 20 ed 0d e4 3f 00 00 00 20 6e a3 f0 bf
       0.6266999840736389 -1.0398999452590942
0001a0 00 00 00 00 8a 1f f3 3f 00 00 00 a0 d4 09 ea 3f
       1.195199966430664 0.8137000203132629
0001b0 00 00 00 80 5a d3 f4 bf 00 00 00 40 4e d1 c9 bf
       -1.3015999794006348 -0.20170000195503235
0001c0 00 00 00 40 f1 63 e6 bf 00 00 00 80 1d 38 f5 3f
       -0.6996999979019165 1.326200008392334
0001d0 00 00 00 40 e8 d9 f8 3f 00 00 00 00 5d 6d c5 bf
       1.5532000064849854 -0.16740000247955322
0001e0 00 00 00 20 6a 4d e9 bf 00 00 00 c0 f7 53 f0 3f
       -0.7907000184059143 1.0204999446868896
0001f0 00 00 00 e0 d7 81 f2 3f 00 00 00 00 e9 b7 df bf
       1.1567000150680542 -0.49559998512268066
000200 00 00 00 60 74 24 f0 3f 00 00 00 40 df 4f e9 bf
       1.0089000463485718 -0.7910000085830688
000210 00 00 00 60 da 1b e6 3f 00 00 00 e0 14 1d fd bf
       0.6909000277519226 -1.819599986076355
000220 00 00 00 80 3d 0a df bf 00 00 00 80 53 74 b4 3f
       -0.48500001430511475 0.07989999651908875
000230 00 00 00 20 85 eb a1 bf 00 00 00 a0 5c fe df bf
       -0.03500000014901161 -0.4999000132083893
000240 00 00 00 40 f1 63 cc bf 00 00 00 20 51 da eb bf
       -0.22179999947547913 -0.8704000115394592
000250 00 00 00 a0 3e 57 f5 3f 00 00 00 e0 d7 81 e1 3f
       1.333799958229065 0.5471000075340271
000260 00 00 00 a0 3a 01 fc 3f 00 00 00 80 1b 0d ea 3f
       1.7503000497817993 0.8141000270843506
000270 00 00 00 40 79 58 f4 3f 00 00 00 c0 d1 00 f5 bf
       1.2716000080108643 -1.3127000331878662
000280 00 00 00 a0 ed 7c e9 3f 00 00 00 40 ad e9 02 40
       0.796500027179718 2.3640999794006348
000290 00 00 00 c0 f7 53 f8 bf 00 00 00 00 9c 33 f3 bf
       -1.5204999446868896 -1.2000999450683594
0002a0 00 00 00 c0 0c 71 ee 3f 00 00 00 80 eb 51 ec 3f
       0.9513000249862671 0.8849999904632568
0002b0 00 00 00 e0 56 ec db 3f 00 00 00 40 9d 80 fe 3f
       0.43630000948905945 1.9063999652862549
0002c0 00 00 00 60 9a 77 ac bf 00 00 00 40 bf 7d 7d bf
       -0.05559999868273735 -0.007199999876320362
0002d0 00 00 00 00 2d b2 cd bf 00 00 00 40 b4 c8 ec 3f
       -0.23199999332427979 0.8995000123977661
0002e0 00 00 00 80 b7 40 da bf 00 00 00 c0 52 96 c1 3f
       -0.41019999980926514 0.13740000128746033
0002f0 00 00 00 80 d0 b3 f1 3f 00 00 00 80 73 46 f2 bf
       1.1064000129699707 -1.142199993133545
000300 00 00 00 c0 b1 2e ec 3f 00 00 00 a0 13 d0 ea bf
       0.8806999921798706 -0.8378999829292297
000310 00 00 00 80 f2 b0 e4 bf 00 00 00 60 17 b7 f8 bf
       -0.6466000080108643 -1.544700026512146

visible_bias f8 [10]
000000 00 00 00 e0 26 31 fd bf 00 00 00 c0 54 c1 f1 3f
       -1.8244999647140503 1.1096999645233154
000010 00 00 00 e0 9e 3c f1 bf 00 00 00 60 98 4c d1 3f
       -1.077299952507019 0.2703000009059906
000020 00 00 00 80 41 60 04 40 00 00 00 c0 74 93 f1 3f
       2.546999931335449 1.0985000133514404
000030 00 00 00 c0 e5 3f f1 3f 00 00 00 a0 f6 06 ef bf
       1.0780999660491943 -0.9696000218391418
000040 00 00 00 00 ac 1c e2 bf 00 00 00 e0 e9 95 e6 3f
       -0.5659999847412109 0.7057999968528748

hidden_bias f8 [10]
000000 00 00 00 60 86 38 d6 3f 00 00 00 80 04 c5 ef bf
       0.3472000062465668 -0.9927999973297119
000010 00 00 00 40 8b 6c e9 bf 00 00 00 80 ae b6 ea 3f
       -0.7944999933242798 0.8348000049591064
000020 00 00 00 00 54 e3 e1 bf 00 00 00 20 97 ff 80 3f
       -0.5590000152587891 0.008299999870359898
000030 00 00 00 a0 70 3d f2 bf 00 00 00 e0 9c 11 ef 3f
       -1.1399999856948853 0.9708999991416931
000040 00 00 00 00 d3 4d ff 3f 00 00 00 e0 3d 79 f3 bf
       1.9565000534057617 -1.2171000242233276
