examples/Tutorial2_TrainComplexWaveFunction/saved_params.pt (torch_old, 1658 bytes, 9 tensors)

weights f8 [2, 2]
0	0xbfcb78cf5878b634	-0.21462432689570365
1	0xbfe9a11d1c0e127a	-0.8009172008465406
2	0x3ff19bc3816f4f65	1.1005282455489234
3	0x3fea7b7dc5dda0fd	0.827574621635932

visible_bias f8 [2]
0	0x3faff0d168a8b229	0.06238417055678653
1	0x3fe902cc56d797d1	0.781591577161402

hidden_bias f8 [2]
0	0xbfcb824fa771086a	-0.21491428066116508
1	0x3fd1fe9cc51bcc18	0.2811653065575128

weights f8 [2, 2]
0	0xbff1e3811b7f06ce	-1.1180430482931345
1	0xbfa540c1346a565c	-0.041509664200174184
2	0xbffb50ee3e7b4c4b	-1.7072584572495255
3	0xbfe54aa2f9b4431a	-0.6653609158548506

visible_bias f8 [2]
0	0xc00389bb417d514d	-2.4422516933792964
1	0xbff0ebe7adbcc3ce	-1.0575939928642017

hidden_bias f8 [2]
0	0x3fc805b6e45f0897	0.18767439032496178
1	0x3fe5e469e673a23f	0.6841325284013421

X f8 [2, 2, 2]
0	0x3fe6a09e667f3bcc	0.7071067811865475
1	0x3fe6a09e667f3bcc	0.7071067811865475
2	0x3fe6a09e667f3bcc	0.7071067811865475
3	0xbfe6a09e667f3bcc	-0.7071067811865475
4	0x0000000000000000	0.0
5	0x0000000000000000	0.0
6	0x0000000000000000	0.0
7	0x0000000000000000	0.0

Y f8 [2, 2, 2]
0	0x3fe6a09e667f3bcc	0.7071067811865475
1	0x0000000000000000	0.0
2	0x3fe6a09e667f3bcc	0.7071067811865475
3	0x0000000000000000	0.0
4	0x0000000000000000	0.0
5	0xbfe6a09e667f3bcc	-0.7071067811865475
6	0x0000000000000000	0.0
7	0x3fe6a09e667f3bcc	0.7071067811865475

Z f8 [2, 2, 2]
0	0x3ff0000000000000	1.0
1	0x0000000000000000	0.0
2	0x0000000000000000	0.0
3	0x3ff0000000000000	1.0
4	0x0000000000000000	0.0
5	0x0000000000000000	0.0
6	0x0000000000000000	0.0
7	0x0000000000000000	0.0
