benchmarks/python/demo_model.npz (npz, 4954 bytes, 4 tensors)

weights f8 [10, 10]
00000000: 86c8 193e 3207 bdbf 67f0 3099 0f44 c0bf
00000010: 0e1f abc8 906b d5bf 2970 1495 e9da c4bf
00000020: 6508 9110 03ca babf 4dc7 0e20 565d 973f
00000030: dcb3 1a69 edca d33f 62aa e8c4 05e7 f8bf
00000040: 6501 2c2b 2111 0dc0 3248 7c04 2d9f 04c0
00000050: b670 f1bf fbdc ff3f 6050 6e04 610d f03f
00000060: 34ba 7768 64b5 c93f b585 4bd2 5644 d4bf
00000070: 3269 ec94 3650 bdbf 3251 30b8 3019 d6bf
00000080: 7d30 fdf5 cbef c8bf ead9 a570 963f c23f
00000090: e82b e3e3 9f19 e53f dcf4 cbc6 4fbb f63f
000000a0: 3f86 39aa 07e8 df3f f92f 3f11 d5bd cebf
000000b0: 08af a791 5663 d9bf e414 b9a5 e59b d93f
000000c0: 5099 f246 c7ab e63f 8918 fad4 6dfc cbbf
000000d0: 4887 35b0 acf8 01c0 3d3f effb 3aa1 07c0
000000e0: 274d 6e39 72a4 edbf cf98 4438 6d1c e33f
000000f0: 4bc9 6d66 8260 f03f 8e2a 691d eaa0 fe3f
00000100: fe1b 4a12 d1e3 0640 aec2 c4ad 62ba f43f
00000110: 70c2 e661 6b41 ee3f 3134 2fe8 24fa d03f
00000120: 5683 8810 dd37 e53f 3e39 e68e 4d8c f33f
00000130: 1f11 02ab 8334 f43f c2f8 5515 8636 cf3f
00000140: 50ec d6d3 8c06 e9bf 698e fbe0 97a3 ce3f
00000150: 7831 a70c 3b1a d6bf 8823 d43d d39d 03c0
00000160: 6b91 310d 7e1a 0cc0 4db1 f22c 348b f6bf
00000170: 3f84 3396 a101 b8bf 0ca0 2cde 7b73 d5bf
00000180: 5a8e fa58 70fc 803f b6fd 8ccf d6a5 e43f
00000190: f98a a862 b016 be3f 892c 3aa8 cd1f fbbf
000001a0: 3ad1 4d46 397c 0dc0 99b2 1496 53d8 febf
000001b0: 3a42 56f8 0f21 d5bf 8224 5cee 6295 d2bf
000001c0: 69f7 f8c6 bff3 c63f 2eff d3a6 3cb3 ea3f
000001d0: 51eb 550b d207 ea3f 46db 653f 8403 cfbf
000001e0: 3b19 6797 bb53 e7bf 1b00 8e9f 7e37 c43f
000001f0: e97b 5861 ace8 d33f e157 7f7e c3ba e5bf
00000200: 0919 d7ed 19ba f0bf 0e6e 9a1d 15f9 f2bf
00000210: 49fb 3a4d e7df ffbf e54c 57fb a281 f4bf
00000220: 12f7 dd85 cbbc e9bf db24 79e5 46e4 f5bf
00000230: f141 400b f1a7 c7bf 37f0 244b ce1d e13f
00000240: 8b32 4a48 3bba af3f 0d11 2487 f3cf a2bf
00000250: b227 cc9d 3e0d f23f 5eba 0ad0 827a 0740
00000260: 68c8 30c9 7c8c 0340 9a86 ecc4 67ea d53f
00000270: 1a2d 2fca d7b2 b1bf 8f32 6043 3276 cc3f
00000280: c209 5fa6 ee8a a5bf b88d 8487 43f7 fcbf
00000290: 73f5 870b 3bb1 efbf cc30 413f 3269 ea3f
000002a0: 35b4 1df0 c99a d03f 9adc fa86 f1ae ec3f
000002b0: dc9d 316f 43fb e73f 53c0 d4fa ef59 e43f
000002c0: b17d 8560 8dad ee3f fb2a 4f40 1c18 f13f
000002d0: 20eb a1a8 59f9 10c0 de50 d673 7696 fcbf
000002e0: 0a93 542e fd51 82bf 2b4d 8c84 4d2e ae3f
000002f0: 48af a14f d4e7 d13f 71bc 8bcb bbdb d3bf
00000300: f1fd 5f73 9bd5 c3bf 43aa 38bc 7587 cabf
00000310: f295 4704 c2ad c63f a516 2f33 6461 f8bf
-0.11339105621462595 -0.12707705478703987 -0.33469028088119124 -0.16293067721642387 -0.10464495806175618 0.02281698771157119 0.3092607046517608 -1.55640198628921
-3.6333640454105756 -2.5777225828578816 1.9914510247972834 1.003266351040132 0.20084815121613675 -0.3166710904752919 -0.11450520644976761 -0.34528749453717744
-0.19481801520521805 0.14256554127105342 0.6593779993939934 1.4207303777214326 0.49853698371416394 -0.2401682218754784 -0.39668812011835586 0.400140201414912
0.708469046182282 -0.21864102267517563 -2.2464231268249115 -2.953725784529438 -0.9263239976593568 0.5972200488074807 1.0235618592383442 1.9142857693538278
2.8612386158815744 1.295504263671471 0.9454857742440037 0.26526758836991166 0.6630692789950483 1.22175365276378 1.2628208808901673 0.24385143319881847
-0.7820495736590463 0.23936747060280375 -0.34535099254278334 -2.4520630674709913 -3.512935736727902 -1.4089853053838681 -0.09377489010832195 -0.3351735753699365
0.008293988910117612 0.6452440313077463 0.11753370674754739 -1.695264489305176 -3.6856561176774933 -1.927814089062997 -0.33014296771674234 -0.29036782529198757
0.1793136331124814 0.8343795069085667 0.8134546491049638 -0.24229481788253276 -0.7289712864956422 0.15794356146580033 0.3110762549057982 -0.6790482969906827
-1.0454348841317957 -1.185811153066314 -1.9921639458477378 -1.2816495721825103 -0.8042962660399289 -1.3682316745565035 -0.18481267022481476 0.5348884074842378
0.06196770913547763 -0.0367427923647786 1.1282335437740412 2.9348198178552556 2.443597385216936 0.3424319670758479 -0.06913517652644821 0.222357066057516
-0.042075593766202526 -1.810367135397298 -0.990384600183161 0.8253413424913787 0.2594475598223796 0.8963554035498362 0.7494218036417197 0.635978689102567
0.9586855778870157 1.068386317451483 -4.243506083376616 -1.7867340588464269 -0.008945444084540028 0.05894701235788554 0.2797747399952084 -0.3102864730598816
-0.15495627530616177 -0.20725890818114764 0.17717766961065667 -1.523777198731673

visible_bias f8 [10]
00000000: ccf4 6915 fda1 ed3f 6eda 8d3e e603 b23f
00000010: 63ab 5ca8 fc6b e33f ab0f 6c5c ffae fd3f
00000020: e3d8 b793 88f0 f13f f8dd 04df 347d c63f
00000030: 8049 26a7 7686 e13f 58f2 94d5 743d fe3f
00000040: fe9a 92ac c3d1 f63f 4265 4980 9a5a f23f
0.9260240000000066 0.07037200000000052 0.6069320000000115 1.8552239999998885 1.1212240000000342 0.17569600000000185 0.5476639999999833 1.8900039999999958
1.4262120000000205 1.1471199999999304

hidden_bias f8 [10]
00000000: e40e e682 a115 1240 c145 4969 eeb8 fabf
00000010: 9a41 f5e6 f7b3 0240 2238 cd04 b64c 18c0
00000020: b5c2 a8b8 41af 1040 9bd8 7d4e 0355 0640
00000030: 5071 a5fd 5fd4 1140 d940 6b32 95da 0cc0
00000040: e4d1 1c98 61fc 11c0 d5ae 4326 3755 0d40
4.521123929301869 -1.6701492417090409 2.3378751796337385 -6.074913096452322 4.171149144459084 2.791510213103789 4.457397425864045 -3.606729883096801
-4.496466042288805 3.6666090955167

cached_gaussian f8 []
00000000: 0000 0000 0000 0000
0.0
