Data/TFIM1D/Energy/Q70/Trial12.pt (torch_old, 23320 bytes, 3 tensors)

weights f8 [39, 70]
00000000: 3c61 5bef 9138 943f 5614 da84 5cee b93f
00000010: 3f99 9890 defb ba3f 26fd 52df aa6b c83f
00000020: 35e0 8c55 3f86 993f b983 b5ed 2bdd 973f
00000030: f833 3713 fa8e b7bf bc6a 6207 0ced 603f
00000040: 67ac 148a 87cc abbf 80bf 05f2 955f ad3f
00000050: 8b77 7b8e 41fa a6bf 15cf 123e 37a8 6e3f
00000060: 0ecc 56ac fc2b a13f fca2 481b f9cb c6bf
00000070: 0ec3 6015 e53a b9bf a632 3024 8499 ab3f
00000080: 1d29 446d 906a a83f bffa 05b5 36d9 aebf
00000090: 9deb 4b58 ea10 61bf f056 9744 34be ad3f
000000a0: 23b6 a399 e8d3 adbf b3c2 e425 4026 90bf
000000b0: dca1 d79c 6520 3a3f e327 be89 9d45 b5bf
000000c0: c7e2 09d6 cd37 b8bf 5baf 9775 f6ab bcbf
000000d0: 3f2d f563 62e4 b6bf 4a73 e1da b1d1 ae3f
000000e0: aaff 5cd0 0584 c2bf 2691 9b8d 09e1 d7bf
000000f0: 2979 b3e1 5134 02c0 fdec d24e 1b30 15c0
00000100: ec1b 2f72 fcb3 02c0 4b5a 5011 cd10 ddbf
00000110: 605b 774e 7f72 c9bf bfdb da42 1e51 87bf
00000120: 1561 1aa5 2749 c7bf a55b 770d d598 7e3f
00000130: a162 3afc 1ed8 c4bf 9b0f da02 638f cfbf
00000140: 0f64 ae0b 674a b4bf 6c2b 82cd cbc9 59bf
00000150: a9c2 1509 4f97 91bf 1235 8d10 6c7e adbf
00000160: 5320 14c8 ddd6 b43f a803 04ac c187 b73f
00000170: 023e ffe6 b148 adbf a704 3763 0427 a4bf
00000180: defa 4068 d855 91bf d392 7fde 4b84 733f
00000190: d007 18fc 520c b33f 25da 3150 a3f6 743f
000001a0: d7d4 fdda aca7 c1bf 87b1 228d 0315 cdbf
000001b0: c532 4c53 34d8 873f 363d c3aa 2d79 af3f
000001c0: 8986 a75e ee2c a8bf f937 9013 cd1d 9ebf
000001d0: 34df 7a40 ebba c33f c0f0 98f7 1b99 a23f
000001e0: ee62 16f1 d970 a83f bf46 ba89 6c1b a23f
000001f0: a21d b3e8 dc13 97bf 2e15 35e0 7efc 71bf
00000200: 4dae 64c8 d4d9 b93f 2729 df79 491f b33f
00000210: 6a46 7d53 d789 963f ba41 b3f8 b44e 5fbf
00000220: e4d5 a7b1 02ae ba3f 4e24 a16c 686e b23f
00000230: 1636 1e1b 3d9f 82bf a242 eea7 0823 b3bf
00000240: f8d0 811c 13bc ab3f d056 42f7 05fd a43f
00000250: 4644 9469 bb10 b23f c2db d46f e809 8cbf
00000260: d648 13f0 dfdc aebf c48d 8e49 ee4c 7fbf
00000270: d5df bbe6 b614 80bf 3ccb 11c5 be50 ac3f
00000280: 6bc3 ace1 dd8d 9bbf 86c0 6755 d367 b3bf
00000290: 669c 6f70 d945 88bf 947f 23b1 df22 c03f
000002a0: 4230 b0ba 6141 80bf 6ee3 7ee2 b65c b93f
000002b0: 89a3 cb3d 9f28 743f 1a10 fdab 46b7 a0bf
000002c0: 8457 6b99 6600 9fbf 3b84 86dc f1ad acbf
000002d0: 0122 a5d8 7d7c afbf 4e6a dfed e832 b43f
000002e0: 5dac f95e 6f21 a73f 3a41 177c 3e30 a0bf
000002f0: 4f21 689c cec6 9abf f92f 0c01 1e09 b6bf
00000300: 56d8 de68 e4fe afbf 2195 b79b 5a81 a93f
00000310: 476d 4a8a 8a49 9cbf 4e53 2c08 da26 b03f
00000320: 29b4 a5ba 7c5a a3bf 83bf 7f7c 6af6 c6bf
00000330: 43ad b00c 02b3 a53f 2a45 d0b0 9e50 bd3f
00000340: fca3 117b b9d2 9d3f cd32 3774 7758 c1bf
00000350: 1187 ce7f 1bf0 9a3f e4fb fa5c 606b 9abf
00000360: dfb9 b0d9 ec5d b73f 424d e192 41bd b43f
00000370: 19c5 23cf b7ff a7bf 2ebb 1898 d1f5 bcbf
00000380: b348 61fc f128 a23f 9274 f223 036a b43f
00000390: b288 5271 0559 bc3f bf2e f790 c4ee b33f
000003a0: 474d 35c2 5b72 bd3f e9ba c16f e947 c13f
000003b0: 0bbc 8f94 9b88 c73f 86eb f00d b40f c13f
000003c0: 75c8 7994 369f bb3f 0174 5e18 5e0c eb3f
000003d0: 8485 a627 0ce0 0340 ed7c 94f2 9e66 1540
000003e0: aa18 cf1e 1968 0240 f413 990b 1483 b23f
000003f0: cab2 c672 5c81 cb3f 9227 7972 3c4c b83f
00000400: 4655 7cbd 9032 a43f a921 b154 3265 983f
00000410: fe26 5ecc 39d0 bf3f 1bef eaa8 b0a6 81bf
00000420: 612c 03c7 5d5d 9dbf 9b22 4e0d 9bf5 96bf
00000430: 2dc8 5a5d 4f21 86bf eac7 ed44 776f c13f
00000440: e4a2 67d6 532d c03f 3c4d 90bf 25e8 ad3f
00000450: c6e9 3ce5 fba0 cd3f 4a3c 8669 5d8d a43f
00000460: 5285 6e89 a911 923f 57c8 3ecf 4462 c1bf
00000470: 0c49 69e9 db8e b7bf 84d4 7f91 7bae b03f
00000480: 7bd8 b8d0 807a a2bf f5d3 3c95 aef9 abbf
00000490: d9df 80da 6eee 97bf e7e2 1059 3612 aabf
000004a0: 236b a517 ae4a 78bf 8ce8 6eba f96c c7bf
000004b0: 532d 94a7 d719 a3bf 5077 2101 b63c c53f
000004c0: c108 7b65 f41f aa3f c74f 98a8 ad35 933f
000004d0: e621 b676 683e b03f 35ee 71fe 1e3b c1bf
000004e0: 91b1 4e07 02b4 a6bf da13 3b30 8135 bd3f
000004f0: 7574 a968 d326 ad3f 73eb 3e87 a488 90bf
00000500: 85e8 daab 2c22 9b3f fcfb c565 e992 a6bf
00000510: ca9c faa9 bd47 b2bf 6255 dee5 f38c 9d3f
00000520: 12bd 08da 6a76 b7bf 963e b062 63a3 adbf
00000530: e027 b4b5 2fab b5bf 3b7e a54f c1c5 b93f
00000540: 6b40 2c99 24df c6bf 953d b7a3 7996 c1bf
00000550: eb07 7d99 cb48 c6bf 36b9 d6fa 88f0 c4bf
00000560: 41cd ce24 9d5d 02c0 4313 e7b2 5d3f 15c0
00000570: 78ac 8783 06ce 01c0 97a5 083f 2823 cdbf
00000580: f2e3 f5a9 dca1 c1bf 3321 363b 3d1d c2bf
00000590: e74e 637a 1b52 c9bf 6485 183b 373f d7bf
000005a0: 80d5 2ebd 56c4 d2bf f936 d736 2b0b 57bf
000005b0: e401 91d6 a579 be3f 7ff8 3dc6 9d40 a33f
000005c0: 2e0a 640b 6f89 acbf 4584 ee81 fdff 99bf
000005d0: cc8c a131 b986 a13f 3d42 5e7a 8d6b b93f
000005e0: d208 46ce 7d70 383f 316c f78e ecb5 b9bf
000005f0: 0e2b 8cbb 182c bebf b0d3 68e3 a791 b2bf
00000600: f18b 97b7 ad63 b53f aee7 e138 405a a13f
00000610: 8f3e c9d4 1a9f 9abf 031f 1d58 0c58 babf
00000620: a632 97f4 90b4 bc3f fd7c c909 5491 6f3f
00000630: cd3a 9254 244d b8bf d36a d478 c680 bcbf
00000640: 22a7 6824 9363 703f e242 2caf 3d33 c63f
00000650: 66af 993e 15f4 a33f 8fec 041c 7d16 b0bf
00000660: 9c2f e3d3 e3c1 93bf 47e1 067c fd29 a13f
00000670: 8aa1 4974 7fdd b03f 1ea6 2e35 4fb7 a83f
00000680: 6f6b 8cd5 9411 70bf 2a27 a0f1 9520 943f
00000690: 60b1 1c4a d171 b03f c509 26e0 edcc c23f
000006a0: 2b71 25a9 292c d63f 5d54 d6c1 6ef5 e73f
000006b0: 2671 9b42 c2c9 0240 a375 b377 8284 1540
000006c0: dc29 13ad 5005 0240 e6d6 7545 8ea9 c63f
000006d0: e9ad 41be 2d1d cf3f 584c 1d43 8141 c33f
000006e0: 702f b334 6990 bd3f da95 9651 3545 cf3f
000006f0: 29ce a38d 57b5 913f 7ff2 383a d370 92bf
00000700: 5c24 9d4c 29dc 8b3f 7931 f50d 0d78 b33f
00000710: c4c7 d57e 662d a5bf c022 e318 6584 b6bf
00000720: c680 fb9d 92c3 92bf fa56 8ed3 f293 c7bf
00000730: 3c41 16bb 9041 8bbf 8e83 009b 4e0c 82bf
00000740: f8bd 3ecb e4c5 91bf 7032 e4ce b599 b13f
00000750: ba4d 22a6 26c7 65bf b015 61c9 bb2e a03f
00000760: a0a5 cdac 359f b73f e0a1 7109 2c70 c83f
00000770: d97f 1c86 047b aabf 013b 5b5e 581d ac3f
00000780: 5033 398c a4d9 90bf d895 155a 28cf a63f
00000790: 6b85 67f1 6af2 b43f ffad 1e6e 1730 b9bf
000007a0: 8a3f c885 0f57 68bf b6af 890b ddf0 c33f
000007b0: 2bd8 f56a 8d5b 9abf 4ecb 2102 f518 c1bf
000007c0: 23c0 b5d1 baf2 c0bf 4d4c 9bf5 a5ba c1bf
000007d0: 003e ca52 1ba4 8abf fa48 e212 e06f aa3f
000007e0: 7a3e 2847 ffa1 853f 50ce 55c0 dc81 bfbf
000007f0: 32cf 2a03 fbb1 c53f 9c56 af82 8d49 c63f
0.019747047647656432 0.10129335635618139 0.10540572195222796 0.19078575043202156 0.02492617568643159 0.023304640182121725 -0.09202540368205792 0.002066157811964812
-0.054294810872612946 0.05736988620162631 -0.044878052370889675 0.0037423209147052863 0.03353871921299155 -0.1780997641774532 -0.09855491420672655 0.053905610482705854
0.04768802007500226 -0.06025095901258259 -0.0020832612084382266 0.058091767666764826 -0.05825735927087929 -0.015770914376107736 0.0003986595228000747 -0.08309349644528612
-0.09460150218536532 -0.11199894305144424 -0.08942236843465866 0.06019359394915698 -0.14465401338565914 -0.37311018780589433 -2.275546801843252 -5.296979171394239
-2.337883846342711 -0.45415045443352103 -0.19880668002471236 -0.011385189452409848 -0.18192000924751342 0.007469970928886936 -0.1628454906065331 -0.24656331671951368
-0.0792602923887815 -0.001573990846767538 -0.017178759507660377 -0.05760514928861417 0.08140360007030382 0.09191523027040083 -0.057195243308907365 -0.03936017714614453
-0.01692903648676746 0.004764839519314906 0.07440680174479941 0.00511802477114157 -0.137929541520555 -0.2272037924898422 0.011642845909159214 0.06147139272217787
-0.04721779733132531 -0.029410557097484944 0.15414181374011948 0.036324380850119464 0.047735987357730866 0.03536547833676939 -0.02253670854841306 -0.004391189201958396
0.10098009006895232 0.0746961519754775 0.022010197134767408 -0.0019108550357494884 0.10421768986983398 0.07199719097219878 -0.009092786207271646 -0.07475332355375966
0.05416927073466299 0.040992914612770215 0.07056781127563835 -0.013690772927118181 -0.06027889066321428 -0.007641726312530964 -0.007852009693564735 0.055303536945663784
-0.02690836610708251 -0.07580300173845175 -0.0118519771039713 0.1260642638144388 -0.007937205800793493 0.09907095937422891 0.0049215526930560605 -0.0326482853838856
-0.030274966348620605 -0.05601459328614352 -0.06149667043297669 0.07890182311477043 0.045176964133894805 -0.031618073127563 -0.02614901380187123 -0.08607661748482077
-0.062491548348973566 0.0498150172314047 -0.027624287310215292 0.06309282969989491 -0.037799737724391776 -0.17939501837781444 0.042381347703065696 0.11451141182648841
0.029124162804155404 -0.13551228689757125 0.02630656211443411 -0.02580023353106843 0.09127693476396058 0.08101281963290766 -0.04687284854470359 -0.11312589610382126
0.03546863752184617 0.07974261882414371 0.11073335663471331 0.07786205805967493 0.11502622119342219 0.13500707585213625 0.1838564372442025 0.13329172783582183
0.10789815068145166 0.8452597118335917 2.484398183602652 5.350215711892116 2.300829163260535 0.07231259616044367 0.2148852882795807 0.09491327090031934
0.0394482833200223 0.02382353441160637 0.12427102317283453 -0.008618717341384355 -0.028676476737740212 -0.022421286284528646 -0.010805721317726913 0.13621416917482004
0.12638328522668651 0.05841176951812563 0.23147534077891246 0.04014102852954034 0.017645501149336447 -0.13581142539402677 -0.09202360580937724 0.06516239454488654
-0.036090875128523124 -0.054639297215921014 -0.0233704872955228 -0.050920198795614095 -0.005930595444022998 -0.18301316836533876 -0.03730653687133647 0.16591525130473395
0.051025044811028326 0.01875945416948335 0.06345227144459606 -0.13461673187326686 -0.04434210147096274 0.11409766604909014 0.056936842466463945 -0.016146250490901303
0.026497552861407776 -0.04408959739065918 -0.07140717887760953 0.028858004479464745 -0.09165065596674918 -0.05788717822735838 -0.08464334665418916 0.10067375368589009
-0.17868478278296904 -0.1374046372788881 -0.1740965365843857 -0.16359054801928047 -2.295709884224977 -5.311880870202745 -2.2255983615664796 -0.22763541295834663
-0.13775213526585578 -0.14151730910476487 -0.1978182170483855 -0.3632333829028396 -0.2932335708131504 -0.0014064714445000666 0.11904369820059163 0.037602358293029596
-0.05573603643462764 -0.02539058785953709 0.03423098307464442 0.09929737317566718 0.0003729159491500214 -0.10043219080346046 -0.11786036089703719 -0.07253503133763561
0.0835522244665723 0.033891684478433035 -0.0259975616812072 -0.10290600920881947 0.11213022204828835 0.003853477608842247 -0.09492709221579361 -0.11133995485253516
0.004001211904815867 0.17343874982227364 0.03897158040203301 -0.06284315046370835 -0.01929431896932919 0.0335234846019739 0.06587978924802065 0.048273539773912896
-0.003923016913882956 0.019655554649978736 0.0642367177903842 0.1468789429164429 0.3464454795664717 0.7487100396998688 2.3485150531470422 5.379403944328632
2.2525952836488 0.17704943076721874 0.2430779627787694 0.15043655182907645 0.11548478638286297 0.24429956897544863 0.017293327350627195 -0.01800851862775454
0.013603518152779319 0.07605058279768241 -0.041362002356336386 -0.08795768601988652 -0.018324175732119106 -0.1842025311458924 -0.013308649739685145 -0.008812536340032453
-0.01735646715650138 0.06875168133792342 -0.002658439146282024 0.031606548626352704 0.09227309674101614 0.1909232183563878 -0.051719800349246454 0.05491138603030344
-0.016455241259154818 0.04454923724805909 0.08182400125180826 -0.09839006842110364 -0.002971201245834669 0.15578806937571493 -0.02573986974081081 -0.13357412914373373
-0.1324075244879178 -0.13850855343352678 -0.01300832125096374 0.05163479071156192 0.01056289134888221 -0.12307529159243669 0.16949403433465587 0.17411965256785755

visible_bias f8 [70]
00000000: 2720 1ff4 6c56 ed3f 3199 081b 9ede 0140
00000010: 8868 de71 8a8e f53f b270 8a8e e4f2 ed3f
00000020: 6b55 302a a913 d0bf 792b f697 dd93 e1bf
00000030: 7ac5 feb2 7bf2 e03f 5d57 a835 cd3b f93f
00000040: 2697 900f 7a36 f13f f64d 4013 61c3 f33f
00000050: 8906 5f98 4c15 f63f f0b9 da8a fd65 e53f
00000060: 7b74 029a 081b f23f d295 218e 7571 0040
00000070: e0c8 54c1 a824 0140 41f0 f44a 5906 0440
00000080: 06dd 2406 8195 0440 b17f 8cb9 6b89 0640
00000090: 8576 4f1e 16ea 0140 f640 a4df be8e 0440
000000a0: 7d9f f831 e6ae 0340 ffac b662 7fd9 fb3f
000000b0: 6a43 60e5 d022 df3f 43bd c117 2653 d1bf
000000c0: e07f fb3a 70ce e43f e40f 5839 b448 0240
000000d0: a13c 0ad7 a370 fc3f 23cb 5d4b c807 fa3f
000000e0: 3af6 75e0 9c11 f33f d863 3bdf 4f8d d3bf
000000f0: 0a48 e17a 14ae e73f 8d00 bc05 1214 fc3f
00000100: cc5e 764f 1e16 0040 57b5 d100 de02 fb3f
00000110: 9fb1 7bf2 b050 fc3f 73d4 e76a 2bf6 fc3f
00000120: 4ec6 bab8 8d06 d43f a1a9 a44e 4013 e9bf
00000130: 415f 6dc5 feb2 c3bf ef19 c05b 2041 ed3f
00000140: ea0c be30 992a f73f 0fd2 6f5f 07ce f13f
00000150: 20a3 923a 014d e23f e320 8e75 711b f73f
00000160: ea02 098a 1f63 e83f ff58 f5b9 da8a ed3f
00000170: 5c8a 6ce7 fba9 f53f 29ce 1951 da1b ac3f
00000180: 7819 e258 17b7 f1bf 831f 63ee 5a42 e0bf
00000190: 56cf f753 e3a5 f03f 2699 2a18 95d4 f23f
000001a0: 23da 8afd 65f7 d4bf cb41 ad69 de71 eebf
000001b0: 3cac 8bdb 6800 db3f e0e5 ae25 e483 f43f
000001c0: 765a 8fc2 f528 fa3f aaa4 9bc4 20b0 f93f
000001d0: 8677 be9f 1a2f cd3f 9851 f38e 5374 b43f
000001e0: 1ba6 a44e 4013 b1bf 5859 643b df4f efbf
000001f0: 802b f697 dd93 f8bf b785 a757 ca32 f7bf
00000200: c012 f241 cf66 cd3f a907 ac1c 5a64 f23f
00000210: 4211 83c0 caa1 ed3f d82d ff21 fdf6 f43f
00000220: ff3f 82e2 c718 0040 68f8 0fe9 b7af f03f
0.9167999999999709 2.233699999999907 1.3472999999999349 0.9358999999999666 -0.25120000000000314 -0.5493000000000016 0.5296000000000014 1.5770999999999369
1.0758000000000236 1.2351999999999612 1.3801999999999757 0.6686999999999994 1.1315999999999622 2.055399999999943 2.1428999999999263 2.503099999999933
2.5729999999999817 2.8171000000001745 2.2393000000000165 2.569700000000121 2.460399999999878 1.740599999999915 0.4865000000000267 -0.27069999999999456
0.6502000000000372 2.285499999999944 1.777499999999954 1.6268999999999287 1.1917999999999567 -0.3054999999999928 0.7400000000000102 1.7548999999999382
2.0107999999998807 1.6881999999999004 1.769699999999922 1.8100999999999459 0.3128999999999892 -0.7836000000000248 -0.15390000000001616 0.914199999999992
1.4478999999999425 1.1127999999999962 0.571900000000003 1.4441999999999602 0.7621000000000013 0.9231999999999799 1.3539999999999486 0.05490000000000023
-1.1072000000000042 -0.5080999999999992 1.0405000000000277 1.1768999999999976 -0.3275999999999916 -0.9513999999999724 0.42189999999999706 1.2821999999999818
1.6349999999999034 1.6054999999999304 0.22800000000000525 0.07990000000001485 -0.06669999999999059 -0.9784999999999782 -1.5361000000000047 -1.4498999999999407
0.22969999999999935 1.1494999999999698 0.9259999999999666 1.310299999999975 2.012099999999918 1.0428999999999409

hidden_bias f8 [39]
00000000: dd20 dbdf 6393 1740 1466 58a8 c695 19c0
00000010: 0ea0 a6f1 1b67 1840 f182 e859 1a60 18c0
00000020: 4a78 0518 c766 1940 be22 9886 5edc 1640
00000030: d44f 15cc 0eae 1440 241d 34f5 1347 0840
00000040: 9b1f 3aa6 da0a 16c0 2b2b 648b 7f00 1840
00000050: 819f 18b5 586a 1ac0 68cd 46ae 38ec 1ac0
00000060: 7c2d 91d3 445b 1840 6f9d e8e4 f692 1540
00000070: 2c33 63bb 4c7f 1640 f83f 32b9 e3ce 1840
00000080: e8c5 3c6d dd1b 1a40 35ad 3b09 cd31 1040
00000090: 8cf6 7a55 66b9 05c0 6a8b 87bb 9151 1840
000000a0: 76b6 3374 98ef 1140 e3f3 35bf 1a99 15c0
000000b0: a695 743d 7670 1840 c3ff 5550 ad3f 17c0
000000c0: d280 d2ef aca7 1dc0 48f9 1c9a 0946 d1bf
000000d0: 91c5 bccc c74e 1940 454b bb89 f06d 19c0
000000e0: 4936 77d7 2114 1940 d107 2ffa f075 1940
000000f0: ae4e abda 0ec5 1740 0d89 4d4f 7076 1740
00000100: 7867 d39f d976 1740 3a5a 97fc 1bdf 1540
00000110: 35d5 c554 ba3c 01c0 c3c3 34a6 7b32 1cc0
00000120: 2003 a848 c755 18c0 374b 771a faae 1340
00000130: f429 84c2 99e7 f43f
5.893935678243193 -6.396265631099158 6.1006925352048835 -6.0938505218662025 6.350368857702117 5.715204337154033 5.169978321839114 3.0347060352829818
-5.510599705979895 6.000486543644722 -6.603854016902802 -6.730684969970163 6.089129739509527 5.3935199515320695 5.624316146783524 6.202040570919046
6.527211863359732 4.048633713023539 -2.715527217688594 6.079657488010392 4.483980003029151 -5.399516093891154 6.109826050034291 -5.812184577225653
-7.413745639060112 -0.2698997502337943 6.326934050580705 -6.3573628922047805 6.269660345698477 6.365177067871586 5.942439476686259 5.865662802798636
5.866064545896613 5.467880198228665 -2.1546522734521667 -7.0492998094277395 -6.083768019919063 4.920875943690411 1.3065431211749656
