Data/TFIM1D/Energy/Q90/Trial2.pt (torch_old, 37000 bytes, 3 tensors)

weights f8 [49, 90]
-2.384559110115972 -5.446224323125582 -2.2998886700423724 -0.1955908029166641 -0.23285705572980023 -0.07339498723176761 -0.072391290091344 0.0012294496538889587
-0.10477716221204203 -0.01960294173393619 0.054718496709744685 0.018694663022833978 0.07934559986790161 -0.0031580633292581724 -0.0737665409154771 0.002887075256914508
0.03214454465046643 0.031495469448392835 -0.024257830840730764 0.01424086419909471 0.042369540790524685 -0.008708482532587809 0.013545149400681048 -0.060862949912177784
-0.1655470386740821 -0.035095123025445804 -0.059385622136600445 -0.02702443470392378 -0.003942970866076796 0.07247187217363482 0.0858674395097559 -0.03447587591775486
-0.03621301051805937 0.10501413616897964 0.00471717644685637 -0.18055893600792508 -0.05481868515127846 0.08709688185314483 -0.12083952490355979 -0.04733483845030389
0.10246691289048702 0.03312918849652452 0.02302374312519826 0.13838117497179994 0.08081223217152814 -0.0005017066899699457 0.021771691130538597 -0.0601674408393372
0.02651192153375555 -0.04769995205184801 -0.02730565181459457 0.10561827608152033 -0.08606321748877627 -0.08462013987923603 0.11236447800763932 0.06862213373155318
-0.01616902378502113 0.019762174286039345 -0.0008724807063412756 -0.011987238304598984 -0.00936858384161024 0.03791516370110741 -0.005846044973040866 -0.09331975057093617
0.049700334377977155 0.08297847578005361 0.05325355355495751 0.0920333634418889 -0.030491167432114365 -0.1928730322466668 -0.08665631265664966 -0.051887250502541234
-0.043836173662169874 0.024723354623699473 0.019906772683343087 0.05979397907340935 0.04608381535062885 -0.14869393522705684 -0.03973410684238707 0.00035001616365281274
0.013046932591930382 0.0838414025877768 0.008525645224750699 0.006783369361813849 0.04054215964032315 0.09995869036216644 -0.01702735108925192 0.002595567833589922
0.1087474446857865 -0.00462655144993116 -0.010389709887047138 0.04826273428184311 -0.0018890964326247035 0.03343352298877636 0.04336807840818335 0.06152239413096845
-0.04522006937465208 0.0005220138088208408 0.08404660903187279 0.06262193174366124 0.06138782301008021 -0.05403902511200293 -0.16868893278757632 -0.046882798570454576
0.16072877174176312 0.050465034632397265 0.05584341646645383 0.032112864933577595 0.19011969753265826 0.08379731476119576 0.17503209700446934 0.11509015662555425
0.1422025124559468 0.042105566986514825 0.2545989281996364 0.11394956546993937 0.26392054542880594 -2.7327661868748616 -3.2625112686540265 -0.07266471999328471
0.0521075607767583 0.11841889367847702 0.015131199599874861 0.16770898795736228 0.055665509428143065 0.1602883781186915 0.09270765138874769 0.15024693107253617
0.041469631224967926 0.021478032641604687 0.24591736440784498 0.0636510242893582 0.04630644200489281 -0.034670153585816446 0.03990123262265545 0.10883995454284887
-0.038647181687656094 0.015995611273322254 -0.02691490799563622 0.0652056596681536 0.06873653516509134 0.06609315229948391 -0.05768240802145126 -0.06261837353257174
0.07797842007597067 0.08606317880750632 -0.039314436868807576 0.1232739589329968 -0.09644457759170086 -0.06045776923304462 0.053200543629014406 0.019716220053945726
-0.0037147618777428944 -0.10854470740687586 0.03616681412307663 0.1746247612208475 0.08691176883279934 -0.0734492446009414 0.02242453743640383 0.08557504087614952
-0.09667398117757928 -0.2589241692176138 0.00911664564131504 0.1173865285800354 0.007148798932119832 0.028213164746829267 0.046046568614701806 -0.00917372256906491
0.11337161125787514 0.022475857101725234 0.06283221531499772 -0.0929184992952982 -0.056056548010782054 0.19763812813928971 0.06468717312380974 -0.08432841404556977
-0.014606537654337007 0.012237197876380133 -0.0311663895922622 -0.025318591684177424 -0.02193118541883437 0.02958714355055529 0.09488451561065703 -0.022433428228484716
-0.009902717493690835 0.01861920635744372 0.03886895079028608 0.022719890429955175 -0.03328554115661325 -0.025250822470661773 -0.023798530552115775 0.07750181729374
0.07128652516246897 0.03661174787192637 -0.02052692226303323 -0.06160684756915095 -0.06280682863213863 -0.04912665867344207 -0.0617804603399488 -0.07191711241139963
0.09730591266461307 -0.007772034042836714 -0.11333004595001424 -0.02913246189968653 -0.02279520790697325 -0.062117667993501706 -0.06217496095996956 -0.3283823213476863
-0.25999067251008606 -0.42073449494388215 -2.3128587487210153 -5.633856602593105 -2.294089118314783 -0.3633846946751526 -0.31556665356691116 -0.5529532070979987
-0.1374803145462906 0.0653274392794308 0.03447716313048938 -0.05344049487877117 -0.23675226897874296 0.08249666020098474 -0.002440973874757768 -0.017251020245868675
0.04679617412828219 0.07484337242819251 0.0050321331634338795 -0.0496894591446905 0.04472405407715684 -0.022896964170933037 0.07089080489109292 0.00042797723341396536
0.04285219565574118 -0.026211422020097314 0.013989507131699289 -0.003410745336960281 -0.04424476700934891 -0.08657367155328932 -0.07347894827280863 0.003198040288837226
0.015871833239447533 -0.07913069576964488 -0.052188118417554955 0.12811899258036627 -0.002119808572405056 0.039728652180891735 -0.053072935060909876 0.033462180487803604
0.013476169585117364 0.03256706915136832 0.003134316020310933 -0.029069303157874125 -0.02407387353391766 0.00568479921106395 -0.006592410483598201 0.004577955782062318
00000000: 9f9d 0aba 9313 03c0 3604 6a07 efc8 15c0
00000010: f32e f207 2c66 02c0 4575 f692 1e09 c9bf
00000020: b94c 808f 42ce cdbf afcc d98d 03ca b2bf
00000030: 6523 754f 3c88 b2bf 66d4 8d83 af24 543f
00000040: 2883 1115 add2 babf 2450 9c26 cb12 94bf
00000050: fc92 b513 1004 ac3f 06d7 2b99 b124 933f
00000060: a39e 8344 fe4f b43f 11b7 f856 f0de 69bf
00000070: 9261 c530 5de2 b2bf 84bd e7b9 a2a6 673f
00000080: 5c81 09f0 3f75 a03f 1a8b 8196 2c20 a03f
00000090: e606 8878 0bd7 98bf 63de 0370 502a 8d3f
000000a0: 406c 15e0 75b1 a53f 77ea 66bd c0d5 81bf
000000b0: 6f18 902d 8fbd 8b3f 2160 d2b6 6d29 afbf
000000c0: aa04 8736 a530 c5bf ee69 49eb fcf7 a1bf
000000d0: dbce dbd1 ca67 aebf 5c26 fc1c 4bac 9bbf
000000e0: 2ebc b32e 8126 70bf 809b dd40 848d b23f
000000f0: 3454 7c94 68fb b53f 08ab 226f d2a6 a1bf
00000100: 01c3 baff 828a a2bf 34a5 76d8 34e2 ba3f
00000110: 3a6f 1969 5152 733f c5c9 9322 8e1c c7bf
00000120: c771 ded7 3111 acbf b390 2433 fb4b b63f
00000130: 3a64 86cf 56ef bebf e703 369e 453c a8bf
00000140: a766 c987 453b ba3f 586c 451a 4ff6 a03f
00000150: 3a55 043f 8993 973f 4d66 716e 79b6 c13f
00000160: 0221 4b46 1cb0 b43f 766f ade9 9e70 40bf
00000170: ca7f 8975 514b 963f 6cc0 604d 44ce aebf
00000180: 5532 c4ef f025 9b3f a7ba 2acc 206c a8bf
00000190: 2799 2846 03f6 9bbf 9249 a1a1 cc09 bb3f
000001a0: 6cb9 8030 3d08 b6bf 6a40 5d5d aaa9 b5bf
000001b0: 4c61 461e ebc3 bc3f 74a4 285c 3891 b13f
000001c0: 76ab 75d1 9c8e 90bf 668b 0611 893c 943f
000001d0: 21f4 d00c e696 4cbf a9a0 e6e3 c38c 88bf
000001e0: 9028 ad09 d62f 83bf d6cb 3cc8 9d69 a33f
000001f0: 01c2 85bf 05f2 77bf 7ce6 c59c cde3 b7bf
00000200: dfe1 817d 5272 a93f 534c bfcf 133e b53f
00000210: ad22 d4bd 0c44 ab3f 04b1 1f9e 7f8f b73f
00000220: 6a4c c09b 1339 9fbf 12d0 e342 10b0 c8bf
00000230: ca2d daac 1b2f b6bf 89bd f937 f790 aabf
00000240: 1387 85e8 b171 a6bf 658c 393e 1451 993f
00000250: 4651 93e6 7062 943f b36a 3c01 519d ae3f
00000260: db98 9c3f 4c98 a73f cff5 7422 6708 c3bf
00000270: 3cff d862 0758 a4bf 5487 d8f9 4bf0 363f
00000280: d318 5da6 59b8 8a3f 354f 2a52 a176 b53f
00000290: 2640 57bb e475 813f 4a05 0dd9 e0c8 7b3f
000002a0: 505f 8723 f1c1 a43f 7976 0e8a e496 b93f
000002b0: 646d 4330 9e6f 91bf d6d4 b6de 4c43 653f
000002c0: 1bf3 725e dfd6 bb3f 6640 bb72 4af3 72bf
000002d0: 8638 7041 3347 85bf bd4c b6a2 e4b5 a83f
000002e0: 314e 6ad9 71f3 5ebf 045a a7df 321e a13f
000002f0: a032 e83c 5734 a63f 4a3c 87fd dc7f af3f
00000300: e388 2cbe 1527 a7bf 563e 541e f81a 413f
00000310: 01b0 211d 1484 b53f 56f3 d9ac fd07 b03f
00000320: 66e0 6688 396e af3f 29a7 20cb 00ab abbf
00000330: 3b88 c254 9997 c5bf 28ca 35ad 0501 a8bf
00000340: 8f1c 14a9 c292 c43f f0e0 ac92 8dd6 a93f
00000350: 1c35 d71e 8297 ac3f 6456 57f1 1871 a03f
00000360: f934 9d9d d755 c83f 1657 64a6 bd73 b53f
00000370: 2537 31a6 7367 c63f a25b cc6a 8c76 bd3f
00000380: 3323 3422 b133 c23f 748c 5f62 dc8e a53f
00000390: a9b3 8d4d 594b d03f 8e38 1679 cc2b bd3f
000003a0: 32fd d6ff 12e4 d03f efef c184 b4dc 05c0
000003b0: a79a 0d82 9f19 0ac0 27b4 f1b3 279a b2bf
000003c0: 452e d29a d7ad aa3f f8da 935b b350 be3f
000003d0: 8318 723b 1bfd 8e3f 1ed5 42f5 7c77 c53f
000003e0: bea2 048d 3080 ac3f c26d f95e 5484 c43f
000003f0: 5fbb cd4a b0bb b73f d4f4 a39b 4a3b c33f
00000400: aede c6eb 813b a53f 8ec9 1c5f 56fe 953f
00000410: 093a d35e 387a cf3f 8000 aefb 6e4b b03f
00000420: 18a1 025c 7ab5 a73f 1ac5 984f 49c0 a1bf
00000430: d268 5e32 ef6d a43f 3e79 426d efdc bb3f
00000440: fbb2 dc3a 90c9 a3bf 5a9c 314d 2761 903f
00000450: 9ee4 76e6 948f 9bbf 7ff0 c96f 51b1 b03f
00000460: 460d 93b2 b798 b13f 13a7 9d17 7beb b03f
00000470: 1a69 0370 8c88 adbf ca7b 73fa c107 b0bf
00000480: 9821 05cc 64f6 b33f dd37 5e8a 3c08 b63f
00000490: 5670 3999 0521 a4bf a3cf 10d6 e18e bf3f
000004a0: 0e05 a282 97b0 b8bf e642 4a1b 52f4 aebf
000004b0: 2336 0806 1a3d ab3f 2b6a 5421 7d30 943f
000004c0: 0cea df98 6b6e 6ebf 5a67 7700 96c9 bbbf
000004d0: 3ddf b7e7 7484 a23f f5f6 41ab 1a5a c63f
000004e0: 1d3e c684 d93f b63f 4219 7ad7 91cd b2bf
000004f0: 024c ab3b 75f6 963f 9fbb eaf1 3ee8 b53f
00000500: 8625 8843 a0bf b8bf 73c0 bbad 3692 d0bf
00000510: a383 0777 bfab 823f 3802 3e25 0b0d be3f
00000520: 7af9 e719 0f48 7d3f adfe 9d6f e9e3 9c3f
00000530: a119 9674 6a93 a73f 856c 5533 acc9 82bf
00000540: f3bb a502 ec05 bd3f 9250 ce3c e903 973f
00000550: e8c3 e9a5 c515 b03f 2bad aabb 81c9 b7bf
00000560: 4cad dda0 71b3 acbf 1c84 66c8 344c c93f
00000570: 8596 09ad 568f b03f 4f03 7304 8c96 b5bf
00000580: a2ee 434c 08ea 8dbf 4cce 63e5 d00f 893f
00000590: f0f4 2100 15ea 9fbf cca9 0eed 1ded 99bf
000005a0: eead 8bf0 2075 96bf 8b0d ba97 174c 9e3f
000005b0: 90cf 7103 5a4a b83f a263 50e2 c9f8 96bf
000005c0: ab26 373e e047 84bf 7ae1 87c9 e910 933f
000005d0: d1be f290 a1e6 a33f 2821 7609 e243 973f
000005e0: 9806 656d cd0a a1bf ba99 d502 5adb 99bf
000005f0: 7e22 a859 a45e 98bf fc3c a8ba 28d7 b33f
00000600: 8ce1 376e d53f b23f c5c5 8467 c6be a23f
00000610: e6a2 3a6f 0205 95bf 65cf 09c7 ee8a afbf
00000620: 62c5 f0ba 1b14 b0bf e876 ba20 2127 a9bf
00000630: 6441 6241 b0a1 afbf 5768 d4ed 2869 b2bf
00000640: 1719 9a50 0ae9 b83f 3c1e 9980 91d5 7fbf
00000650: d56d 02a9 3203 bdbf 5bc9 716c e6d4 9dbf
00000660: 6e27 dd81 a057 97bf 4f5e 1211 e3cd afbf
00000670: c102 e87f 65d5 afbf ca76 b148 3704 d5bf
00000680: 1189 ecea afa3 d0bf b650 0560 50ed dabf
00000690: a631 7016 bc80 02c0 d7f6 89b4 1189 16c0
000006a0: f72b 4a65 4b5a 02c0 5bca dfe0 b141 d7bf
000006b0: 7ecb 317a 3e32 d4bf f788 96ec cab1 e1bf
000006c0: 67f9 6877 f498 c1bf 9490 3c8f 4cb9 b03f
000006d0: f967 35a0 fda6 a13f 18a0 9273 8d5c abbf
000006e0: 523d 42fa e54d cebf 15ab 9749 801e b53f
000006f0: 6698 ccde 17ff 63bf c353 1d5f 40aa 91bf
00000700: 11f4 ea0a abf5 a73f 71c4 e66c ef28 b33f
00000710: 8967 dbf5 929c 743f b4f9 f693 e570 a9bf
00000720: af3b 363b 12e6 a63f 68d8 2a41 4d72 97bf
00000730: 0a28 9858 e625 b23f 0be3 8f38 440c 3c3f
00000740: 7270 ce15 b9f0 a53f 4590 6ec1 2ad7 9abf
00000750: e844 f1dc 87a6 8c3f f5db abf5 d9f0 6bbf
00000760: c509 a606 40a7 a6bf 181a 0430 b129 b6bf
00000770: 4eb4 c62f 84cf b2bf 5486 75ce c632 6a3f
00000780: a493 c3b2 b440 903f ccba 70c6 e841 b4bf
00000790: 7ab4 afab 66b8 aabf a787 9001 3466 c03f
000007a0: 6398 c08f 8f5d 61bf 8284 a95b 5057 a43f
000007b0: 8857 c730 602c abbf 9328 b275 f421 a13f
000007c0: 16be 25dd 6499 8b3f 7107 dd81 a1ac a03f
000007d0: 639b ae19 23ad 693f 79b6 85e9 57c4 9dbf
000007e0: 019b 104e d2a6 98bf b22f 22ab f148 773f
000007f0: 369e dcb6 a400 7bbf 7726 dda5 55c0 723f

visible_bias f8 [90]
1.269800000000002 2.4141000000000674 2.2417999999997975 1.767599999999912 0.0706000000000011 -0.7180999999999975 0.6690000000000152 0.6036000000000465
-1.1624999999999708 0.10150000000000824 1.3464999999999447 -0.2884999999999974 -1.5162999999999267 -1.978299999999906 -1.9932999999998948 -0.4757999999999648
0.7963999999999968 -0.28059999999999075 -1.874899999999902 -0.8120999999999937 0.9498999999999974 0.20030000000000764 -1.6730999999999348 -1.5428999999998956
-1.6970999999999266 0.09440000000000515 1.9026999999999186 2.2150999999999 2.371399999999792 2.5191000000000345 2.059800000000106 1.7754999999999326
0.3898000000000095 -1.0853999999999828 0.36320000000002944 2.1420999999999633 1.6820999999998778 1.7351999999999557 0.28929999999994765 0.34590000000000437
1.3781999999999621 -0.4114000000000007 -0.702400000000004 1.0940999999999532 1.7063999999998867 1.5978999999999397 0.056900000000007146 -1.093799999999962
0.062199999999992976 2.0536999999999077 1.7693999999999135 1.7868999999999131 1.0899999999999836 1.1311000000000118 1.87109999999991 1.7643999999998783
2.0234999999999395 2.10090000000004 2.364199999999964 1.9862999999998925 -0.03810000000000052 -1.3765999999999472 -1.8139999999999123 -1.476499999999935
0.09359999999999778 1.4350999999999166 1.3323999999999505 1.9192999999998772 0.5071999999999961 -0.5512000000000035 0.8521999999999595 1.9998999999998914
1.5327999999999167 2.432900000000071 2.074000000000113 2.0027999999998887 0.22359999999996927 -1.6488999999999114 -1.580099999999893 -1.472699999999936
0.12280000000000803 1.8898999999998942 2.0199999999999982 1.8037999999999417 0.1812000000000315 0.7004999999999791 2.5344999999999 2.0668000000000903
2.023500000000037 2.0479999999998753
00000000: 795f 07ce 1951 f43f ed30 2aa9 1350 0340
00000010: 1d60 a1d6 34ef 0140 2c8c 06f0 1648 fc3f
00000020: a0fc 1873 d712 b23f 2c3e e8d9 acfa e6bf
00000030: 25c5 20b0 7268 e53f a2b4 7bf2 b050 e33f
00000040: 1699 9999 9999 f2bf e745 8b6c e7fb b93f
00000050: 2c05 8195 438b f53f e257 39b4 c876 d2bf
00000060: b1ca eec9 c342 f8bf 85d2 9ae6 1da7 ffbf
00000070: 90dc 718a 8ee4 ffbf 0ef2 dbd7 8173 debf
00000080: b119 51da 1b7c e93f de7b d0b3 59f5 d1bf
00000090: d651 7424 97ff fdbf 3f9c a223 b9fc e9bf
000000a0: 6d0d 4faf 9465 ee3f 46c5 b12e 6ea3 c93f
000000b0: 43ff 6e81 04c5 fabf 9cf7 0fe9 b7af f8bf
000000c0: 1aa9 6054 5227 fbbf 600f be30 992a b83f
000000d0: e494 218e 7571 fe3f 10f4 4a59 86b8 0140
000000e0: 39de 2d90 a0f8 0240 7ad4 9ae6 1d27 0440
000000f0: f968 226c 787a 0040 6cc3 20b0 7268 fc3f
00000100: 18c6 feb2 7bf2 d83f d340 f163 cc5d f1bf
00000110: a311 7a36 ab3e d73f 6f17 2653 0523 0140
00000120: 019e 89b0 e1e9 fa3f dd4d 4013 61c3 fb3f
00000130: 83e2 ae25 e483 d23f 49ee ebc0 3923 d63f
00000140: 778d 7571 1b0d f63f 05c3 64aa 6054 dabf
00000150: bdbb 9690 0f7a e6bf b9da 6800 6f81 f13f
00000160: 784d 1e16 6a4d fb3f 4473 2497 ff90 f93f
00000170: adec 482e ff21 ad3f 8dd5 c56d 3480 f1bf
00000180: a751 9fab add8 af3f c25b fe43 fa6d 0040
00000190: 26ac d85f 764f fc3f 6c8d 5374 2497 fc3f
000001a0: 273d 0ad7 a370 f13f 2517 4850 fc18 f23f
000001b0: 32b9 b88d 06f0 fd3f 73fd 907e fb3a fc3f
000001c0: 5ba5 9bc4 2030 0040 2455 c1a8 a4ce 0040
000001d0: d69f 89b0 e1e9 0240 9cb5 4082 e2c7 ff3f
000001e0: 4888 f4db d781 a3bf 23c6 bab8 8d06 f6bf
000001f0: 1519 2fdd 2406 fdbf 15b3 c876 be9f f7bf
00000200: c7d4 e76a 2bf6 b73f efd3 e76a 2bf6 f63f
00000210: 020b 93a9 8251 f53f 7865 b3ea 73b5 fe3f
00000220: 74ff 907e fb3a e03f 52c4 b12e 6ea3 e1bf
00000230: 35d5 34ef 3845 eb3f a651 7424 97ff ff3f
00000240: 61ef f44a 5986 f83f 7882 7346 9476 0340
00000250: 633c df4f 8d97 0040 346d a301 bc05 0040
00000260: 0457 b1bf ec9e cc3f fcfb 65f7 e461 fabf
00000270: d78b 06f0 1648 f9bf 511a 0de0 2d90 f7bf
00000280: d1e6 f21f d26f bf3f f05b 4bc8 073d fe3f
00000290: 255c 8fc2 f528 0040 8e64 8863 5ddc fc3f
000002a0: de85 04c5 8f31 c73f 1522 dbf9 7e6a e63f
000002b0: 4cb1 9def a746 0440 4afc 3a70 ce88 0040
000002c0: 37a6 9bc4 2030 0040 e3a8 f1d2 4d62 0040

hidden_bias f8 [49]
5.325329797362188 0.9338256548546225 6.662194711415361 -5.52453222067417 6.1398125128627 -5.1585659484163155 -6.422779886285134 -6.654254861858477
-6.101624086903739 -6.302130860225904 -5.624464196361093 6.814474216900546 6.002635613809147 -0.19852018961105347 -5.024589557001734 1.3126402304013536
-6.094842121143489 -6.796545293582906 5.807344040496255 5.586776059729213 5.296518392917336 5.839864289264909 6.548221003430919 2.1173305727936147
6.340542428754245 6.251999265360585 5.883228930702283 6.418862391114033 -6.2913971326776394 5.6445025295925575 -6.323061415419152 5.927862031819197
-6.147257535638729 6.382645572852534 6.295547709749568 -6.077729568632634 -5.617973256436993 5.286590065638133 5.743564852401829 5.249907792122694
5.883944074467031 -6.118694661087754 5.932287611810232 -6.300139288474103 -6.040733527015086 5.748923859412545 5.963845973485808 6.471728137912664
5.489221835384642
00000000: f156 2041 234d 1540 3f86 f856 e6e1 ed3f
00000010: d973 d45e 16a6 1a40 abf9 75f9 1e19 16c0
00000020: 7b44 e902 2b8f 1840 46d4 aa1c 5fa2 14c0
00000030: 4801 e435 edb0 19c0 81b9 8bfc f49d 1ac0
00000040: 1ef3 0625 1068 18c0 6321 cfca 6135 19c0
00000050: 4593 d38a 737f 16c0 9c17 7487 0542 1b40
00000060: f075 0ce9 b202 1840 25d3 fc0c 1c69 c9bf
00000070: 1295 3c01 2e19 14c0 b2cd cf0a 9300 f53f
00000080: d360 024b 1e61 18c0 9ce2 c691 a92f 1bc0
00000090: 2935 6a65 b83a 1740 6b73 cad2 db58 1640
000000a0: 41f8 8084 a22f 1540 60e2 5d62 055c 1740
000000b0: 4add c2d8 6031 1a40 95c1 e702 4bf0 0040
000000c0: 7d99 8927 b75c 1940 e45b 6d18 0c02 1940
000000d0: 4bfd 302a 6d88 1740 c06f 3d43 eaac 1940
000000e0: 9afe 8b02 642a 19c0 4028 9b78 f893 1640
000000f0: 854c 979c d04a 19c0 4a74 e776 21b6 1740
00000100: afa1 eead ca96 18c0 7b71 b53d d487 1940
00000110: dd20 0f0f a42e 1940 60d6 0c57 984f 18c0
00000120: 4bcc 38fb cd78 16c0 db18 bddd 7725 1540
00000130: 6d15 8e10 69f9 1640 ebba 08d4 e7ff 1440
00000140: c850 ada2 2889 1740 ab53 de17 8b79 18c0
00000150: 79c3 8c9a a9ba 1740 c4f6 b0b6 5733 19c0
00000160: a985 b90c b629 18c0 e37b 6de5 e5fe 1640
00000170: e502 5a70 fada 1740 61c0 73b3 0ce3 1940
00000180: 52dd 9d91 f6f4 1540
