Data/Energy/Q80/Trial1.pt (torch_old, 1920 bytes, 3 tensors)

weights f8 [1, 80]
0.102760754664396 -0.1498241669416153 0.08236259464001057 0.03303174313741598 0.059136173998307624 0.14517158919643536 0.13234818685860678 -0.01287154514570572
-0.17436494855573031 -0.18356664549561658 -0.026373342761771418 -0.10594463685356893 -0.09364260714314002 -0.1302647819167032 -0.17252160030447344 0.0001599694173344382
-0.07900388978789509 -0.1676703562855336 -0.2624668616523209 -0.0015784017164182404 0.02841867862813895 -0.19341041765512912 -0.08545696341450729 -0.31201820781358136
-0.11800542074901615 0.015953276823438355 0.12445107654670362 -0.07853216409716354 -0.06045534257080532 -0.05203196181541676 -0.10836793669077906 -0.19708622475085388
-0.06865747753614213 0.02367634128101728 0.02930802439887794 -0.19357169061981253 0.11547761955627409 -0.20735797895444188 0.08669432406711533 -0.059920537186300145
-0.05933538029049816 0.09401767371228163 -0.0604315229748547 0.05136807199046529 0.05166846403574492 -0.10125722061735745 -0.14096372433738436 0.04148229898069822
0.10451185153053523 0.04153693489135707 0.1989896450318998 -0.10389055672289223 0.0259851467380316 0.19133310464011927 0.03473100262665616 -0.042500255533384844
0.1143606753583177 -0.1888616002865329 0.18604505161887594 0.11482485964008186 0.03925586138505417 -0.04381901531010404 0.07438343014451575 0.023418852607344793
0.11166743713696443 -0.020443021103557873 0.16741396999250843 0.08359192054066718 -0.029693014826614416 0.010737306596478292 -0.009229013359385673 0.12412287998609245
-0.10236332130459558 -0.08467013748178627 -0.14874021018710576 -0.11374538126238423 0.13491779493423173 -0.036770258526693515 -0.12234563275676472 -0.12264521158317024
00000000: 4d8a 9860 874e ba3f 4d14 9534 702d c3bf
00000010: 2d7e 640a b715 b53f 1199 0261 89e9 a03f
00000020: e1a5 aaba 1847 ae3f c819 f48d fb94 c23f
00000030: f20d 1f0f c9f0 c03f 662d 998b 655c 8abf
00000040: 76cb ce33 9751 c6bf f621 85a1 1c7f c7bf
00000050: 088f 9712 9d01 9bbf 3901 790e 301f bbbf
00000060: 7224 313f f6f8 b7bf 5c8f 1331 84ac c0bf
00000070: 62a5 9413 3015 c6bf a441 e5d4 aef7 243f
00000080: 0153 e552 9939 b4bf fba4 60e4 3876 c5bf
00000090: 8026 c5ce 41cc d0bf 8e38 20f0 4bdc 59bf
000000a0: 1dac 363d c919 9d3f dc69 442d acc1 c8bf
000000b0: d2ad 14ef 81e0 b5bf 1c37 9437 1bf8 d3bf
000000c0: 7c24 de6e 9a35 bebf d6ff e148 0e56 903f
000000d0: 7857 b897 06dc bf3f 863e 7b14 af1a b4bf
000000e0: 5190 6bae 00f4 aebf 5a18 b0ec eea3 aabf
000000f0: e19a 0548 00be bbbf db04 e614 1f3a c9bf
00000100: fec1 a454 8993 b1bf 87af f65d 9c3e 983f
00000110: 06d6 3639 ec02 9e3f 055f 5208 f5c6 c8bf
00000120: 3e04 6af7 f08f bd3f 1d45 16cd b48a cabf
00000130: 5af9 9d66 9931 b63f a9d7 2597 e7ad aebf
00000140: c6d3 affb 3461 aebf 871a d7d1 8a11 b83f
00000150: 6621 a66d e1f0 aebf 09e7 837a ea4c aa3f
00000160: 5641 89f6 4974 aa3f 7210 0943 feeb b9bf
00000170: 4cc8 f96c 190b c2bf 0051 f8fa 2a3d a53f
00000180: f138 5ee8 49c1 ba3f 8871 de41 5444 a53f
00000190: dacb d320 7e78 c93f 2df1 7c4f 9298 babf
000001a0: b1b9 afad d99b 9a3f 8a25 8969 9a7d c83f
000001b0: 8da7 e010 43c8 a13f dbd0 2cef 97c2 a5bf
000001c0: 5ec9 9cc0 bd46 bd3f 89b6 59ee 9d2c c8bf
000001d0: f391 2402 53d0 c73f 6304 ec78 2965 bd3f
000001e0: ba75 a621 5819 a43f d44e 662b 726f a6bf
000001f0: 47c2 d5df ca0a b33f a5ca 3b98 1cfb 973f
00000200: b509 88b6 3c96 bc3f 9bed 48ec 03ef 94bf
00000210: e373 012b d26d c53f 4d97 eeb4 4766 b53f
00000220: d359 667e d867 9ebf 3497 6ee5 70fd 853f
00000230: 535b 6c34 a9e6 82bf ecc0 395e 84c6 bf3f
00000240: 702c 508d 7b34 babf d59d 6e2f f1ac b5bf
00000250: d648 2d51 eb09 c3bf 4ace 97d4 6a1e bdbf
00000260: f80a 727e fc44 c13f b7db ac23 8dd3 a2bf
00000270: d2ac 7f1b 0b52 bfbf 52be c234 ad65 bfbf

visible_bias f8 [80]
-0.04450000000000001 -0.016999999999999984 -0.04650000000000002 -0.08450000000000006 -0.1305000000000001 -0.16700000000000012 -0.18300000000000013 -0.19400000000000014
-0.16450000000000012 -0.22150000000000017 -0.25250000000000017 -0.33350000000000024 -0.4035000000000003 -0.3920000000000003 -0.4265000000000004 -0.5079999999999992
-0.4849999999999986 -0.44550000000000034 -0.4145000000000003 -0.48700000000000243 -0.4939999999999992 -0.4090000000000003 -0.3700000000000003 -0.2900000000000002
-0.2735000000000002 -0.3165000000000002 -0.33100000000000024 -0.18900000000000014 -0.1530000000000001 -0.1565000000000001 -0.1065000000000001 -0.08100000000000009
-0.08150000000000006 -0.12300000000000008 -0.06150000000000004 -0.0455 -0.18250000000000013 -0.032000000000000035 -0.16800000000000012 -0.11250000000000007
-0.11700000000000008 -0.1375000000000001 -0.1295000000000001 -0.10900000000000008 -0.1495000000000001 -0.029500000000000026 -0.03700000000000003 -0.10750000000000008
-0.044500000000000026 0.015000000000000013 -0.01700000000000002 0.12400000000000008 0.11500000000000007 0.06800000000000005 0.1315000000000001 0.20100000000000015
0.15950000000000011 0.2800000000000002 0.08400000000000005 0.19350000000000014 0.19950000000000015 0.1565000000000001 0.1555000000000001 0.10150000000000006
0.1410000000000001 0.08400000000000005 -0.017 0.0375 0.08200000000000006 0.09400000000000007 0.06050000000000004 0.025000000000000022
0.027000000000000024 0.06350000000000004 0.025999999999999995 0.04750000000000003 -0.054500000000000035 0.003499999999999954 -0.004000000000000009 0.02600000000000001
00000000: 6410 5839 b4c8 a6bf 97c4 20b0 7268 91bf
00000010: 052b 8716 d9ce a7bf 7312 83c0 caa1 b5bf
00000020: 5162 1058 39b4 c0bf cb4b 3789 4160 c5bf
00000030: 0b81 9543 8b6c c7bf a745 b6f3 fdd4 c8bf
00000040: 7993 1804 560e c5bf 2d31 08ac 1c5a ccbf
00000050: 2c5c 8fc2 f528 d0bf f6d2 4d62 1058 d5bf
00000060: 72e7 fba9 f1d2 d9bf 4f0c 022b 8716 d9bf
00000070: b99d efa7 c64b dbbf a1c6 4b37 8941 e0bf
00000080: f1d6 a370 3d0a dfbf 568d 976e 1283 dcbf
00000090: c049 0c02 2b87 dabf 8aba 490c 022b dfbf
000000a0: f655 0e2d b29d dfbf 9918 0456 0e2d dabf
000000b0: b347 e17a 14ae d7bf 93c2 f528 5c8f d2bf
000000c0: 1e2f dd24 0681 d1bf acc6 4b37 8941 d4bf
000000d0: cd76 be9f 1a2f d5bf 03d5 78e9 2631 c8bf
000000e0: 33dd 2406 8195 c3bf d978 e926 3108 c4bf
000000f0: e424 0681 9543 bbbf 29db f97e 6abc b4bf
00000100: 7bbe 9f1a 2fdd b4bf b672 6891 ed7c bfbf
00000110: b672 6891 ed7c afbf b29d efa7 c64b a7bf
00000120: 618f c2f5 285c c7bf 01aa f1d2 4d62 a0bf
00000130: 1f2f dd24 0681 c5bf d2cc cccc cccc bcbf
00000140: c6ca a145 b6f3 bdbf 9d99 9999 9999 c1bf
00000150: fd7e 6abc 7493 c0bf 8795 438b 6ce7 bbbf
00000160: 8d41 60e5 d022 c3bf 7091 ed7c 3f35 9ebf
00000170: 906c e7fb a9f1 a2bf 8beb 51b8 1e85 bbbf
00000180: 6610 5839 b4c8 a6bf c01e 85eb 51b8 8e3f
00000190: a1c4 20b0 7268 91bf 5e39 b4c8 76be bf3f
000001a0: 763d 0ad7 a370 bd3f 9fc4 20b0 7268 b13f
000001b0: a545 b6f3 fdd4 c03f f37c 3f35 5eba c93f
000001c0: d522 dbf9 7e6a c43f ef51 b81e 85eb d13f
000001d0: 1e2f dd24 0681 b53f fd53 e3a5 9bc4 c83f
000001e0: f5a7 c64b 3789 c93f d978 e926 3108 c43f
000001f0: 8595 438b 6ce7 c33f 9a43 8b6c e7fb b93f
00000200: 4335 5eba 490c c23f 1e2f dd24 0681 b53f
00000210: 9cc4 20b0 7268 91bf 3333 3333 3333 a33f
00000220: cfa1 45b6 f3fd b43f aff1 d24d 6210 b83f
00000230: 66e5 d022 dbf9 ae3f a099 9999 9999 993f
00000240: e0ce f753 e3a5 9b3f abc6 4b37 8941 b03f
00000250: 38b4 c876 be9f 9a3f 56b8 1e85 eb51 a83f
00000260: 8695 438b 6ce7 abbf 0fe9 2631 08ac 6c3f
00000270: 06aa f1d2 4d62 70bf 3cb4 c876 be9f 9a3f

hidden_bias f8 [1]
0.02049379568095745
00000000: c3e9 e158 53fc 943f
